checkpoints/epicon_comp/IMR90/best_model.pt (torch, 578018 bytes, 54 tensors)

encoder.pos f4 [1, 15, 64]
000000 4b 1d 85 bd 37 5f 01 bf 58 e2 95 bf e0 db 44 bf
       -0.06499728 -0.5053591 -1.17097 -0.76898
000010 2c 11 1c 3f 89 b9 bc bd 0b 7c c6 be 0c 29 e7 be
       0.609637 -0.092150755 -0.38766512 -0.45148504
000020 1f b1 c0 be 48 39 b6 be 80 d1 8d 3e 83 6e df 3e
       -0.37635133 -0.35590577 0.27698898 0.43639
000030 48 80 04 3e 6e 56 9f 3d 72 47 36 3e 20 d0 28 bd
       0.1293956 0.07780157 0.17800692 -0.04121411
000040 9c 36 99 be ec fc 5a be ea 22 28 3f 28 ef 7e 3e
       -0.29924476 -0.21385545 0.65678275 0.24895918
000050 98 33 1b be a9 5c 04 bf 45 a5 c4 3d e8 4c 23 bd
       -0.151564 -0.5170389 0.09601835 -0.039868265
000060 89 f4 87 3e d7 8d 48 bd b7 e6 22 3e d7 9d 0e 3e
       0.26553753 -0.048963394 0.15908323 0.13927399
000070 fa 01 71 bd a9 20 fb 3d 02 20 27 bf b2 20 86 3d
       -0.058839776 0.12262089 -0.65283215 0.06549205
000080 51 b5 6b bf a1 d2 1b 3d 14 b5 36 be d5 d2 5e 3e
       -0.9207354 0.03804267 -0.17842513 0.21760114
000090 0f bc bc bf a2 d1 16 be 76 e4 1e be a3 e6 d7 3e
       -1.4744891 -0.14728406 -0.15516838 0.4216815
0000a0 82 8c aa 3e 58 e9 f9 bd de a0 36 be 0f f5 c2 be
       0.33310324 -0.1220271 -0.17834803 -0.3807759
0000b0 00 1f 17 be 78 0d 7b be 74 db 2b 3e 5b 2e a7 3e
       -0.1475792 -0.24516857 0.16782933 0.32652554
0000c0 f2 26 86 be a9 34 b0 3d 72 c5 1e be 70 d8 22 3d
       -0.26201588 0.08603794 -0.15505007 0.039757192
0000d0 2d b7 7d 3f 90 27 20 3f 72 af 31 be e8 55 8a bd
       0.9910763 0.6256037 -0.17352083 -0.067546666
0000e0 f9 64 08 3e aa fc 48 3d 83 3e 94 3f 8a 15 bf bd
       0.13319768 0.049069084 1.1581577 -0.0933028
0000f0 6b 1d c7 3e 66 7d 14 be a5 84 0b be a9 6e 53 bd
       0.38889632 -0.1450096 -0.13624819 -0.051619206
000100 a5 be a3 bd 07 96 d8 be 5f d6 d8 be dd a4 61 be
       -0.07995347 -0.42301962 -0.42351052 -0.22035547
000110 a5 a4 bd 3e 92 1b 87 bd 44 b3 63 3d 8e 7b 9b be
       0.37039676 -0.065970555 0.055590883 -0.30367702
000120 5b 00 17 bf 34 9e af be 9e a2 99 3e 6a 99 07 3f
       -0.5898492 -0.34300387 0.3000688 0.52968466
000130 80 60 75 bf 0c e1 bb 3d 8c 97 1f 3d 0a 7d 89 3c
       -0.9585037 0.09173784 0.038962886 0.016783256
000140 53 a8 8e be 32 4a 4c be 66 ff cf bf 15 3f 84 3e
       -0.27862796 -0.19950178 -1.6249816 0.25829378
000150 58 18 03 be 9e d4 98 be 8d 96 eb 3d fb ac b4 39
       -0.12802255 -0.29849714 0.11503325 0.00034461156
000160 4b 74 91 3e 08 e6 81 bc cf 8d 29 3e 47 bf 68 be
       0.28409037 -0.015856758 0.16558002 -0.22729217
000170 da 0f 0b bd 74 3a 4f bf 34 60 3e bf 01 27 96 3d
       -0.033950664 -0.8094857 -0.74365544 0.07331658
000180 b8 33 ab bf a2 8e 3e 3d 6e b0 1c be ac db 14 3e
       -1.3375158 0.046522744 -0.15301678 0.14536923
000190 a8 3e 33 be 6c c4 04 be 5b 5b 0a be 78 53 89 3f
       -0.1750437 -0.12965554 -0.13511412 1.0728598
0001a0 f5 a6 97 3e 93 2e 01 3c 7d 27 30 be 50 7b c2 be
       0.29619566 0.007884639 -0.17202564 -0.37984705
0001b0 bf c0 8c 3e 7c 4f b4 3e c2 2d 94 3e e8 b0 b0 3e
       0.27490804 0.35216892 0.2894116 0.3450997
0001c0 4c 61 87 bd 59 3e 64 3d a6 4f e4 bd fb d8 37 3d
       -0.06610355 0.05572352 -0.11148004 0.044884663
0001d0 fa a8 38 bf fa 94 c4 3d c7 a6 84 be e7 b7 94 bd
       -0.7213284 0.095987275 -0.2590849 -0.07261639
0001e0 b2 c5 0b 3e 59 36 06 3f 0a c5 90 3f 75 0d 25 be
       0.13649634 0.5242668 1.1310132 -0.16118415
0001f0 54 47 c7 3e 88 b1 1c be e9 43 e6 bd 23 1d 31 bc
       0.38921607 -0.15302098 -0.112434216 -0.010810169
000200 5c 9c db bd be 1f ff be 7a 33 7d bf f8 24 f4 3e
       -0.107231826 -0.49828905 -0.9890667 0.47684455
000210 c0 46 2b 3f ec aa d3 bd a1 61 01 3e 74 6e c8 be
       0.6690483 -0.10335335 0.12634899 -0.3914677
000220 56 44 78 be 78 9a a7 be 02 f7 9c 3e b7 43 37 3f
       -0.24244818 -0.32735038 0.30657202 0.715877
000230 a7 17 df be 8e 08 86 3d 40 b2 f4 3e 60 bf cc bc
       -0.43572733 0.065446004 0.47792244 -0.024993598
000240 10 d4 8f be 7b 8e 47 be 3a 77 44 bf 34 57 8d 3e
       -0.28091478 -0.19487946 -0.76744425 0.27605593
000250 72 d6 f7 bd 47 53 0c be 3e 57 cd 3d 2f c7 af 3b
       -0.12101449 -0.13703643 0.10026406 0.0053643207
000260 c6 89 97 3e 80 44 18 bd f0 09 24 3e 2c c5 e9 be
       0.295973 -0.0371747 0.16019416 -0.45658243
000270 6c a2 6b 3a a5 40 10 bf 16 7b 4e 3f e1 9d 80 3d
       0.00089887413 -0.5634864 0.80656564 0.06280113
000280 8d b0 63 bf d9 dc 4e 3d dc 53 1d be 70 e7 20 3e
       -0.8894127 0.050503585 -0.15364021 0.15713286
000290 cf d6 bd bd 62 e4 f4 bd a0 da 02 be 17 a0 56 3d
       -0.09269487 -0.11957623 -0.12778711 0.052398767
0002a0 de 35 ea be f6 51 20 3e fe 7c 3d be f7 8f b6 be
       -0.45744222 0.15656266 -0.18504712 -0.3565671
0002b0 fc d3 98 3e fb 7e 6f 3f 93 b1 a4 bd 53 37 cb bd
       0.2984923 0.9355313 -0.08041682 -0.09922662
0002c0 a5 79 11 3e 40 bc e3 3d b2 44 ec bd 0a e7 33 3d
       0.1420656 0.1111989 -0.1153654 0.043921508
0002d0 54 13 90 3f 0f a9 c2 3f d9 72 44 bd e5 4d 9b bd
       1.1255898 1.5207843 -0.04796109 -0.075832166
0002e0 f7 e4 0c 3e 30 2e 97 3e 3b 8f 96 3c a5 64 24 3e
       0.13759218 0.29527426 0.018378844 0.16054018
0002f0 f6 bb d6 3e 44 67 32 be b8 6f e5 bd 07 55 18 bd
       0.41940278 -0.17422205 -0.11202949 -0.037190463
000300 06 de e5 bd c8 fc fe be 7e 35 88 3f 08 b1 29 3f
       -0.11223988 -0.49802232 1.0641325 0.66285753
000310 02 2c 6b bf d3 29 aa bd f1 1b ca 3e 07 38 d7 be
       -0.91864026 -0.083087586 0.39474443 -0.42034933
000320 81 af 0b bf bd 0e 9b be d1 1a 98 3e 9c 8d 11 3f
       -0.5456467 -0.30284682 0.2970796 0.56856704
000330 7b aa 03 3f 30 a5 cc 3d 10 6a 8a 3e b3 f3 b4 bd
       0.5143201 0.099924445 0.27034044 -0.088355444
000340 2e 3c 8e be 77 ca 46 be 15 85 2c bf 75 fc 82 3e
       -0.27780288 -0.19413172 -0.6739057 0.25583234
000350 bc 49 0c be 30 7f ad 3d e1 dc da 3d 7e 43 c4 bc
       -0.13700002 0.08471525 0.106866606 -0.023957964
000360 e1 06 95 3e 78 3d 98 bc b8 f2 24 3e af 2b d7 bf
       0.2910681 -0.018583998 0.16108215 -1.6810206
000370 a4 98 a2 bd 78 65 d7 3d 7b 33 6f 3f c6 9a c6 3d
       -0.0793927 0.105174005 0.9343793 0.096974894
000380 09 67 b1 bf ff 03 6b 3d 70 ca 12 be 3a c7 0d 3e
       -1.3859569 0.057376858 -0.14335036 0.1384553
000390 7d ad 17 be 55 5c eb bd 0b 95 02 be 35 fb 7d 3e
       -0.14812274 -0.1149222 -0.12752168 0.24802859
0003a0 55 dd 6a 3e e1 06 84 be e5 ed 34 be 8a 7c b0 be
       0.22935994 -0.25786498 -0.17668875 -0.34470016
0003b0 37 60 f6 bd 35 b0 45 3f d0 d5 3c 3e bb 04 8c 3d
       -0.1203007 0.77221996 0.18440938 0.0683684
0003c0 94 2b 82 be 20 1c 8e 3d dc e8 e1 bd 19 d8 ff 3c
       -0.25423872 0.06938958 -0.110307425 0.031230973
0003d0 6e 0a 8b 3e 62 91 c6 3e 9e 20 60 3e a8 db d2 bd
       0.27156395 0.38782793 0.21887442 -0.10295802
0003e0 3e c9 35 3e 1c 02 4d be eb ad 56 3f de ad 0b bf
       0.17752549 -0.20020336 0.8385913 -0.54562175
0003f0 70 3d b9 3e 25 12 32 be 26 60 d8 bd fa 2a 15 bd
       0.36179686 -0.17389734 -0.10565214 -0.03641794

encoder.embed.weight f4 [64, 6]
000000 98 33 a1 3a f3 e1 e7 3b 1c 6a a1 3c 34 32 a9 ba
       0.0012298701 0.007076496 0.019703917 -0.0012908638
000010 03 bc 53 bc 20 77 6e bc ef 51 20 3d 91 7b 92 bb
       -0.012923243 -0.014554769 0.039140638 -0.0044702967
000020 9b b5 6d 3c b9 4d 57 3c a7 61 6c ba ba 2b ce bc
       0.01450863 0.013141089 -0.0009017237 -0.025167335
000030 27 ba 14 3e ab b5 0b be 36 63 0f bd ed 2f 05 3e
       0.14524136 -0.1364352 -0.035006724 0.13006563
000040 d2 97 02 be 84 6d 3b bd 03 8f 85 be b9 82 fc 3e
       -0.12753227 -0.04575874 -0.26085672 0.49318483
000050 ec 07 27 3f a6 c6 b8 bd 5c 75 62 3d ec 76 1d 3f
       0.6524646 -0.09022264 0.055287704 0.61509585
000060 72 ae cb 3e aa 3c 3f 3e 58 3a e3 3e a3 60 46 bf
       0.3978153 0.18675485 0.4438045 -0.77491206
000070 eb 6f 2b bf 9a 64 bb 3f ce 40 d8 ba fb 9e 0d bb
       -0.6696765 1.4640076 -0.0016498805 -0.0021609652
000080 1c 15 95 3c 98 3e 1f 3a 08 e6 db bb 54 8d 0e bc
       0.018198542 0.0006074696 -0.0067107715 -0.008700687
000090 29 4c 1c bf 34 b9 f2 bf e6 24 37 c0 7e e7 af bf
       -0.6105371 -1.896277 -2.861627 -1.3742521
0000a0 3a 2c 86 3f 80 48 b8 3e b2 ae 7e ba b9 d8 29 3c
       1.0482247 0.35992813 -0.00097153627 0.010366612
0000b0 84 f5 73 3c 6c 31 50 bb d6 18 80 bc 9a 60 e3 bb
       0.014890078 -0.003176774 -0.015636843 -0.006939006
0000c0 59 d8 66 bd 72 e1 7d 3c 2d ba 8e 3d bd e9 08 3e
       -0.05635867 0.015495645 0.06969104 0.13370414
0000d0 5c 39 ac bc 2e 89 05 3e 93 55 08 bc 91 aa 51 3c
       -0.021023445 0.13040611 -0.008321184 0.012797014
0000e0 3f eb 1b 3b 1a 3c a6 bc 3f 90 92 bc e8 49 8a 3a
       0.002379134 -0.02029233 -0.017891048 0.001055059
0000f0 b4 9a ee bc 79 b9 0d 3c e7 f8 e8 3b fa 3d ce bc
       -0.029126503 0.008650177 0.0071097496 -0.025176037
000100 cd 93 89 bc 6f 24 09 3b 07 2b 14 3f 54 b7 31 3e
       -0.01679411 0.0020926257 0.57878155 0.1735509
000110 52 a1 45 3f db 0c 16 bf ea 6e ad 3f 99 60 1d c0
       0.7719928 -0.58613366 1.3549473 -2.4590209
000120 1b cf 19 3e 7e 20 7b 3d 94 99 47 3d 2b 97 1e be
       0.1502041 0.061310284 0.048730448 -0.15487354
000130 00 ab 97 bc ad 56 2e 3e 81 aa a0 bc ef b2 00 3c
       -0.018514156 0.17025252 -0.019612553 0.007855161
000140 77 f2 f7 3b 3f e1 82 bc 0c b3 f9 b9 26 38 6d bc
       0.007566746 -0.015976546 -0.0004762638 -0.014478719
000150 c6 21 6c bc 85 cd 50 bc 1a 76 c2 3b ca 97 d7 3c
       -0.014412349 -0.012744312 0.005934489 0.026317496
000160 19 fb 7e 3b e7 3b be bc b6 4c 44 bb d0 dd 11 bb
       0.003890699 -0.023221923 -0.002995295 -0.0022257455
000170 ce b9 a6 3c 15 23 e8 3b 59 db e9 bb 1f b7 0b 3c
       0.02035227 0.00708426 -0.007136744 0.008527546
000180 3c 17 0c ba 1e e1 c2 3b c8 35 d0 bb 3c e7 4a bc
       -0.00053440384 0.005947246 -0.0063540675 -0.012384232
000190 ca 1e 88 bc f5 fd 80 39 67 ef 49 bc 6a c8 83 b9
       -0.016616244 0.00024603275 -0.012325144 -0.00025135587
0001a0 43 29 3e 3b ca 01 a1 bc 3e e2 8a bc de bd a5 bb
       0.0029016293 -0.019654173 -0.016953584 -0.0050580343
0001b0 cd 82 4d be 77 5d f3 3d 1e ed c3 be 51 bf 7e 3e
       -0.20069428 0.118830614 -0.38266844 0.24877669
0001c0 ec cd b4 3c 07 fe aa be d6 20 03 3c 07 c7 f8 ba
       0.022070847 -0.33396932 0.008003434 -0.0018980213
0001d0 9e 15 21 39 b8 ee 5f 3c da 9a 22 bc 47 75 1f bc
       0.0001536221 0.013667755 -0.009924615 -0.009732551
0001e0 0c bd 06 bd ad d5 c8 3b 18 2d 49 3c 17 60 a1 bc
       -0.032895133 0.0061289878 0.012278818 -0.01969914
0001f0 c5 d3 b6 bc 27 2e 8e bb 3f c1 b2 bc 0f fc 96 bd
       -0.022317776 -0.004338998 -0.021820663 -0.07372295
000200 a0 fc 33 3c c4 72 72 3e fb 2f c5 bd e7 b5 00 3e
       0.010985523 0.23676592 -0.09628292 0.1256939
000210 1d 73 dd bc e9 61 5e 3b 6b 53 20 3c 3a 2c 97 bc
       -0.02703243 0.003393287 0.009785513 -0.018453706
000220 58 5d 90 bc b4 fa 8a bb d6 96 52 3b 86 56 c9 3c
       -0.017622635 -0.004241312 0.0032133362 0.02457739
000230 46 0f 0c bb e4 27 43 38 4c cb bb bb 36 05 3b bc
       -0.0021371408 4.6528774e-05 -0.005731022 -0.011414817
000240 93 02 d1 bc 59 b9 35 bb 4c ea d1 3b 53 cf a9 bc
       -0.025513923 -0.0027728884 0.006406104 -0.020728743
000250 4b 28 8f bc f0 97 a9 bb 10 ef 4d bc 6a f1 47 bb
       -0.017475268 -0.005175583 -0.012569204 -0.0030508884
000260 13 89 c4 3a b4 0e d1 bc 11 bf 8a bb af ff f2 bb
       0.0014994465 -0.025519706 -0.0042342027 -0.0074157338
000270 1b d1 f9 3b 48 8e 36 3b ea b9 99 bb 8f c8 b4 bc
       0.0076238043 0.0027855802 -0.004691352 -0.02206829
000280 97 e3 4f 3b 27 76 81 3b 68 d9 4b bd 40 ba 6b bd
       0.0031721347 0.0039508524 -0.04976788 -0.05755067
000290 e4 f1 8d bc 85 42 36 3c ac 4a 86 ba 64 1c de bc
       -0.017327257 0.011124258 -0.0010245643 -0.027113147
0002a0 3d 65 9b 3b 94 e3 3f bb ae 8f 1f bc 47 17 01 ba
       0.004742293 -0.0029279934 -0.009738846 -0.0004924428
0002b0 d2 05 ec bb 53 5c 6c 3c 94 f3 89 3d d4 61 72 3c
       -0.0072028423 0.014426309 0.06735912 0.014793832
0002c0 3a e6 a5 3c 4e da b8 3c 31 de 7d bc 0a 57 38 3d
       0.020251382 0.022565033 -0.015494869 0.045004882
0002d0 66 a4 cf 3b c5 7b 0f 3d ff ed a8 bb e4 6f c8 3c
       0.0063367365 0.035030145 -0.0051553245 0.024467416
0002e0 59 72 5d bc 4b 8f 37 bd d4 11 3d bb 1f 8a ca 3b
       -0.013516032 -0.04481439 -0.0028849738 0.006181016
0002f0 cb 27 19 ba 09 4a 18 bc 09 1c 63 3b b3 bc d8 bb
       -0.00058424164 -0.009294995 0.0034654161 -0.0066142916
000300 f2 4a 02 be 76 eb 4a 3d ae 5c 85 be 10 8d 55 3e
       -0.12723902 0.04954096 -0.2604727 0.20854592
000310 1c f6 06 3e 86 3e 8b be b8 14 7f bc bc b4 47 3b
       0.13179821 -0.2719614 -0.015568905 0.0030472716
000320 fb 1c f7 3b 11 65 ee bb 57 c0 89 bc 60 97 ca bb
       0.0075412965 -0.0072752316 -0.016815348 -0.006182596
000330 aa 51 51 bc 1a ca 9e 3b ee 43 7a 3b b0 d0 af bc
       -0.012775818 0.0048458697 0.0038187462 -0.021461815
000340 54 51 a9 bc 5b 2e 6c ba c7 ab fa bb ac b4 81 bc
       -0.020668663 -0.0009009593 -0.007649872 -0.015833221
000350 53 96 4e 3b c1 d5 48 bc a4 62 7d 3b d6 f8 fc bb
       0.0031522706 -0.012257994 0.003866353 -0.0077200932
000360 4c 70 2c bd fa 97 62 bc ba cd 8b ba b9 30 8f 3d
       -0.042099282 -0.013830179 -0.001066617 0.06991715
000370 32 d5 c0 bc dc b2 b1 3c 77 f4 b5 bc 29 1b c6 3b
       -0.02353916 0.021691732 -0.022211296 0.006045718
000380 da 20 bb 3b ad 4c b3 bc 2c a3 bf bc ba 41 c5 39
       0.0057107033 -0.021887148 -0.023393236 0.00037623738
000390 26 9b 00 bc 87 11 0b 3c f6 cb b5 3c 85 9d 1e bc
       -0.00784949 0.008488066 0.022191983 -0.00968111
0003a0 52 ea 97 bc 57 24 84 3b 7a af 63 be 09 45 9f 3e
       -0.01854435 0.0040326524 -0.22234908 0.31107357
0003b0 6d e4 cf 3e 43 68 b9 bd ab 64 a6 3e 9b 71 6b bd
       0.40603963 -0.090530895 0.3249868 -0.05748139
0003c0 1c 92 78 3c 51 44 a8 3b 24 e7 85 3c 31 3f 8d 3c
       0.015171554 0.005135097 0.016345568 0.017242046
0003d0 9b 0d b7 bc b6 c1 46 3c 3d 5d 9d bd 03 6b cc 3f
       -0.022345355 0.012131145 -0.076837994 1.5970157
0003e0 01 23 02 bf 87 97 43 3d 6f 76 2e 40 97 b2 26 3f
       -0.5083466 0.04775193 2.7259786 0.65116256
0003f0 c5 de fc ba 64 ea 42 3c 68 32 37 3c f5 a8 4e bc
       -0.0019292465 0.011896703 0.011181451 -0.012613525

encoder.embed.bias f4 [64]
000000 79 f9 d8 3d 17 c4 fa 3e fe 14 2c be 23 a4 04 3e
       0.10594458 0.4897773 -0.16804883 0.12953238
000010 30 d6 72 3e d3 ce be 3d 1b 27 a4 bd 9b 05 c1 3e
       0.23714519 0.09316792 -0.08015271 0.3769959
000020 97 51 38 3e 6c 43 aa 3e 07 d7 9e be 19 75 ac be
       0.17999874 0.33254564 -0.31023428 -0.33683088
000030 a9 55 82 bd be 82 93 bd c8 a4 6c bd 8e a0 90 3d
       -0.06363995 -0.072026715 -0.057774335 0.070618734
000040 32 5d 88 3e 6b 39 4c 3e cf 3c 25 3e d5 a2 82 be
       0.26633602 0.19943778 0.16136478 -0.25514856
000050 7e 35 f5 3d b9 f0 62 3e e5 45 d6 bd 24 8b 34 bb
       0.119730935 0.22162141 -0.1046255 -0.0027548755
000060 24 1a 90 be ca 5a bf 3c ad 30 47 be 60 ef 93 3e
       -0.28144944 0.023358721 -0.19452162 0.28893566
000070 1c 88 0c 3d ad 8a 96 3e ee be 44 3d f4 f2 71 bd
       0.03430949 0.29402676 0.048033647 -0.05906959
000080 7f 4f 92 be f4 81 57 bd 67 9e 16 3e 14 be 2d be
       -0.28576276 -0.052614167 0.14708863 -0.1696704
000090 b7 87 97 3e c1 cb fe 3d 85 3d eb 3d 4d e6 4d be
       0.2959573 0.12441207 0.11486343 -0.20107384
0000a0 00 30 03 be 33 68 8b 3e 69 cf 44 3e c1 9b c4 3e
       -0.1281128 0.27227935 0.19219746 0.3840008
0000b0 b3 21 e2 bd 41 3d c6 3d 05 3d 2c be 3d bd 1b be
       -0.11041584 0.09679652 -0.16820152 -0.15208907
0000c0 e1 ac f3 bc 04 4f 9e bd a6 ee da 3d 95 9e ab bc
       -0.029745521 -0.07729915 0.1069005 -0.020949641
0000d0 d7 d9 e1 bc 70 15 83 be 3c 8c 42 be 84 35 bd 3d
       -0.027569694 -0.25602293 -0.18998808 0.09238723
0000e0 17 64 06 be f6 3c 10 be 7e ac cd 3c ab 1d dc 3b
       -0.13124119 -0.14085755 0.025106665 0.006717404
0000f0 98 0a c8 be 4b 88 23 3e ff 21 d8 3d 4d df 3d 3d
       -0.39070582 0.1596996 0.10553359 0.046355534

encoder.layers.0.self_attn.in_proj_weight f4 [192, 64]
000000 db f5 74 3c f7 aa 17 3d 6d 19 d0 3e fc cb 52 bd
       0.014951195 0.03702828 0.40644398 -0.051464066
000010 37 df 11 3e 02 b4 d1 bb 0e d8 58 bc dd f8 71 bc
       0.14245306 -0.0063996324 -0.013235105 -0.014768806
000020 a7 c4 51 be e5 45 61 3b 33 a7 8d bc 29 76 e3 3d
       -0.20485173 0.0034373936 -0.01729164 0.11106522
000030 29 38 21 be 53 6d 93 bc 89 23 7c bd eb 89 c8 3d
       -0.1574408 -0.017996466 -0.061557326 0.09791931
000040 79 2d b9 bc 17 bd 99 bb d4 b4 ec 3d 4d 7a b1 bb
       -0.02260469 -0.0046917307 0.11557928 -0.0054161907
000050 76 7b 55 bc 7c e8 a8 3e 40 3c 23 bd e9 31 49 bb
       -0.013029924 0.32989872 -0.03985238 -0.0030699915
000060 e8 6b 24 bb 9f ea 03 3b 81 d8 55 bc 83 d8 a6 be
       -0.0025088731 0.0020128859 -0.013052107 -0.3258706
000070 ee 0f 0b bd 12 bc 2e be d3 d3 93 bd 86 8c 2f 3c
       -0.03395074 -0.1706393 -0.07218137 0.010714656
000080 0d 4d c0 bd b1 1b 92 bc ad 7c 4e bc 83 1e 1a 3d
       -0.09389696 -0.01783547 -0.012602967 0.037626754
000090 ac 01 82 be 96 cb 6f ba 4f 6f 72 bc bf e5 32 3e
       -0.253919 -0.0009147463 -0.014797046 0.17470454
0000a0 60 4e f7 3d ca ce 07 bc 02 34 34 3d df f6 29 3d
       0.12075496 -0.008289048 0.04399491 0.0414952
0000b0 7b 3a 34 3c 91 de 37 bd e4 a9 9b bd 83 9b 09 3d
       0.011000271 -0.04488999 -0.076007634 0.033595573
0000c0 a6 52 75 bd c2 4e 72 3c d8 da 51 bc e9 5b e0 3b
       -0.059893273 0.014789285 -0.012808524 0.006846894
0000d0 ab a9 e1 3d b6 cd 7d be e4 d2 ef bc 01 a5 c4 3a
       0.1101869 -0.24785504 -0.029275365 0.0015002788
0000e0 f2 6b 0a 3d 8d 12 00 3d 98 c4 8e 3e 95 23 8b bd
       0.03379435 0.03126769 0.27884364 -0.06793896
0000f0 a2 3a 3c bc 5d 08 97 bc f8 54 6f bc c6 3c 78 3c
       -0.0114885885 -0.018436605 -0.0146076605 0.015151208
000100 5d 40 4e 3c 76 5c 2e 3d ba c2 ea bd 13 c5 16 be
       0.012588588 0.042568646 -0.114629224 -0.14723615
000110 ca 7e bc bb 93 b8 1b 3d b3 9c 52 bd 8b ff 3b 3b
       -0.005752419 0.03801782 -0.05141897 0.002868625
000120 02 a1 56 bd f5 3e 10 3d 8f 83 b4 bc 6e f8 1c be
       -0.052399643 0.03521629 -0.022035388 -0.15329143
000130 db b3 62 bd 87 35 49 bd 8c 8a a8 be 76 1b a2 3c
       -0.055347305 -0.049123313 -0.32918203 0.019788485
000140 e3 81 a0 3d 5b fe 03 3c 46 3f c2 3d db 72 46 3d
       0.07837274 0.008056249 0.09484725 0.04844938
000150 00 a3 ff bc 7b 4a 4a be d4 9a 62 bc 68 83 c0 3b
       -0.031205654 -0.19754975 -0.013830859 0.00587504
000160 e9 e4 8f bb 3f b3 bc bb d5 52 b6 bd 0d 32 7d be
       -0.004391302 -0.0057586725 -0.08902518 -0.24726124
000170 25 48 c8 3c 1c 4e 79 be 15 87 dd 3e 96 47 3a 3d
       0.024448464 -0.24346203 0.43267122 0.045478426
000180 73 4f 56 bc f1 6f 29 bc 01 3e 3c 3b c4 0e 9d bc
       -0.013080466 -0.01034163 0.002872348 -0.01917208
000190 86 d6 8f 3d 19 ab 00 3c 6c cb 33 3b 82 1b bd 3d
       0.07023339 0.007853293 0.0027434481 0.09233762
0001a0 3d 51 8e 3e 5e 03 2e 3d e1 63 07 3d 24 12 82 bb
       0.27796355 0.04248368 0.033054236 -0.0039694477
0001b0 83 d8 82 bc 1c 53 99 bd 47 76 2d bf a9 a0 9e 3e
       -0.015972381 -0.07486555 -0.677586 0.3098195
0001c0 28 11 86 3d 04 81 21 bd 94 c4 e7 3c 96 26 7f 3b
       0.06546241 -0.03942968 0.028291978 0.003893291
0001d0 91 6a a6 3d b9 dd 16 be 8f 6b a8 3c 35 3a 01 bd
       0.08125795 -0.14733018 0.0205591 -0.03154965
0001e0 5f ae 0a bd 49 20 f4 3e 9b b9 79 bd fa 19 4e 3d
       -0.0338577 0.47680882 -0.060968023 0.050317742
0001f0 61 ac f9 bc 9f cc 4c bc 97 8d cb 3b f9 2c 75 3d
       -0.030477704 -0.012499957 0.006211947 0.059857342
000200 a2 ac e5 bc f8 da 6d 3d f3 86 19 bd 53 42 c4 3d
       -0.02803642 0.058070153 -0.037482213 0.09582963
000210 0d b4 47 3d 7b 21 74 3d 3e 03 ac 3c 77 0c ff bc
       0.048755694 0.059602242 0.02099764 -0.031133873
000220 bd 41 4c bd 62 60 02 3c 53 9e 3d 3c 40 c2 69 3d
       -0.04986738 0.00795755 0.011573392 0.057070017
000230 da aa 3c 3d b5 7b 93 bc 64 85 90 bd c7 65 ef bc
       0.046061374 -0.018003324 -0.07056692 -0.029223336
000240 dc c3 06 3d f2 0b 6f 3d 52 b2 2d 3d a8 5d 19 3d
       0.03290163 0.058361 0.042406388 0.037442833
000250 e1 9a 21 3c d8 a8 2c bd 92 96 9a 3c 70 52 c4 bb
       0.009863586 -0.04215321 0.018870626 -0.0059912726
000260 64 ca c4 3c 6a 43 00 3c 9a dc 24 be f7 d0 50 3d
       0.024022289 0.007828573 -0.16099778 0.050980534
000270 95 dd 19 3c b8 df ef 3d 33 91 21 bd 73 d6 33 3c
       0.009391208 0.11712593 -0.039445113 0.010976422
000280 6a 78 b0 bb bd ba 8d 3b 6a 8e 09 3d af 06 96 ba
       -0.005385448 0.0043252395 0.033583082 -0.0011446084
000290 87 28 dc 3c b0 64 35 3b 02 20 80 3d af a7 16 bd
       0.026874794 0.0027678423 0.06256105 -0.03678101
0002a0 5a ff 79 bc ee 9c 2b bd 08 35 82 bc a7 25 03 3c
       -0.015258634 -0.041897707 -0.015894428 0.0080045825
0002b0 54 62 18 3d 71 cb 83 3c 2b d6 e0 bd 85 be 59 3b
       0.037203148 0.01608822 -0.10978349 0.003322513
0002c0 cf 6d 87 bd 16 e8 2b bd d0 94 fc 3c 21 60 83 3c
       -0.06612741 -0.04196938 0.030832678 0.016037049
0002d0 e9 ed 3e bd 3d a5 94 bd 18 c9 04 bd 9c e1 28 3b
       -0.046613608 -0.07258079 -0.03241834 0.002576924
0002e0 b7 0a 36 3d df 15 a9 3d 1d 89 21 bd 8b 51 22 bd
       0.044443812 0.08256125 -0.039437402 -0.039628547
0002f0 df a3 7a 3d fa bf 03 3d 23 e6 ae 3c 71 08 b1 3d
       0.061191436 0.032165505 0.021349972 0.08644188
000300 94 1c 34 be 0c 5f cb bd b7 f0 2d 3d 84 a1 db 3b
       -0.17589027 -0.09930238 0.04246589 0.006702604
000310 49 bd 18 bc 3d 8c 5a 3d 65 1a aa 3c 72 10 69 3d
       -0.009322473 0.053356398 0.020764539 0.05690045
000320 5d 45 d9 bc 6c d9 7e bc a4 3d db bb 8a 9f b4 3c
       -0.026522333 -0.015554767 -0.0066906977 0.02204873
000330 d2 07 cf bb bb 94 12 3d 30 be 6b bc e7 db 4c bc
       -0.006318071 0.03578637 -0.014388606 -0.012503601
000340 79 05 f0 3c d5 df 49 3c c5 50 9e ba bf b9 b8 bc
       0.029299485 0.012321432 -0.0012078515 -0.022549508
000350 06 a8 9b 3a 0e 3b e9 bb 2a bd af 3d 91 7b 01 bd
       0.0011875636 -0.0071176356 0.08581002 -0.031611983
000360 c9 17 3e 3c 83 23 69 bd e5 62 16 3b 90 c1 76 3c
       0.0116023505 -0.056918632 0.002294713 0.015060797
000370 1b 98 05 3c 6f ea ab bc 20 c6 1c bb d0 7d 65 bd
       0.008153941 -0.02098581 -0.0023921803 -0.056028187
000380 9a f4 88 bb f4 22 99 3c ac 64 65 3c 78 24 c1 bc
       -0.0041795494 0.018693425 0.014001053 -0.02357696
000390 26 2c 59 3d 84 3d 6b ba ae a6 06 3b 3c 22 1a 3d
       0.05302062 -0.0008973705 0.0020546126 0.037630305
0003a0 e0 93 b7 bc 50 a2 ea bc 97 fe a6 bd 79 4e 15 be
       -0.02240938 -0.02864185 -0.08154028 -0.14580716
0003b0 84 35 e6 bb bf e4 33 3c 21 aa 0e 3d c4 68 94 bd
       -0.0070254225 0.01097983 0.034830216 -0.07246545
0003c0 61 19 95 bd ec 1f 7c bd 33 05 07 bc fc 7b 30 bd
       -0.07280231 -0.06155388 -0.008240986 -0.04308699
0003d0 f8 03 34 3c e4 00 33 3d cb 7a 88 bb f5 11 d0 3b
       0.010987274 0.04370202 -0.0041650287 0.006349797
0003e0 2a 50 0b bd 65 b8 27 3c 66 15 29 bd 94 46 cb bc
       -0.034011997 0.010236834 -0.041280173 -0.024813928
0003f0 5d dd 9e 3d 01 fe 21 3d 7c 2f 12 bb 32 c8 08 3d
       0.077570654 0.039548878 -0.0022306135 0.033394046

encoder.layers.0.self_attn.in_proj_bias f4 [192]
000000 28 02 3b bf 70 c3 20 3c 75 0c f9 bc f0 85 05 bc
       -0.73050165 0.009812221 -0.030401448 -0.008149609
000010 a2 58 a4 3c 4c 3a 1c bc 94 ba 86 bc 86 1d fb bb
       0.020061795 -0.009535383 -0.01644639 -0.0076634316
000020 6a e1 4f 3c 75 bd 31 3f 87 f8 81 3c 41 d8 58 3f
       0.01268802 0.69429713 0.015865577 0.8470498
000030 17 3d a1 bc 99 89 18 3e 5c 7c ca bd b6 20 c4 3c
       -0.01968245 0.1489624 -0.09887001 0.023941379
000040 2c 02 4d c0 17 1c 7f 3c c0 1f 55 bd 90 c5 36 3c
       -3.2032576 0.015570662 -0.052032232 0.011155501
000050 f4 9a 4e bd 6c 5d 46 bd 91 db 91 3c 75 73 ea bc
       -0.050440744 -0.048428938 0.017804893 -0.028619507
000060 8b 9e d2 3b c9 16 0c 3d fe e7 b2 3c b6 b7 8e 3d
       0.006427591 0.034201417 0.021839138 0.06968634
000070 46 2a e7 bc 35 31 6b bc b5 18 dd bc 14 b1 42 3d
       -0.0282184 -0.014354994 -0.02698932 0.047532156
000080 d8 4a e9 bc 12 88 f8 b9 c0 fe d8 bd aa f3 3e 3c
       -0.028478071 -0.00047403626 -0.10595465 0.011654774
000090 9a 7d 1b c0 60 a0 af 3d 60 3e 09 be 7e 65 93 bc
       -2.429541 0.08575511 -0.134027 -0.017992731
0000a0 e2 81 86 3d 7b f2 2d 3d 20 ab 59 bc 50 f1 f6 3c
       0.06567742 0.042467576 -0.013285428 0.030144364
0000b0 37 f1 95 bc e5 47 ee bd 5e 21 7f bd dc 42 3e bd
       -0.018303497 -0.116348065 -0.06228768 -0.04645048
0000c0 95 41 0e bd b5 4a ec 3c 6d d0 8c 3b 20 8e a0 3c
       -0.034730513 0.028844217 0.004297307 0.01959902
0000d0 e7 02 d8 3c a8 e9 07 3d f2 13 49 3e c6 9e ad bb
       0.026368571 0.033181816 0.19636515 -0.0052984683
0000e0 26 15 60 3b a8 33 56 bc 95 3f e8 3b 67 93 9c bc
       0.0034192293 -0.013073839 0.0070876577 -0.019113256
0000f0 77 86 9f bb 2c f8 a2 3c 75 56 4f c0 f7 37 1f 3d
       -0.0048683244 0.019893728 -3.239652 0.03887173
000100 d0 98 89 bb 9c d8 df 3b 74 c3 05 bb 95 d2 9a 39
       -0.004199125 0.006831242 -0.0020410689 0.00029530065
000110 33 80 a2 b9 4a 71 03 ba 00 ef 88 3b f0 90 8a 3a
       -0.00030994564 -0.0005014135 0.0041788816 0.0010571759
000120 42 4d dd b9 0c 48 aa bb 13 ae d0 bb 14 14 88 bc
       -0.00042209966 -0.005196577 -0.0063684075 -0.016611136
000130 28 4a 8a 3a 2e ec 2d 3c 5b d9 35 bb 44 2f a2 3b
       0.0010550665 0.010615392 -0.0027747962 0.004949482
000140 85 24 c0 3c bb b8 62 3a ee 7e d3 3a ef 9b 8c ba
       0.023454914 0.0008648743 0.001613585 -0.0010727624
000150 20 c1 86 b9 26 ba 26 bb f6 5d 05 ba 16 db 07 3b
       -0.0002570236 -0.0025440543 -0.00050875486 0.002072995
000160 a7 9f 0b b8 e2 39 d2 b9 df e6 6d 3a 50 33 29 3b
       -3.328887e-05 -0.00040097447 0.0009075235 0.0025817938
000170 e6 27 40 ba 07 e6 24 ba a5 73 87 ba 98 7b 82 39
       -0.0007330164 -0.000629038 -0.0010334147 0.00024887617
000180 0f 6d 75 b9 fc 56 b0 3b 60 f6 16 3b e7 0a 90 b9
       -0.00023405648 0.005381463 0.0023035035 -0.00027473943
000190 79 65 11 bd 5a 81 9f bb 65 30 a6 3b d0 8d ba 38
       -0.035497162 -0.004867715 0.005071687 8.895586e-05
0001a0 47 6a c1 bb 69 30 ab bb e5 72 da ba 13 20 5e 3a
       -0.005902562 -0.005224277 -0.0016666321 0.00084734074
0001b0 48 c7 21 bb 1a 9f 9d 3a 13 00 2c ba b5 d8 6a 3a
       -0.0024685431 0.0012025565 -0.00065612904 0.00089586835
0001c0 5d 3d 35 3a 45 1e 94 3a 7e 42 07 bb 91 05 cd 3a
       0.0006913746 0.0011300525 -0.0020638998 0.0015641918
0001d0 9c 40 55 bb 11 19 4b bb 7b 5a 24 bc 6e ff fc 39
       -0.003253973 -0.0030990283 -0.010031338 0.00048255495
0001e0 22 5a 82 3b 20 4a c6 3a a3 0e bc ba f5 f6 f2 ba
       0.00397803 0.0015128292 -0.0014347624 -0.0018536734
0001f0 61 e7 10 3b 35 87 30 3b b7 88 f5 bc 5c 0e 02 bb
       0.0022110569 0.0026936058 -0.029972417 -0.0019844985
000200 ae d7 bc 3b dd 6c 82 3d c7 1a d1 3a b9 26 2c bc
       0.0057630157 0.0636842 0.0015953415 -0.010507279
000210 98 63 1c bc 3f 01 b5 3d b5 3a 65 3c e7 d6 0b 3d
       -0.009545229 0.08838128 0.013991048 0.034140494
000220 d0 92 0c 3c 97 11 00 bc 2f 1b 28 bb 74 48 1e bc
       0.008579925 -0.007816694 -0.0025650968 -0.009660829
000230 06 d9 ab 39 d1 9c b7 bb 80 c2 37 3c 98 4d 4f bb
       0.00032777357 -0.005603411 0.011215806 -0.0031631943
000240 5c 51 a8 bc 56 61 6f 3c 30 20 4f 3c 9e 94 52 3c
       -0.020546608 0.014610609 0.012641951 0.012852816
000250 9c 8e 3d bb 71 62 b6 3c 96 8d 6a bd e0 ed 49 3c
       -0.0028924113 0.022263737 -0.057263933 0.01232478
000260 bd ac bf 3b 3b a6 d3 3b c3 ff 5b ba ed 41 31 3f
       0.0058494494 0.006459025 -0.00083922985 0.6924122
000270 83 f0 0c b9 4f 24 b1 bc 55 80 46 3c 58 48 d9 bb
       -0.00013441038 -0.021623759 0.012115558 -0.0066309385
000280 ee c1 b5 3b cb dc 7b 3c 5c 62 bf bb 83 d6 22 bc
       0.0055468 0.015372465 -0.005840583 -0.009938839
000290 ef 25 51 3b 9b 4b fb bb 1b c2 13 bc 3b f3 ba 3d
       0.003191348 -0.007668925 -0.009018446 0.09128424
0002a0 0b 3c 3d 3e 51 e2 05 3b 64 3b 8f 38 fb ee 01 bd
       0.18479936 0.0020429085 6.829834e-05 -0.03172205
0002b0 26 cc 50 bc a1 0b d2 3b ee 4b f8 bc b0 2d 01 3e
       -0.012743985 0.0064100777 -0.030309644 0.12615085
0002c0 06 eb 7c 3c a4 62 86 bb 89 d6 bf 3d a8 ae 02 bc
       0.015436893 -0.0041011143 0.09367091 -0.007976212
0002d0 20 a8 e0 3a 50 fc c8 bb 5d 77 23 3c 8d 4e a4 bc
       0.0017139949 -0.0061335936 0.009977189 -0.020056987
0002e0 9e 72 46 bb d6 04 88 3b 41 01 12 3c 3a a1 d4 3a
       -0.003028072 0.004150967 0.008911432 0.0016222366
0002f0 87 7a fe be ae 37 6b 3e 38 21 62 bc e9 ce f0 be
       -0.49702856 0.22970459 -0.013801865 -0.4703286

encoder.layers.0.self_attn.out_proj.weight f4 [64, 64]
000000 07 ff 84 bc 9f ae 1d 3f 4f cc a0 bd 41 61 04 bf
       -0.016234888 0.61594576 -0.07851469 -0.517109
000010 58 40 18 3e a7 3c e6 3e fa ad 00 3c 41 81 64 ba
       0.14868295 0.4496815 0.007853979 -0.000871677
000020 0a 69 95 3c b3 d9 4c 39 80 34 03 ba e5 22 23 bd
       0.018238563 0.00019536055 -0.00050050765 -0.0398282
000030 a6 4e 38 bf ee 83 e5 bc d4 f4 cb bc 8f 29 d2 bc
       -0.7199501 -0.02801701 -0.024897017 -0.025654582
000040 8a 03 a4 bc f0 58 c7 bc 5c 86 1c 3f cf 98 aa 3c
       -0.020021219 -0.0243344 0.61142516 0.020824818
000050 1c 4c c5 3d 83 f5 f4 bd 18 30 18 bf 6e f8 01 3d
       0.09633657 -0.1196089 -0.59448385 0.03173106
000060 2f 94 4e 3c 8e 45 c4 3c ad 88 0e be fb 3b 8a be
       0.012608572 0.023958948 -0.13919325 -0.26998886
000070 29 cd 2c 3d ad 9b 23 3d d1 21 c2 bd 8a 0a 6f bd
       0.042187843 0.039943386 -0.09479106 -0.05835966
000080 16 2d 67 bd 5d ef 50 bc e2 e6 9e 3d 07 9b 17 bd
       -0.05643948 -0.012752381 0.07758881 -0.03701308
000090 92 46 9d 3c fa dc e6 3d dc 9f a7 bd a0 95 86 bf
       0.01919869 0.11272617 -0.08184788 -1.0514412
0000a0 61 48 3a 3e 66 05 24 bc 98 b1 da 3c 16 82 37 bf
       0.18191673 -0.010011053 0.026696011 -0.7168287
0000b0 c1 11 2f be ba 0d 2f 3d d5 f9 18 bf 53 78 e5 be
       -0.17096616 0.0427377 -0.59756213 -0.44818363
0000c0 c8 3a a6 3d 32 5c 1d bd a8 ef 14 3d f9 5d 08 bd
       0.081166804 -0.038418002 0.036361367 -0.033292744
0000d0 9c 4e 32 bd 05 62 15 bd 0f ee 70 bd 72 2a 32 bf
       -0.043532 -0.03647043 -0.05882078 -0.69596016
0000e0 f5 2b 61 bd c7 cb 48 3d 06 1b 8b 3a a5 86 78 3c
       -0.05497356 0.049022462 0.0010612912 0.0151688205
0000f0 17 bf 43 3f 5b a6 b1 bf cd 4e 4a bc b7 cf bb be
       0.76463455 -1.3878893 -0.012347889 -0.3668191
000100 cf 2d f1 3c 48 37 24 3f d6 26 25 bb b7 bb 1c bd
       0.029440789 0.6414685 -0.002520015 -0.038264956
000110 4f 89 5d bf 04 99 46 3e e6 8c e5 bb 98 ba 4e 3e
       -0.8653764 0.19394308 -0.007005322 0.20188367
000120 52 5a 62 bc 41 9b 30 bb 5c f8 f0 3c 24 22 40 3d
       -0.013815479 -0.0026948007 0.029415302 0.04690756
000130 41 cc 03 bf 94 87 3f bb 59 f4 b8 3c 2a b1 f6 bc
       -0.5148354 -0.0029225098 0.022577452 -0.030113775
000140 31 83 7d bd de 32 bc bb 9b ab 8b be 2b 54 0b bd
       -0.061892692 -0.0057433685 -0.27279362 -0.034015816
000150 24 66 0c 3d a4 ce 30 3f ec 72 85 bf 19 d0 5a 3d
       0.034277096 0.6906531 -1.0425696 0.053421114
000160 2b e2 76 bd 53 bf 9c 3c 15 fd dd 3c 94 62 a3 be
       -0.060274284 0.0191342 0.027098218 -0.31911147
000170 15 fd 61 bc 84 18 32 3d a7 c4 19 bb 86 92 88 3c
       -0.01379325 0.04348041 -0.0023463161 0.01667143
000180 31 bc 3f bc 37 f7 56 3c 07 05 5e bc ce 9e 7f 3c
       -0.011702583 0.013120464 -0.013551003 0.015601827
000190 f9 d0 a3 3b bc 40 9f bc 33 5b 23 3b fe 1a 4a 3f
       0.0049992767 -0.019440047 0.0024926185 0.78947437
0001a0 cc 7c 38 be e0 7d 9f ba 5d b8 6e 3d e4 18 b4 3e
       -0.18016356 -0.0012168251 0.05828129 0.3517524
0001b0 7a d4 42 3f d4 17 15 3d 31 31 a6 be bd 72 ba 3e
       0.76105464 0.036399677 -0.32459405 0.36415663
0001c0 23 31 0d 3f 95 ab b5 3a 70 95 69 3f 70 07 6c 3d
       0.551531 0.001386034 0.9124365 0.05762428
0001d0 96 85 0e 3d 1e b2 a1 bc 4e 00 6d bd 02 35 45 3d
       0.034795366 -0.019738253 -0.05786162 0.048146255
0001e0 c5 8d 8d 3c 11 4b 63 bc d5 79 45 3d 66 7c 44 bc
       0.017279515 -0.013872878 0.04821189 -0.0119925495
0001f0 c1 56 55 bf 38 ab 89 bf e5 11 58 bc 40 2e 07 3f
       -0.833355 -1.0755377 -0.01318786 0.52804947
000200 f6 d4 16 bd b1 f4 c3 3e 01 e2 50 bb ea c6 b8 3e
       -0.03682419 0.38272622 -0.003187299 0.3608926
000210 a1 48 84 3e cd f0 ad be f0 51 95 3c b1 4f 08 3d
       0.2583666 -0.3397278 0.018227547 0.033279125
000220 a7 41 87 3c 7b 9c ec bc 5e 45 99 bc 38 3e f3 bb
       0.016510798 -0.02888321 -0.018709835 -0.0074231885
000230 34 d1 df 3e c9 8b 05 3a 64 ff 8d 3c b6 f8 af b8
       0.43714297 0.0005094377 0.017333694 -8.390976e-05
000240 d0 4c 02 bd 5a bb ef ba 8a a7 df bc bc 0b 93 bc
       -0.031811535 -0.0018290088 -0.027301569 -0.017949931
000250 69 cd b2 3b 31 49 72 3d 85 fb bc bd a4 93 04 bc
       0.0054566157 0.059151832 -0.09227661 -0.008091841
000260 31 e6 ac 3c 09 fd 0c 3d 55 0e b1 bb 58 f3 2c 3e
       0.021105858 0.034421 -0.00540332 0.16889703
000270 c1 40 91 bb 66 cc 51 3c 41 ce 77 bb a7 30 5c bb
       -0.004432768 0.01280508 -0.0037812146 -0.0033598335
000280 2f 9f 5a 3c d2 b2 eb 3c 55 83 88 bc 1c 80 0a bc
       0.013343616 0.028771792 -0.016664186 -0.008453395
000290 ab ac ba 3c 9f f5 92 bc d1 37 80 3b 65 68 2d 3e
       0.022787413 -0.017939387 0.003912904 0.16934355
0002a0 a0 52 13 3f 1d 99 4f 3c 8e a7 80 bc 8d 33 59 3e
       0.5754795 0.012670782 -0.015704896 0.21211071
0002b0 b4 ed b4 3d d7 a4 88 3b 4c 74 51 bd c2 7f 49 3e
       0.08834401 0.004170041 -0.0511363 0.19677642
0002c0 8e 66 90 bd 53 2c 59 bd 3d 00 2a 3e b8 cb 1f bc
       -0.07050811 -0.053020786 0.16601653 -0.00975316
0002d0 01 f0 83 3c ed ed f0 3a b2 d7 8a bb a4 b3 38 3d
       0.016105654 0.0018381454 -0.0042371387 0.045093194
0002e0 ad c2 a4 3c 43 1d 76 3c 03 15 d0 bb 97 b0 df 3c
       0.02011236 0.015021625 -0.006350161 0.027305884
0002f0 c3 37 14 3f af f4 92 be c4 2b 00 bc f6 68 5e be
       0.57897586 -0.28702304 -0.007822935 -0.21719727
000300 89 5e cf bb d8 40 26 bf 2f 97 d5 bc 1d 5f d3 3d
       -0.006328408 -0.64942694 -0.026073067 0.10320876
000310 a9 6a e0 bc c8 a1 ba be a0 6a 85 bb 6e a1 b8 be
       -0.02739461 -0.36451554 -0.0040715486 -0.3606066
000320 b6 a9 c7 bc fd 7b e9 3b 45 e6 ff 3b ad ba 03 bc
       -0.024372917 0.0071253763 0.0078094327 -0.008040112
000330 c1 65 74 be 8a d0 83 bb f1 7c 63 ba e3 87 4b 3a
       -0.23866941 -0.0040226625 -0.00086779805 0.0007764084
000340 b9 ac e8 bc 45 90 45 3d 03 26 e3 3d df 12 4c 3c
       -0.028402673 0.04823329 0.110912345 0.012455671
000350 29 46 c8 3c 92 ac c3 3e b9 58 10 be 9c ee 3f bc
       0.024447517 0.38217598 -0.14096345 -0.011714604
000360 31 bc a9 bc 0b 01 19 bd f2 a0 63 b9 08 fc 1a be
       -0.02071962 -0.03735451 -0.00021708364 -0.15135205
000370 ff 68 69 bc fb c6 35 3d 71 81 e5 ba 34 5e bc bb
       -0.014246224 0.044379216 -0.001750989 -0.0057485346
000380 ae 13 a1 ba d1 7f 03 3b b2 56 9d 3b c0 18 fc 3c
       -0.001228919 0.0020065198 0.0048015947 0.03077352
000390 16 3a e6 bc 21 2b 34 bc bd 47 80 3c 15 05 12 be
       -0.02810387 -0.010996611 0.015659207 -0.14259751
0003a0 4b 25 cc 3d 79 08 15 bc 6d 1b b1 bc cb 32 9a be
       0.099680506 -0.009096258 -0.021619523 -0.30116877
0003b0 64 f7 70 3e 4c 8f 52 bc ce c3 2c bd e8 11 39 bf
       0.23531872 -0.012851547 -0.04217892 -0.7229295
0003c0 fe be 3c 3e 51 76 31 bd ce 5f 9d bd c8 01 84 ba
       0.18432233 -0.043325726 -0.07684289 -0.0010071332
0003d0 80 e1 e2 3c 69 74 37 bc ca cf 36 bd 73 57 34 be
       0.027695417 -0.011197188 -0.044631757 -0.17611484
0003e0 dd 13 fa 3b 3c a0 89 bc 57 23 06 3d bf ac da bc
       0.0076317624 -0.016800039 0.032748546 -0.0266937
0003f0 c0 0d 52 3d 61 6a 06 3f 72 a7 96 bc 06 5c 9c 3e
       0.051282644 0.5250607 -0.018390391 0.30538958

encoder.layers.0.self_attn.out_proj.bias f4 [64]
000000 2c 87 2f c0 c7 10 b9 be e1 c9 83 be f5 80 92 3e
       -2.7426252 -0.36145613 -0.2573996 0.2861401
000010 50 83 b3 bd 18 1d 23 40 c2 bc 63 be 0c fc 9f 3d
       -0.0876528 2.5486507 -0.22239974 0.07811746
000020 d7 dd 0d c0 66 73 c9 3e 02 69 96 bd 4c 3e 12 be
       -2.216665 0.39345855 -0.073442474 -0.14281577
000030 eb 78 27 40 7d 29 af 3f 7f 3a 0d 3e 73 ae 26 c0
       2.6167552 1.3684536 0.13791846 -2.6043975
000040 6f 4e 4d bd 84 83 80 be 9a f4 1e bf 22 a0 e6 bd
       -0.05012363 -0.25100338 -0.6209198 -0.11261012
000050 81 50 02 bf 30 b3 d8 be e1 b8 bd 3f 9b 70 a0 3e
       -0.5090409 -0.4232421 1.4822046 0.3133591
000060 9c 53 19 bf 64 03 dd be b7 12 8d 3e 5e 68 e3 bd
       -0.598932 -0.4316665 0.2755334 -0.11103891
000070 ff 2d 8a be 2a 2a b6 be 0b 04 ed be a2 3c a9 bf
       -0.26988217 -0.35579044 -0.46292147 -1.3221629
000080 69 65 d8 3d 7d 42 35 3f 46 a7 83 be cc a9 82 bf
       0.105662175 0.7080458 -0.25713557 -1.0208068
000090 07 85 f2 bd 3f 11 d5 be 12 19 5c 3f 13 50 8d 3d
       -0.11841779 -0.4161472 0.85975754 0.069000386
0000a0 f1 d0 79 be 90 4e e9 3d 68 aa 54 c0 50 cf 1f bd
       -0.24396111 0.11391938 -3.3229008 -0.039016068
0000b0 97 88 c4 3e 7e f9 9b be 86 2a 84 3f 83 0e 71 3f
       0.3838546 -0.30463785 1.0325477 0.9416277
0000c0 3c b8 31 3d cb a6 96 bf 50 ee 29 be 27 d5 1d c0
       0.04338859 -1.1769651 -0.16594815 -2.4661348
0000d0 f4 9d 2c 3f d8 51 89 3b d9 65 ba be 37 ad 06 c0
       0.6742852 0.0041906647 -0.3640583 -2.1043222
0000e0 be d0 a7 be 7f 60 04 3f 4f 56 c4 3d 30 20 e4 3e
       -0.32776445 0.5170974 0.095867746 0.44555807
0000f0 91 0d 99 40 fa 5f 37 3f 73 a0 c5 bd c1 71 15 3f
       4.782906 0.71630824 -0.09649744 0.583767

encoder.layers.0.ff.0.weight f4 [128, 64]
000000 0b cf c4 bf f0 c7 b8 bd d5 3a 12 3f da 99 7f bf
       -1.5375684 -0.0902251 0.5712102 -0.99844134
000010 92 8e 7b bc f4 9e fd 3f f3 83 52 3f f8 63 fd 3f
       -0.015353816 1.9814134 0.8223259 1.9796133
000020 28 ed 97 3f 2d 19 01 be fb 96 8a bd ac 04 d6 3d
       1.1869249 -0.1260726 -0.067670785 0.1045011
000030 77 7a cc bf e2 0e c4 3f b9 e0 c9 be 04 85 8e 3f
       -1.5974873 1.5317042 -0.39429262 1.1134343
000040 78 07 97 bf ce e1 23 bc 52 37 2e be 84 7f 77 bf
       -1.1799154 -0.0100025665 -0.1701329 -0.9667895
000050 fb 54 57 3d 83 b6 12 3f b9 aa fb 3f 81 fa a0 3f
       0.052571278 0.5730974 1.9661475 1.2576448
000060 de eb 8d 3d ca 61 bc bf e0 95 a5 3f 3e 0d f9 be
       0.06929754 -1.4717343 1.2936363 -0.48642915
000070 ac a5 44 bd 86 f8 9b 3f eb 83 9a 3e b2 2f b4 be
       -0.04800956 1.2185218 0.3017877 -0.3519264
000080 33 1a 6b bc fc 1e 4d 3e 60 35 17 3e 90 35 81 bd
       -0.014349508 0.20031351 0.14766455 -0.06309044
000090 6a 8d b6 3e 9a 21 0c bd 05 d4 ba 3e d8 7b 3f bf
       0.35654765 -0.034211732 0.36489883 -0.74798346
0000a0 44 c0 0d 3f c9 ef 47 bf 09 c1 96 bf 7d 61 23 bf
       0.553715 -0.7810026 -1.177766 -0.6382063
0000b0 12 be 7c bf 9a d5 6a 3e 1f e3 81 3e ba c9 36 be
       -0.98727524 0.22933045 0.25368592 -0.1785039
0000c0 34 41 96 be 04 86 a0 3f b5 eb 11 3d 6e 51 5d be
       -0.2934662 1.2540898 0.03562518 -0.21613094
0000d0 95 80 2f 3f c0 77 82 be f2 c1 cb be 59 7d ca 3d
       0.68555576 -0.25481987 -0.39796406 0.098871894
0000e0 3e c0 84 bf 05 c2 90 bf 8f f1 4b 3e f7 a4 91 3f
       -1.0371168 -1.130921 0.19916366 1.1378468
0000f0 e6 29 f1 3f f2 11 ee be 6d 40 77 3d 8b e8 9a 3e
       1.8840911 -0.46498066 0.060364176 0.3025554
000100 ab 07 7c 3f af bd 3c 3d 02 87 4b 3f e6 15 86 bf
       0.984492 0.046079334 0.7950288 -1.0475433
000110 f1 0e fb be 96 ab 29 bf 65 c9 86 be 90 e0 7b 3e
       -0.49034837 -0.66277444 -0.26325527 0.24597383
000120 45 df 35 40 96 3e fe bd 57 44 c8 bc de 29 9d 3e
       2.8417523 -0.12414281 -0.02444665 0.30696005
000130 ae 04 59 c0 16 bc 22 bf 50 a1 1d bf ca e4 16 40
       -3.3909106 -0.63568246 -0.6157427 2.3577142
000140 ce 33 86 3f 0f 96 75 bd 5a 8c 60 3f ca e2 dd be
       1.048456 -0.05995756 0.8771416 -0.4333709
000150 52 46 a4 bd 31 e6 6e 3f 4a 9a cb 3e 8c 95 22 3f
       -0.08021225 0.93319994 0.3976615 0.6350944
000160 2a ae c5 3c 32 72 c3 3e e4 53 0d bf d9 20 c5 bd
       0.0241309 0.38173062 -0.5520613 -0.09625406
000170 c8 e6 ef 3f 55 94 fc 3f 34 a3 34 3f e1 49 1a 3e
       1.8742304 1.9732767 0.7056153 0.15067245
000180 8c 37 a7 3e 16 e7 aa bd a7 28 f7 3d 21 69 9c be
       0.32659566 -0.083448574 0.12068301 -0.30548957
000190 5c 63 8b be 02 06 91 3d fc 75 7a bf eb 90 db be
       -0.27224243 0.07081224 -0.9783628 -0.42884
0001a0 86 8a b2 3f 12 d7 19 bd 55 26 09 3f 1d 52 9e bf
       1.3948524 -0.037558623 0.53574115 -1.2368809
0001b0 6b 4b 8c bd f9 74 72 3f f6 14 11 3d e3 d2 5d bf
       -0.06850322 0.94709736 0.03542038 -0.8664991
0001c0 45 11 2f bf 6a 84 ae 3f bc c7 07 3c 86 0b 4e bd
       -0.68385726 1.363416 0.0082873665 -0.05030396
0001d0 94 9c 1f 3e 45 70 94 3e 8d cb c1 be 8f 25 0a 3e
       0.15587074 0.28991905 -0.3785061 0.1349089
0001e0 f1 77 ee bf 40 99 c1 3d 61 29 66 be 83 54 de be
       -1.8630353 0.09453058 -0.22476722 -0.43423852
0001f0 30 73 12 bf 8e 82 91 bf b2 7b 39 3d 6d 0c fd be
       -0.5720701 -1.1367967 0.04528398 -0.49423543
000200 4e a3 f0 3e cb d8 f6 3e 8e ad 9f 3f 1b db f7 3d
       0.46999592 0.48212275 1.247484 0.12102338
000210 06 09 ea bf e4 fa f7 be 08 ee 33 3e 91 49 e1 3e
       -1.8284004 -0.48433602 0.1757127 0.4400144
000220 6e 15 b8 bd 7d db 39 bc 9d 2d ff 3d c6 ad 3b 3e
       -0.089884624 -0.011343834 0.12459872 0.18328008
000230 47 3b 0d 3f 98 c1 69 3e cb f2 c8 3f bb 03 c0 3f
       0.55168575 0.22827756 1.5699095 1.5001138
000240 39 68 ff be 07 4c 9a 3d 89 59 5e 3e e4 6b 04 3e
       -0.49884203 0.07534032 0.21713842 0.12931782
000250 b7 a6 12 3c 52 33 44 bf 97 85 21 3d 9d fb 60 bf
       0.008950881 -0.7664081 0.03943404 -0.8788393
000260 e9 40 91 bd 8f 31 7f 3e fe 50 b6 be 73 60 42 c0
       -0.07092459 0.24921249 -0.35608667 -3.0371368
000270 13 6c 34 be ee 7a 52 3e d6 a5 4d 40 d9 10 52 3d
       -0.17619352 0.20554706 3.2132468 0.0512856
000280 2f e1 48 3f fc 98 b2 bb 9b e8 f1 3b a2 b8 10 3f
       0.784686 -0.005450366 0.007382465 0.5653173
000290 a5 a0 c2 3f 3d 6d dc bd 07 96 34 bd da 58 43 c0
       1.5205275 -0.10763023 -0.04408839 -3.052298
0002a0 d1 6f a8 3e 56 fc be be 72 35 80 3e d4 b0 28 3e
       0.3289781 -0.37301892 0.25040776 0.16473705
0002b0 df c6 25 bf 34 b6 8f 3f 00 60 81 bf 43 4c 79 bf
       -0.6475658 1.1227479 -1.0107422 -0.9738199
0002c0 01 6d d5 be ed eb 24 3f 2f e8 12 3d f8 6a 06 bd
       -0.41684726 0.64422494 0.03586596 -0.032816857
0002d0 a7 3a 15 c0 92 4b a4 3f dc a2 2f 3e a7 e0 af bd
       -2.3317049 1.2835562 0.1715197 -0.08587771
0002e0 f1 44 e8 3e 1c 6d 6f bf ee 33 14 40 05 08 50 bf
       0.45365098 -0.9352586 2.3156695 -0.81262237
0002f0 65 a2 11 be cd 51 1a 3f 17 7a 56 bd 52 f9 d5 bd
       -0.14222105 0.6028107 -0.052362528 -0.10447945
000300 d6 e0 1c c0 54 93 32 3f b0 a1 d6 3f 89 69 f3 bf
       -2.451223 0.69756055 1.6768093 -1.9016582
000310 cf 5b 28 bd 7a f3 90 be 6e b9 88 3f 16 97 0d 3d
       -0.04110318 -0.28310758 1.0681589 0.034567915
000320 c9 8b 87 3f e7 40 2f bd a0 95 9c bd be 96 ac 3d
       1.0589534 -0.042786505 -0.07645726 0.08427189
000330 cd 88 93 bf b6 6c 10 3f 9f 45 8c 3f b0 28 76 be
       -1.1526123 0.5641588 1.0958747 -0.24038959
000340 cb 2a ea 3f 58 f0 5a bc 0d fa 2c bf 90 9f 52 3f
       1.8294309 -0.0133629665 -0.6756905 0.82274723
000350 25 89 e6 bd d3 37 c2 3f 31 70 e6 3d ae 5c 3e 3f
       -0.11256627 1.5173286 0.112518676 0.7436017
000360 32 50 c5 bc 1d bc 8c 3e 37 d3 07 bf f9 3b b1 3f
       -0.024086092 0.2748727 -0.53056663 1.3846427
000370 e1 cb cd 3e 48 b4 3b 3d b4 05 d2 be 0d 06 d3 bd
       0.4019461 0.045826226 -0.41019976 -0.103038885
000380 e4 93 26 bd a8 e1 77 3c ad 34 5e 3c e7 3c 26 bf
       -0.040668383 0.015129484 0.013562364 -0.6493668
000390 08 09 c9 be 1a d7 53 3c 34 88 11 3e d8 ce ad bf
       -0.39264703 0.012929702 0.14212114 -1.3578749
0003a0 ce a0 a2 be 02 45 91 bf 7e 9c 38 bb 12 1a ce 3e
       -0.3176331 -1.1349185 -0.0028169448 0.40254265
0003b0 ed 15 91 bf c8 ef 4e 3f 24 db ab bf 1b 44 d5 bb
       -1.1334816 0.8083463 -1.3426251 -0.006508363
0003c0 78 c6 c7 be 59 ad 0c bf 06 c1 69 bd 40 4e 3d be
       -0.39018607 -0.5495201 -0.057068847 -0.18486881
0003d0 2e 12 6f 3f 20 d8 71 be fb 84 ff be 7b 54 b1 3d
       0.93387115 -0.23617601 -0.49906144 0.086586915
0003e0 12 2b 96 3f cc f9 6e 3e 99 11 1e 3e 90 92 b9 3f
       1.1731894 0.23337477 0.154364 1.4497852
0003f0 1c 3b 13 3e b9 44 3b be 72 be c6 3d 48 d9 da 3e
       0.14378017 -0.18287934 0.09704293 0.42743897

encoder.layers.0.ff.0.bias f4 [128]
000000 1f ef 54 c0 a3 aa c1 bf 0f 53 83 be 7a 6a bb bf
       -3.3270948 -1.5130199 -0.25649306 -1.4641869
000010 7e c5 53 c0 76 80 51 3f 43 68 39 be 6b 37 78 bf
       -3.308929 0.8183664 -0.18106179 -0.9695956
000020 eb 61 f4 bf f6 cb 9e bf 3d 2d 6c bf 38 34 04 c0
       -1.9092382 -1.2405994 -0.9225653 -2.0656872
000030 56 ce 35 bf f3 10 dc bf 3f 06 c0 3f c2 a4 b2 bf
       -0.7101797 -1.7192672 1.5001906 -1.395653
000040 81 2f a7 3e e9 96 e7 bf ea 42 92 bf 2d f1 91 3c
       0.3265343 -1.8092929 -1.142667 0.017815197
000050 01 3b cb bd 40 e2 11 c0 49 66 11 c0 57 b9 b9 bf
       -0.099233635 -2.2794342 -2.271868 -1.4509686
000060 67 51 f6 bd a2 9d 7d 3f 9e 10 5f bf 0b 99 d6 bf
       -0.12027245 0.99068654 -0.8713473 -1.6765455
000070 6f 00 da bf 8f de c6 be 2b 4a 24 c0 36 e3 8a c0
       -1.7031382 -0.38841674 -2.5670269 -4.3402357
000080 3b 73 1c bf 97 9e 24 c0 f5 e2 62 bf 23 62 2f c0
       -0.6111333 -2.5721796 -0.8862756 -2.7403648
000090 1a e9 4d c0 3a c9 2e be fb ec a4 be 0c 98 44 bf
       -3.2173524 -0.1706895 -0.32212052 -0.76794505
0000a0 39 e2 ab bf fc 01 aa bf 9d 32 15 bf d5 4d 1d bf
       -1.3428413 -1.3281856 -0.58280355 -0.6144689
0000b0 2d 78 12 bf f0 6a 0e c0 8c 18 5b bf ba 32 c4 bf
       -0.57214624 -2.225277 -0.8558433 -1.532798
0000c0 55 05 17 c0 13 16 16 c0 1a 20 5d bf d0 87 e1 bf
       -2.3597004 -2.3450973 -0.8637711 -1.7619572
0000d0 89 02 81 bf 06 7d e9 bf 03 0f cf 3e ab 29 58 be
       -1.0078899 -1.8241279 0.4044114 -0.21109645
0000e0 9d 7e 9c bf 3b 44 04 c0 80 c6 fc bf e3 ee b0 3e
       -1.2226139 -2.0666645 -1.9748077 0.34557256
0000f0 c4 e3 9b 3f 01 a2 b7 be b0 76 68 be 47 c9 58 c0
       1.2178884 -0.35865787 -0.22701526 -3.387285
000100 0e 81 b3 bf 0e 33 e0 bf a4 55 de bf f3 b3 d1 bf
       -1.4023759 -1.7515581 -1.7369885 -1.6383041
000110 f4 85 16 bf 49 d0 ca bd 6f 35 34 bf d4 80 54 bf
       -0.58798146 -0.099030085 -0.70394033 -0.83009076
000120 1e 19 e6 be 5a e1 25 3e e4 d4 1a c0 86 3b e3 bf
       -0.44941038 0.16199246 -2.4192438 -1.775254
000130 66 2d ac bf 60 a4 13 c0 52 90 c6 be 47 a9 91 be
       -1.3451355 -2.3069077 -0.38781983 -0.2844946
000140 eb fc 6a bf db e9 9d bf 83 2d 27 c0 f8 ca bb bf
       -0.9179217 -1.2336992 -2.6121528 -1.4671316
000150 bd d7 36 bf 3f 51 cf bf 36 a1 97 3e 94 1e cf be
       -0.7142294 -1.6196669 0.29615182 -0.40453017
000160 fe bc 3e be b9 d9 c0 bf 8a 94 f1 bb 62 9d 32 c0
       -0.18626782 -1.5066444 -0.0073724436 -2.790856
000170 2d 81 44 bf e3 25 5d be d3 95 27 bd 34 2e 79 3e
       -0.76759607 -0.21596484 -0.040914368 0.24334031
000180 88 33 3a c0 f8 f8 75 be f1 fe a7 bf 6d 18 23 bd
       -2.9093952 -0.24020755 -1.3124677 -0.039818216
000190 ab c7 e3 bf c4 af 20 3e a0 0a 63 bf e7 7b 85 bf
       -1.7795309 0.1569205 -0.8868809 -1.0428437
0001a0 ec 3d 72 be 6f 5f 97 be 21 0d 73 bd 89 42 24 3d
       -0.23656434 -0.29564998 -0.059338693 0.040102515
0001b0 89 cc bd bd 16 e6 03 bf c3 7b ef be 25 20 d4 bf
       -0.092675276 -0.5152296 -0.4677411 -1.657231
0001c0 ee 06 d2 bf ad 30 43 be 19 d8 cb bf 76 5e ac bf
       -1.6408365 -0.19061537 -1.5925323 -1.3466327
0001d0 3a fa 7e bf 88 bf 3f 3f e7 27 b5 bf 48 45 46 3e
       -0.99600565 0.7490163 -1.4152802 0.19362366
0001e0 60 1d 2c bf bc 56 98 bf 03 0d 57 c0 d0 12 a4 bf
       -0.6723232 -1.1901469 -3.3601692 -1.2818241
0001f0 73 e4 f3 be ab 1e 1f c0 a8 a3 01 c0 09 fd c5 bf
       -0.4763523 -2.4862468 -2.0256138 -1.5467845
