checkpoints/epicon_comp/NHEK/best_model.pt (torch, 578018 bytes, 54 tensors)

encoder.pos f4 [1, 15, 64]
00000000: 7a1e 90bd 8890 00bf 99a6 95bf 6687 45bf
00000010: 9c53 203f 9a76 b6bd a276 c2be c90b e2be
00000020: 8eeb bebe 81e2 b3be c278 903e c613 d73e
00000030: 2e26 0a3e 487a 9c3d 0ead 253e 3b96 1fbd
00000040: 2e92 9ebe fc72 5cbe 76aa 283f a782 7c3e
00000050: f448 16be 2029 02bf b0b0 cb3d f586 2ebd
00000060: f875 873e d899 43bd ebce 393e 77c5 143e
00000070: 5cc5 9bbd bc23 083e 086d 28bf 7b61 6c3d
00000080: df51 6abf aea4 363d c237 31be f978 6a3e
00000090: 4c4d bcbf 4fe8 13be 1573 14be 37de d23e
000000a0: acc0 ab3e de6e 00be 4f9e 3fbe 8d93 bebe
000000b0: 9f9d 15be e534 82be c8a5 263e d9d9 ac3e
000000c0: 052f 81be 6383 a63d 178a 1abe 3203 fc3c
000000d0: ca35 7d3f dd80 1f3f 43f4 39be ad00 97bd
000000e0: b52b 0e3e de9f 2d3d 9a24 953f 61e2 d0bd
000000f0: 841c c73e d9fe 13be 0c3f 07be f030 56bd
00000100: d87b abbd eb57 dbbe 4e03 d9be 97f3 66be
00000110: dc76 be3e f144 80bd 1fb5 8c3d 8ced 97be
00000120: 8dd9 17bf be90 b1be ca4a 983e eca5 063f
00000130: a56e 74bf b1e8 b83d 564e fe3c 0efd 4b3c
00000140: 32da 8dbe 4a8b 52be fa7c cfbf 39e5 7b3e
00000150: 4195 febd 09c4 9cbe 7c63 f13d b947 20bc
00000160: c991 913e d9c1 9dbc 09a8 383e 6b45 69be
00000170: 3288 27bd 20fe 4cbf 39b6 40bf 0f64 8e3d
00000180: 9b2d abbf afa0 2f3d c0a0 21be b14a 173e
00000190: 9945 3abe 35a0 04be 77d7 0bbe 12da 883f
000001a0: f84d 963e 4b29 973c bee2 34be b151 c4be
000001b0: b01b 903e 351e b43e 5152 993e b2ea b73e
000001c0: a31e 7bbd a392 623d 6585 efbd 781f 453d
000001d0: 664b 37bf f69c c83d 5a2b 8cbe af66 8dbd
000001e0: e7d5 0b3e 84b3 073f 11f1 913f 06bc 2fbe
000001f0: e523 c73e 12e3 22be 8c2b f5bd dad7 9fbc
00000200: e652 e2bd ceb4 01bf 9df0 7ebf e818 f83e
00000210: de18 2c3f 1aa2 e5bd c07c 043e a1aa c3be
00000220: 4d1e 7fbe 7ef7 a7be 13ab 9a3e 703c 353f
00000230: 92e1 dcbe f5a4 8a3d c711 f03e 2d9f f5bc
00000240: 3e16 91be 2ba2 4bbe e18f 44bf d96b 883e
00000250: 7b30 01be 1bdf 0abe 29bd d73d fe22 00bc
00000260: ca58 963e 52e2 1bbd 68c8 363e c44b eabe
00000270: 7b78 8b3b f480 0ebf 75f7 4f3f 2c58 5e3d
00000280: ebad 64bf ae52 5b3d da70 22be 16b0 1d3e
00000290: a50c b4bd 90a9 f8bd 60b2 07be 939d 613d
000002a0: ac1c e8be 8782 303e b9f2 4bbe 6092 b7be
000002b0: 1188 9b3e 4555 6f3f fd07 99bd 3a1a c4bd
000002c0: 4276 173e 5262 cf3d 858e f8bd 7abf 023d
000002d0: f180 903f 1d43 c33f 315c 65bd 9ae3 a3bd
000002e0: 3c08 0c3e eccf 9c3e c0ce b73c 1804 0e3e
000002f0: 8828 d83e 206a 38be 492c eebd aa69 38bd
00000300: 23ca eabd 8598 02bf 7ab5 873f fad0 273f
00000310: e852 6abf ff83 bebd 5ad9 ca3e 1197 d5be
00000320: 093e 0bbf d5c5 9bbe 2bfb 963e 10e4 103f
00000330: 5515 053f 2dd4 c73d 2cd4 873e 0854 bfbd
00000340: 77a2 8bbe fb41 4abe c813 29bf 418c 813e
00000350: 058c 15be 121b ab3d 940d d33d 9452 e5bc
00000360: 71bd 933e d53e e4bc ed3f 293e 9876 d6bf
00000370: 9c71 81bd fa29 ce3d eec7 6c3f cf22 b33d
00000380: 385b b0bf 6335 863d 9e5c 1dbe efac 183e
00000390: 9d68 1abe c14d 03be cd88 00be d668 733e
000003a0: 2e99 6c3e 2e20 7bbe a021 3cbe 4117 b2be
000003b0: 181f ebbd 9060 443f 909a 423e 56f5 9d3d
000003c0: 6882 84be 3043 9a3d 7b14 f7bd 44a9 693c
000003d0: ee01 893e 9c4e c83e 48af 553e 83b1 e9bd
000003e0: ec99 383e d164 4abe 60c2 543f bc0f 0bbf
000003f0: 32b5 b43e 4714 3abe 7a68 e3bd f636 14bd
-0.07037063 -0.5022054 -1.1691467 -0.77159727 0.6262758 -0.0890934 -0.37981135 -0.44149616
-0.3728909 -0.35133746 0.2821713 0.42007273 0.13491127 0.07640511 0.16179296 -0.03896163
-0.309709 -0.21528238 0.658851 0.24659215 -0.14676267 -0.50844 0.0994581 -0.042609174
0.2645719 -0.04775414 0.18145339 0.14528452 -0.07606003 0.13294882 -0.6579137 0.057710152
-0.91531175 0.044590645 -0.17306426 0.2289771 -1.4711089 -0.14444087 -0.14497025 0.4118516
0.33545434 -0.12542292 -0.18712734 -0.37221947 -0.14610909 -0.2543098 0.16274178 0.33759955
-0.25231186 0.08130529 -0.1509174 0.030763242 0.989102 0.62306005 -0.18159585 -0.07373176
0.1388386 0.04238879 1.1651795 -0.10199428 0.38888943 -0.14452685 -0.13207644 -0.052292764
-0.08373231 -0.42840514 -0.42385334 -0.2255386 0.37200058 -0.062631495 0.068704836 -0.2967342
-0.5931633 -0.34680742 0.2974456 0.52596927 -0.9548133 0.09028757 0.031043213 0.01245047
-0.27705532 -0.20560947 -1.6210015 0.2459916 -0.12430812 -0.30618313 0.11786553 -0.009782725
0.28431538 -0.019257473 0.1803285 -0.22780387 -0.04090137 -0.80075264 -0.7527805 0.069526784
-1.3373293 0.04287785 -0.15783978 0.14774586 -0.18190612 -0.12951739 -0.13656412 1.069155
0.2935636 0.018452307 -0.1766462 -0.38343576 0.28146124 0.35179296 0.29945615 0.35921246
-0.061308514 0.055315625 -0.11695365 0.048125714 -0.71599424 0.09795563 -0.27376825 -0.06904351
0.13655816 0.53008294 1.1401693 -0.17161569 0.38894573 -0.15906933 -0.119711965 -0.019512106
-0.11050968 -0.5066651 -0.99585897 0.48456502 0.67225444 -0.11212559 0.12938213 -0.38216117
-0.24913903 -0.3280601 0.30208644 0.70795345 -0.43140846 0.06769744 0.46888563 -0.029983127
-0.28337282 -0.19886081 -0.7678204 0.2664478 -0.1261615 -0.1356167 0.10534126 -0.007820843
0.29364616 -0.038057633 0.17849886 -0.4576093 0.0042563058 -0.55665517 0.81236964 0.054283306
-0.8932788 0.053545646 -0.15863362 0.15399203 -0.08791474 -0.121417165 -0.13251638 0.055081915
-0.45334375 0.17237292 -0.1991681 -0.35853863 0.30377248 0.93489486 -0.07472227 -0.09575315
0.14791206 0.10126175 -0.121365584 0.031920888 1.128935 1.5254856 -0.055996124 -0.08002396
0.13675016 0.30627382 0.022437453 0.13868749 0.42218423 -0.18009233 -0.116295405 -0.045022644
-0.11464336 -0.51013976 1.0602257 0.6555325 -0.91532755 -0.0930252 0.3961895 -0.41716817
-0.54391533 -0.3042437 0.294885 0.56597996 0.51985675 0.09757266 0.26529062 -0.093421996
-0.27272388 -0.19751732 -0.6604581 0.25302318 -0.14604194 0.083547726 0.10305324 -0.027993478
0.2885547 -0.027861992 0.16528292 -1.6754942 -0.063204974 0.100666 0.9249257 0.087468736
-1.3777838 0.065531515 -0.15367362 0.14909719 -0.1507897 -0.1282263 -0.12552185 0.2377046
0.23105308 -0.24523994 -0.18372202 -0.34783366 -0.1148054 0.7670984 0.19004273 0.0771281
-0.25880742 0.07532346 -0.12064453 0.0142615475 0.26759285 0.39122474 0.20867646 -0.11410811
0.18027467 -0.19765021 0.8310909 -0.54320884 0.3529449 -0.18171798 -0.11103912 -0.036185227

encoder.embed.weight f4 [64, 6]
00000000: a735 703c c65a 373c b918 8c3c f5e1 bbba
00000010: 1640 45bb 28bc ae3a ea24 e03c cef6 3abc
00000020: ef31 763c 7d50 e93b a2b8 02bc b7ea e4bc
00000030: 593a 113e 7a00 0fbe 0f99 32bd 7527 fd3d
00000040: d9fb fdbd 38fa 34bd ba72 81be aa76 fc3e
00000050: 8ac3 283f 8016 adbd c6ee 6c3d 74c8 1d3f
00000060: 613f cb3e 4e21 383e a126 e23e 36d8 46bf
00000070: 5100 2cbf 578e b93f c70e 0eba 4d5e 22bc
00000080: d813 623c 1e22 2ebb bcff 4fbc 5d88 e0bb
00000090: 4f8f 1ebf dacb f1bf 27bb 36c0 869b afbf
000000a0: 2600 853f 3981 b23e 1388 613b 6488 7f3b
000000b0: 53c6 623c 5881 caba 0c3a 96bb e61b 18bc
000000c0: 19c3 5bbd 2a78 8c3c 344e 7c3d 3745 063e
000000d0: 2956 62bc 5c16 063e ac42 c5bb 17e3 ea3b
000000e0: 2861 88bb 1095 c1bc 09d6 afbc 2794 d33b
000000f0: 9caf abbc 260d 2dbb 7519 d2bb 0f5f f8bc
00000100: c66b 92bc 0c87 0f3c d694 163f ddc7 333e
00000110: 497e 443f db24 15bf a9f8 ad3f e2ae 1dc0
00000120: 40f4 1d3e fab9 803d b770 663d 144f 17be
00000130: fde6 9ebc 9b8c 2e3e ce94 a5bc 1bbb f738
00000140: 69b0 2b3c 970c a8bc dbaa b1bb d479 5bbb
00000150: e97a 33bc c230 9dbc 737d 813b 3884 f93c
00000160: 737f 29bb d197 e7bc 2d0b 59ba f1d4 30bb
00000170: a592 ff3b 10cf ec3b 29ff c8ba 5e7e 483c
00000180: 2586 bfb9 2f8e a53b 26a2 b1bb def6 adb8
00000190: 8749 3ebc 58a2 b5bb dc6e c2bb 8c25 89bb
000001a0: ddce 573b 0cb6 88bc 4d48 8abc 996d 863a
000001b0: 3720 51be 8eec ef3d 6643 c7be 2f3f 7c3e
000001c0: ccfa c23c c2b0 a9be 1f57 20ba f881 fabb
000001d0: b291 8fb9 ed3a 213c 2932 51bc 004d 1bbc
000001e0: baeb d0bc eea5 33ba 4a78 88bb 2dee c5bc
000001f0: 9680 8bbc 222c c8b6 1b93 07bd cb91 95bd
00000200: fcea 8fba 535a 773e 06a4 d2bd 6d40 023e
00000210: 3713 b4bc 9921 46ba 9d0e 53bb 1cc8 c0bc
00000220: 766c a4bc d007 b53a c914 8d3b e8a0 913c
00000230: 09f1 a0bb 7e09 9dba 9c56 c1ba 5f64 08bc
00000240: ff5b b3bc 744f a3bb e715 5839 c087 d5bc
00000250: e436 97bc 6ac4 77bb 209c afba 7883 3abc
00000260: ed6d 63bc 9e01 56bc 7005 113c c509 89bb
00000270: b36a a33b 9ae3 c7ba af55 23bc 2235 9cbc
00000280: 1f6f 153b 5176 283b cba7 5ebd ea1a 5dbd
00000290: b334 c3bc 6045 663c 9d9e 2b39 e79f 11bd
000002a0: db4a e8bb 837d 1bbb a0bc e3bb 69bc 8dbb
000002b0: 538e 71bc 2c42 033c 58cc 7c3d 011e 973c
000002c0: 0ec9 b23c b500 8b3c bbed 88bc fdd5 583d
000002d0: a7c9 603b ef1a b83c d230 b4bb db5c a23c
000002e0: f19a 8ebc 3de7 28bd 0b27 2fbb 09e1 6e3b
000002f0: 4b2e c5bb e954 7abc 2543 5f3b c3a5 a2bb
00000300: 6957 03be e176 393d b346 8ebe d089 553e
00000310: f819 053e 1c03 8ebe 528c 48bc 7261 97bb
00000320: 0335 283b 118c 19bc c9de a0bc 44f0 21bb
00000330: 2e46 c8bb 421b cdba 66be 3fba 9f03 84bc
00000340: 6e1e 77bc 3a04 803b 84f9 84bb 11f7 06bc
00000350: 4865 aaba 1f6e 87bc dd3c c23b f713 8d3b
00000360: 424d 3bbd 17f8 80bc d34a 51bb ab8e 923d
00000370: 8a44 f2bc 8c6b ca3c b2a3 a3bc 9bad b63a
00000380: 1d8a 01bb 052a efbc 1b83 9dbc 0e53 073c
00000390: 40e6 bdbb 5fc2 2ebb 05d2 ba3b 0ec7 30bc
000003a0: fe82 babc 4f0e 003b f2a8 61be f792 a23e
000003b0: a024 d03e 04e7 b8bd 881a a73e 0aa5 50bd
000003c0: 8e93 953c b4ea b7b9 36f1 2a3c e818 673c
000003d0: 87cb 6fbc feeb 653c 5459 93bd f1d5 cc3f
000003e0: 9f35 01bf a94b 593d da58 2e40 4962 273f
000003f0: c811 66ba 8e7d 883c 7a22 193c 68ab 4abc
0.014661229 0.011191076 0.017101632 -0.0014334308 -0.0030098013 0.0013331221 0.027361352 -0.011411382
0.0150265535 0.0071201907 -0.00797859 -0.027943952 0.14182414 -0.13965026 -0.043603 0.123610415
-0.12401552 -0.04418394 -0.25282842 0.49309283 0.6592337 -0.08451557 0.0578449 0.6163399
0.39696792 0.17981455 0.44170097 -0.7767366 -0.6718798 1.4496564 -0.0005419072 -0.009910178
0.013798676 -0.0026570628 -0.012695249 -0.0068521933 -0.6193742 -1.8890336 -2.8551729 -1.3719337
1.039067 0.34864214 0.0034413382 0.0038991207 0.0138412295 -0.0015449924 -0.0045845564 -0.009283995
-0.053652856 0.017147142 0.061598018 0.13112341 -0.0138144875 0.13094467 -0.006019911 0.0071681845
-0.0041619726 -0.023630649 -0.021464365 0.00645687 -0.02095776 -0.0026405542 -0.006411726 -0.030318765
-0.017873656 0.008760225 0.58820856 0.1755671 0.76755196 -0.5825936 1.359151 -2.463799
0.15425205 0.06285472 0.056259837 -0.1477626 -0.019397253 0.17045824 -0.020212557 0.00011812729
0.010479071 -0.020513816 -0.005421979 -0.0033489363 -0.010954597 -0.019188289 0.0039517223 0.030458555
-0.002586332 -0.028270634 -0.00082795584 -0.0026982392 0.007799464 0.007226832 -0.0015334833 0.01223716
-0.00036530304 0.00505235 -0.005420941 -8.2952654e-05 -0.01161421 -0.0055430345 -0.0059336256 -0.004185384
0.0032929697 -0.01668837 -0.016880179 0.0010256051 -0.20422445 0.11715041 -0.38918608 0.24633478
0.02380123 -0.33142668 -0.00061164977 -0.007644888 -0.00027383637 0.009840709 -0.012768307 -0.009478807
-0.025503028 -0.00068530336 -0.00416473 -0.024161423 -0.017029088 -5.965602e-06 -0.033099275 -0.073031984
-0.0010980065 0.2415555 -0.10285191 0.12719889 -0.021981819 -0.0007558107 -0.0032204755 -0.02353292
-0.02007125 0.0013811532 0.0043054563 0.017776921 -0.004911546 -0.0011980978 -0.0014750543 -0.008324712
-0.021894453 -0.004983837 0.00020607524 -0.026065707 -0.018458791 -0.003780628 -0.0013397969 -0.011383884
-0.013881189 -0.013061909 0.008851394 -0.004182073 0.004987085 -0.0015250326 -0.009969159 -0.019068304
0.002280183 0.0025705288 -0.05435924 -0.053980745 -0.02382884 0.014054626 0.00016366919 -0.035552885
-0.0070890016 -0.0023725934 -0.006949976 -0.0043254388 -0.014743405 0.008011382 0.061718315 0.018446924
0.021824386 0.01696811 -0.016714921 0.05293845 0.0034299882 0.02247378 -0.005498984 0.019819668
-0.017407866 -0.04123615 -0.0026726152 0.003645005 -0.0060174814 -0.015279033 0.003406712 -0.004963608
-0.12826313 0.045279387 -0.27788314 0.20853353 0.12998188 -0.27736747 -0.012240486 -0.0046197707
0.0025666363 -0.009371773 -0.019637482 -0.002470986 -0.0061118817 -0.0015648382 -0.00073144434 -0.016115008
-0.015082939 0.003906754 -0.004058065 -0.008237616 -0.0013000155 -0.016532002 0.0059276656 0.0043053585
-0.045727976 -0.015743298 -0.0031935468 0.07156118 -0.029573698 0.024709485 -0.019975517 0.0013937237
-0.001976616 -0.029194841 -0.019227555 0.008259548 -0.00579527 -0.0026666147 0.005701306 -0.010789646
-0.02276754 0.0019539779 -0.22037104 0.3175275 0.40652943 -0.09028438 0.3263743 -0.050938644
0.018258836 -0.00035079347 0.010433486 0.014105059 -0.014635927 0.014033316 -0.07194772 1.600279
-0.50472444 0.05305067 2.724173 0.65384346 -0.00087764533 0.016661432 0.009346599 -0.012369968

encoder.embed.bias f4 [64]
00000000: 656b ba3d a307 fa3e a780 2fbe 4b71 053e
00000010: d10e 763e d58d c33d 5030 93bd ba5d c33e
00000020: 884a 353e c7b8 a23e 946c a4be a5c6 abbe
00000030: 28ab 7cbd 7aeb 93bd 5bec 73bd b065 833d
00000040: 3087 873e 552e 3e3e f75e 233e e817 84be
00000050: 3b3a e33d 9f3d 623e a53c dcbd 980a 14bc
00000060: 50bb 94be fe46 853c 4be4 3ebe 9126 953e
00000070: 665f 2a3d df2f 973e 941c 423d 2683 93bd
00000080: e3f5 91be 8170 83bd d4b1 0e3e 4ac6 33be
00000090: e71e 943e 0d31 e03d 7df2 e73d b608 52be
000000a0: 4e28 00be a51c 8d3e dbbc 3a3e 9b31 c33e
000000b0: 959b e7bd 4721 c13d 57ef 28be 4bda 17be
000000c0: a0eb ffbc f6f6 a0bd 2b1c d63d ae94 08bd
000000d0: 4797 a2bc 3c6b 83be ff75 4cbe b370 ae3d
000000e0: 2872 09be 1ed7 0cbe ed72 023d ee5d ac3b
000000f0: 25d2 c3be 40a5 173e 75df c63d c435 3b3d
0.09102515 0.4883395 -0.1713892 0.13031499 0.2402909 0.09548537 -0.07186949 0.38157445
0.17704213 0.317816 -0.3211409 -0.3354999 -0.061686665 -0.07222648 -0.059551578 0.0641588
0.26470327 0.18572362 0.15954195 -0.2579949 0.11095091 0.22093819 -0.107537545 -0.009035729
-0.29049158 0.016269203 -0.18641774 0.29130986 0.041594885 0.2952871 0.047390535 -0.07202749
-0.2850791 -0.06417943 0.13935024 -0.1755611 0.28929827 0.10946856 0.11325548 -0.20511135
-0.12515375 0.27560917 0.18236105 0.38123783 -0.11308972 0.09430175 -0.16497551 -0.14829366
-0.031240284 -0.07859604 0.10454591 -0.033344917 -0.019847525 -0.2566775 -0.19966887 0.085175894
-0.13422453 -0.13753936 0.031847883 0.0052602207 -0.38246265 0.14809132 0.0971059 0.04570557

encoder.layers.0.self_attn.in_proj_weight f4 [192, 64]
00000000: bcb8 c9b6 e935 b83c 08d5 ce3e f90a 63bd
00000010: 6fb5 143e 2e94 39bb 009d 083b af26 90bc
00000020: 8dc6 5abe d0f7 303c 85c3 babb 796a d53d
00000030: f28e 26be 3a15 10bb aff4 7ebd 6c52 b73d
00000040: fbd1 91bc efb1 9c3b 7e40 ea3d 984f 2fbc
00000050: 4aba 08bb b5a2 aa3e 2951 eabc ead7 64bc
00000060: 2a4a 083c f8f1 953c 1556 27bb 470c a2be
00000070: 1ddf e3bc 7ad3 1fbe 2672 97bd 5bda 813c
00000080: 08c6 c8bd 7174 27bc fac4 67bb 0f99 613d
00000090: c2b8 83be 5b1b 0f3c 3616 02bc 769a 343e
000000a0: 7cf5 e33d 99ce 6fbc 847e 243d 4641 f03c
000000b0: 4082 4d3c 6976 60bd 82c0 a8bd da3f 1d3d
000000c0: 44fd 7abd cc48 fc3b e24a 8bbb 4880 8b3c
000000d0: 7ac6 f33d 42a4 78be 4b9f 89bc ca4c 633c
000000e0: c004 033d 640d b93c 89e4 8a3e a61f 74bd
000000f0: ed2c 43bb 944d 24bb 4f92 8bbb 30b7 ba3c
00000100: c921 9c3c 19f5 493d 364f e6bd c1c7 12be
00000110: 7f81 7bbb 1611 2d3d f0bd 6bbd 890f aabb
00000120: 9a06 34bd 256f 0e3d 1e15 c2bc a185 1cbe
00000130: 926e 3cbd 2ac4 62bd ad36 aabe 975c db3c
00000140: 28d0 a03d 3a44 d43b 6277 be3d fb2d 663d
00000150: e91b 05bd 9555 42be c4bd 8fbc 9d9f ed3b
00000160: 4933 08bc a65b d53a 3583 c5bd b30f 7ebe
00000170: 4a5c a03c 05a5 7bbe 5c3f dd3e 6cb9 353d
00000180: b47f 28bc f139 1abc 2e5a 153b c6df cabc
00000190: 6d03 933d 4596 c33b b992 d53b 3c81 bb3d
000001a0: 3bf2 8e3e 722f 353d 630f e43c dd0e 2abb
000001b0: 83ca a1bc 6c7e 9bbd d0f2 2cbf d61e 9c3e
000001c0: 9c3b 743d 99e9 f3bc 0aa2 e33c fed6 9aba
000001d0: 51eb a63d 30db 15be 7a68 733c e307 1fbd
000001e0: 9410 15bd 2bef f03e a85e 7cbd 0cbe 4a3d
000001f0: b75f 18bd e039 2bbc ec4b 983b 4ffd 463d
00000200: 5b4b cfbc 1feb 533d b2f1 1cbd bcfe c43d
00000210: 7c87 5b3d 4352 663d 68d9 be3c 578d cabc
00000220: 54b7 52bd 2f80 713c b849 843c 59f7 5b3d
00000230: ce11 573d a099 82bc 0a5c a0bd f8a2 f5bc
00000240: e066 193d 12db 803d e180 2e3d 7f93 0c3d
00000250: 32a2 503c dbd2 6abd 5f7f b03c b3cb 10bc
00000260: f13f dc3c 6551 003c b7d8 1bbe 9fd1 7c3d
00000270: 51e0 383c 372f ea3d ea82 5cbd 3177 c83c
00000280: f44a eebb e93a fc3b 3e24 1d3d 0f30 5b3b
00000290: 433c e33c cd9d de3b 867d 843d cb50 2dbd
000002a0: 536c 02bc dd3b 2cbd eec9 3dbc 6cf7 983b
000002b0: a947 0c3d d814 493c c0c7 cfbd 1118 e63b
000002c0: e463 58bd 82a7 5abd 8b9a 143d 61cc 8e3c
000002d0: 1034 41bd 7829 94bd 3f44 dcbc 90fe 25b9
000002e0: ca67 243d cc08 b23d 3f91 3abd 9fbf 30bd
000002f0: 4e27 753d ec06 123d 0bb7 dd3c 0ef7 bb3d
00000300: 78a3 2fbe c909 b5bd 34e3 483d 8773 0e3c
00000310: 90ae bebb 6454 693d 15d5 7c3c 3815 873d
00000320: 9e7f f8bc c1bc 69bc 3a3b 1bbc 8338 b33c
00000330: 6458 4eba 09d5 fe3c ab07 18bb 8a9f 09bc
00000340: 1bd4 fc3c 5924 473c 2ede 9cbc f011 9ebc
00000350: e387 19bb 3bad 6bbc 328c a73d 5047 d5bc
00000360: f9a9 113c ef75 7abd 919a 943a 562c 20bb
00000370: ef44 093c 080d 06bd d0f5 f23b 3590 57bd
00000380: c504 41bc 9c6b 8e3c fe9a 6c3c a44d 12bd
00000390: 1fab 933d 1e5b 16bb 640d 293b 26c3 cc3c
000003a0: cd3e 81bc c6aa f5bc 978e a0bd 701e 10be
000003b0: 98bc 46bc c4f6 ac3c 498d 183d 7a3b 92bd
000003c0: 3c4e 6ebd 120d 89bd 084f e8bb a97b 45bd
000003d0: 132e 32bb 5892 4a3d 0e32 4bbc e997 4ebb
000003e0: f63e 22bd 4444 9b3c d37e 08bd 30e4 04bd
000003f0: 1897 8c3d 70c3 de3c 2183 38bb 677d 043d
-6.0117727e-06 0.022486644 0.40396905 -0.055430386 0.14522336 -0.0028317082 0.0020845532 -0.01759657
-0.21364804 0.010801271 -0.0056995773 0.10420699 -0.16265467 -0.0021985308 -0.062245067 0.089512676
-0.017800322 0.0047819535 0.11438082 -0.010700129 -0.002086299 0.3332726 -0.028603153 -0.013967494
0.008318463 0.018303856 -0.0025533487 -0.31649992 -0.02781635 -0.15608016 -0.07394819 0.01585119
-0.098033965 -0.010220633 -0.003536521 0.05507761 -0.25726897 0.008734549 -0.007939866 0.17637047
0.11130807 -0.014636659 0.040159717 0.029328 0.012543261 -0.054800425 -0.08239843 0.03839097
-0.06127669 0.0076991078 -0.00425087 0.017028943 0.11903091 -0.2428141 -0.01679959 0.013873288
0.03198695 0.022589393 0.27127483 -0.059600495 -0.0029781417 -0.0025070654 -0.0042593847 0.022792429
0.019059079 0.04930601 -0.11245577 -0.14334013 -0.0038376746 0.042252623 -0.057554185 -0.00518984
-0.04395161 0.034773964 -0.02369171 -0.1528535 -0.046003886 -0.055362858 -0.3324484 0.026777549
0.07852203 0.00647786 0.09300114 0.056196194 -0.03249732 -0.1897796 -0.017546542 0.0072516934
-0.008313009 0.0016277924 -0.096441664 -0.24810676 0.019575257 -0.24574669 0.43212402 0.044366285
-0.010284353 -0.009413228 0.0022789347 -0.024764907 0.07178388 0.0059688413 0.006517735 0.09155509
0.27919182 0.0442347 0.027839368 -0.00259488 -0.019749885 -0.075924724 -0.67558 0.30492276
0.05962716 -0.029774474 0.027787227 -0.001181334 0.08150352 -0.14634395 0.014856452 -0.03882588
-0.036392763 0.4705747 -0.06161371 0.04949765 -0.037200656 -0.01045081 0.0046477225 0.048581418
-0.025304487 0.0517379 -0.038316436 0.09618899 0.053596005 0.056230795 0.023297027 -0.0247256
-0.051444367 0.014740034 0.016148433 0.053702686 0.052507214 -0.015942395 -0.07830055 -0.029984936
0.037451625 0.06291784 0.042603377 0.03432035 0.012733983 -0.057329994 0.02154511 -0.008837628
0.026885958 0.007831906 -0.15219389 0.061723348 0.01128395 0.11434787 -0.053835787 0.024470897
-0.0072721187 0.0076974523 0.03836464 0.0033445393 0.027738696 0.0067937137 0.06469254 -0.04231338
-0.007960397 -0.042049278 -0.011583788 0.004668167 0.034248028 0.012273036 -0.10145521 0.007021912
-0.052829638 -0.053382404 0.036280196 0.01743144 -0.04716879 -0.07234472 -0.026888011 -0.00015830458
0.040138043 0.08693084 -0.045548674 -0.043151494 0.059851937 0.035651132 0.02706482 0.09177981
-0.17152202 -0.08839757 0.049044803 0.008694536 -0.0058191493 0.056965247 0.015431662 0.06595844
-0.03033429 -0.014266194 -0.00947457 0.021877533 -0.00078714476 0.031107442 -0.002319793 -0.0083998535
0.030862859 0.012154662 -0.019148912 -0.019295663 -0.0023426942 -0.014384563 0.08181037 -0.026034981
0.008890622 -0.061147626 0.0011337568 -0.0024440489 0.008378251 -0.03272727 0.007414557 -0.05262776
-0.011780922 0.017385297 0.01444125 -0.035718575 0.07210373 -0.0022942494 0.0025795335 0.024995398
-0.015777016 -0.029988658 -0.07839697 -0.14074111 -0.012129925 0.02111376 0.037244115 -0.071402505
-0.05818008 -0.06691946 -0.0070894994 -0.048213635 -0.0027188107 0.04945597 -0.012402071 -0.003152365
-0.039610825 0.01895345 -0.033324074 -0.03244418 0.06864756 0.027192801 -0.002815433 0.032346155

encoder.layers.0.self_attn.in_proj_bias f4 [192]
00000000: 5862 3dbf 0650 833b eda2 e7bc 3c68 5dba
00000010: 1656 0d3b 001f 09bc dd43 f7bc 5961 4bbc
00000020: c51e 9e3c 5db3 2b3f 81cd 953c 2b4b 5c3f
00000030: aced 9bbc fd49 213e 3cf9 c4bd 1bf0 063d
00000040: 645d 4cc0 6167 4b3c 9e5a 49bd 1502 0e3c
00000050: cc3b 2fbd 126a 2fbd 61c7 c03c f59c d0bc
00000060: c071 cc3b cc9a cf3c 836c b63c 047c 973d
00000070: 1018 bebc 1044 8aba f1ee 9bbc f7ee 403d
00000080: aa06 04bd 76c4 503b 1dd8 dcbd 06f3 a83c
00000090: 8e1b 1bc0 5c81 b33d 041e 01be b501 b9bc
000000a0: 5ab9 733d a5e0 373d 9439 1fbc 729f 883c
000000b0: 3cd1 5dbc 04e2 efbd c067 92bd 153b 18bd
000000c0: a806 99bc 91e5 3f3c ba3d ba3b 7480 c83c
000000d0: dfd9 0e3d 4077 df3c d3e5 4d3e 8124 d3bb
000000e0: 00a8 cabb f245 ccbb 0fcc 363c b91d 89bc
000000f0: d15d 7d3c 7253 283c 537e 4fc0 74a0 bf3c
00000100: a468 8abb 36e1 de3b 6859 05bb b3a5 9539
00000110: 6b4d 94b9 5c94 fdb9 e9d6 893b 1f9e 873a
00000120: 57db 01ba f7f8 a3bb a2cb d1bb 765a 89bc
00000130: 8f5a 893a 5444 2d3c 4a71 38bb 927b 9f3b
00000140: 9624 bd3c 1bd2 573a 22ed d43a f60c 8cba
00000150: 6e44 62b9 7587 24bb aaef 11ba fb1f 063b
00000160: fe6f 13b8 2ce6 d2b9 4564 613a 8f05 293b
00000170: 34b2 3cba 0d0f 24ba 1318 86ba 31af 8639
00000180: 6cb3 6cb9 17c4 af3b 2b66 183b 77c2 a2b9
00000190: eadf 10bd 1cdb 9fbb fb2a a73b f0ac e038
000001a0: faad c1bb 64a3 abbb 02fe d7ba 85ee 573a
000001b0: cd59 23bb 90f2 9e3a 5a7d 24ba cf36 6c3a
000001c0: fdd6 323a 456d 953a c3f4 07bb 961a cd3a
000001d0: 6182 55bb 7a9e 4abb dbbe 24bc 0612 fb39
000001e0: dbac 823b 0a5c c43a f94a bbba 56dd f3ba
000001f0: 5abc 0f3b c48b 303b c86c f5bc 594f 01bb
00000200: 3396 c13b d2ac 823d 0bf7 cb38 290c 03bc
00000210: 18cb a5bb 5f50 a93d bda7 633c d534 283d
00000220: 7401 023c b253 84bc b1af fdbb a844 5bbc
00000230: 1fe2 9a3a e8b8 e7bb 5795 823c a676 15bc
00000240: dfd5 a9bc 5485 2a3c a07d 6c3c 99e2 3d3c
00000250: 9b42 8abb 8bc0 863c 82f1 79bd efcc 953c
00000260: 04eb 833b 71ab 913b 10db 483b bd0a 313f
00000270: fabc e139 2a24 a6bc bd97 223c c655 7bbc
00000280: f00e 65ba e521 633c 8e67 b4bb d6e7 1dbc
00000290: e93d 153b 4815 7bbb a1b8 97bb 21bf c13d
000002a0: bdfe 393e 7215 9b3a d784 983b 1cb9 f5bc
000002b0: 02d9 d8bb da02 a03b 550d e9bc 3031 f43d
000002c0: 75de 893c 6285 a9bb 0b9f bd3d 50e7 a6bb
000002d0: f6b6 683b 8870 423b d562 ba3b 542b bfbc
000002e0: d080 39bb ba87 29bc 6548 1c3c a974 9b3b
000002f0: 5a36 00bf 2d5d 663e f67d 76bc 5542 f1be
-0.73978186 0.0040073423 -0.028275931 -0.0008446013 0.0021566204 -0.008369207 -0.030183727 -0.012413346
0.019301781 0.6707056 0.018286468 0.860522 -0.01903423 0.1575088 -0.0961785 0.032943826
-3.1932 0.012414784 -0.049158685 0.008667489 -0.042781636 -0.042825766 0.023532571 -0.025465468
0.006239146 0.025342368 0.02226854 0.07396701 -0.023204833 -0.0010548849 -0.019034835 0.047102895
-0.032232918 0.003185538 -0.10783408 0.020623695 -2.4235568 0.08764908 -0.12609106 -0.022583822
0.059502937 0.044891972 -0.009718318 0.016677592 -0.013538655 -0.11713031 -0.07148695 -0.03716572
-0.018679932 0.011712448 0.005683628 0.024475314 0.034875747 0.027278543 0.20107202 -0.0064435606
-0.006184578 -0.006233924 0.01115705 -0.016737806 0.015464262 0.010273801 -3.2420852 0.02339194
-0.0042239 0.0068017496 -0.002034748 0.0002854295 -0.0002828644 -0.00048366457 0.0042065275 0.0010346806
-0.00049536437 -0.005004044 -0.0064024488 -0.016766768 0.0010479259 0.010575373 -0.0028143697 0.0048670257
0.023088735 0.0008232907 0.0016244987 -0.0010685015 -0.00021578532 -0.0025105153 -0.0005567024 0.002046584
-3.5151832e-05 -0.00040225813 0.000859801 0.0025790667 -0.0007198185 -0.0006258346 -0.0010230563 0.00025689
-0.00022573554 0.005363952 0.0023254256 -0.00031043935 -0.03536979 -0.004878415 0.005101559 0.000107133645
-0.005910632 -0.0052379835 -0.0016478898 0.00082371413 -0.0024925352 0.0012126733 -0.00062747824 0.00090108527
0.0006822197 0.0011400363 -0.0020745255 0.0015648182 -0.0032578933 -0.0030917213 -0.010055269 0.0004788788
0.003987891 0.0014981043 -0.0014289311 -0.0018605392 0.0021932335 0.0026938776 -0.029959098 -0.0019731133
0.0059077977 0.06380619 9.72581e-05 -0.007998505 -0.005059611 0.08267283 0.013894972 0.04106601
0.007934917 -0.01615319 -0.0077418913 -0.013383068 0.0011816657 -0.007071603 0.015940351 -0.009122526
-0.020731864 0.010407764 0.014434248 0.01158967 -0.004219366 0.016449234 -0.061021335 0.018286197
0.004025819 0.0044454862 0.003064815 0.6915701 0.00043056143 -0.020280916 0.009923873 -0.015340274
-0.00087378826 0.013863062 -0.0055055087 -0.0096377935 0.0022772497 -0.0038312245 -0.004630164 0.09460283
0.18163581 0.0011831953 0.0046545076 -0.029995494 -0.006617666 0.0048831524 -0.02844874 0.11923444
0.016829709 -0.005173371 0.09258851 -0.0050934926 0.0035509444 0.0029669125 0.005688051 -0.02333609
-0.0028305538 -0.010347301 0.009538745 0.0047441316 -0.50082934 0.22496481 -0.01504468 -0.4712092

encoder.layers.0.self_attn.out_proj.weight f4 [64, 64]
00000000: 136b a0bc 0145 1e3f 9105 a0bd 9fe5 04bf
00000010: f07e 203e 7fbe e03e acb4 b33a 4b62 cebb
00000020: 143a b53b 9712 76bb 6325 cabb 6d3c 12bd
00000030: 1d26 36bf b807 d8bc 0c9a bfbc 3314 d4bc
00000040: 6c46 5fbc 12ed 02bd 9c3d 1f3f da5d 5b3c
00000050: 4841 da3d d6f1 ffbd b630 1abf dcb7 f73c
00000060: 7834 9c3b dbe5 b73b a524 12be e9f2 8abe
00000070: 1652 0b3d 771d 4b3d a748 cfbd b1e7 8bbd
00000080: 1b5c 8fbd 923e abbc 4431 a23d e9a6 9abc
00000090: 3236 be3b 2a1c f73d edf9 aabd d334 86bf
000000a0: bcd7 483e b18a 01bc 73b8 e73c 3681 3abf
000000b0: e3ad 2abe 8d6d 173d a1b7 19bf 4640 e3be
000000c0: 348f c23d 9991 52bd d100 e23c 5c7d 1ebd
000000d0: c791 fbbc 4c7b 2dbd 4721 8cbd 42d5 2fbf
000000e0: 8292 3ebd 12e9 393d 1ff0 2539 faee c03a
000000f0: 531b 433f eaad afbf 5102 cfbb 85b7 bebe
00000100: 60ca eb3c a567 263f 1ee2 203c f9e6 36bd
00000110: b090 60bf f3b6 4a3e 8d8b 0fbc 5397 4a3e
00000120: d918 8cbc 4551 b7bb 9f3e e03c b30d 283d
00000130: 4de2 03bf 1390 4e3b ed79 933c 88eb 96bc
00000140: fc62 4dbd 9840 77bc ea85 88be 8d6a 31bd
00000150: ae4a e53c 29ad 2f3f d7b0 85bf 0c87 413d
00000160: aea5 4dbd 71a2 e13c e210 7a3c 3126 a5be
00000170: 8706 cabc db4b 063d 9032 963b 9e5e ba3c
00000180: 18c4 90bc 0ffd ef3b 11c2 3cbc c179 d53c
00000190: fb37 95bb 1a7f d5bc e5a3 ed3b 1817 493f
000001a0: 3135 32be ee79 0cbc 149e 4a3d a022 b63e
000001b0: a021 433f 1acc c43c 47c9 a3be 568b b83e
000001c0: 956a 0e3f 4a5a 083c 6620 6c3f 2a20 783d
000001d0: 3641 003d 296b 84bc b591 78bd 5962 2c3d
000001e0: edad 433c ec19 92bc 8ac3 553d 94e1 27bc
000001f0: ee3a 55bf 28eb 8abf d23c 77bc 358c 073f
00000200: e147 edbc 132d c53e dc78 583b 3732 b43e
00000210: 69b3 863e f47d afbe 7b5b 183c 0fd3 1f3d
00000220: 39d1 583c bedc cfbc 5592 7fbc a07a 0aba
00000230: 1e19 e53e c87b f13b af89 833c 74f3 b33b
00000240: 226f 09bd b75f 3f3a 8b11 2fbd b8e3 abbc
00000250: 6abe 61b9 d77c 843d 9de3 b8bd 7001 d339
00000260: fc64 c43c 1da4 1a3d 438b 0c3b ea41 273e
00000270: 2bba bb3b ed34 243c ce67 cabb 6171 66bc
00000280: 92ad 853b a0b8 c93c 67f1 14bc 02ad 87bb
00000290: 5f38 933c c376 58bc 190e d23b aead 2a3e
000002a0: a5e0 133f d7f5 3e3c 54cc 80bc 9834 573e
000002b0: 46cd c13d c715 283a 6405 90bd cb96 413e
000002c0: 3871 7fbd 365f 54bd c17a 3d3e efff 5fba
000002d0: bf17 9c3c b69f 353b d81e 6dbc a178 323d
000002e0: 69c1 733c 6ef5 643b ee18 773b bf6b 9d3c
000002f0: 7f3c 153f 1a6a 95be 9e16 e1bb 3965 5abe
00000300: 1a54 c6ba 8fa7 27bf f25a 97bc 2682 c73d
00000310: e8bb 07bd 73ee babe 0426 33bc 5d7a b7be
00000320: e33b edbc bb84 903c 2f8d 373c cf6c 523b
00000330: 1ba2 75be 3c6d 8e3a 8faf 4bbc a97e 033c
00000340: 650b d5bc 5f1f 5f3d c69f d43d 27ca 8b3c
00000350: 014d a03c d5c2 c73e b322 0dbe 1365 ecbc
00000360: 23f8 06bc c742 ffbc 3c3d e8ba ffb3 15be
00000370: 9049 75bc bfb8 1e3d 13ba 1d3c ba95 813c
00000380: 6e45 043c 23f7 a73b b5ec 58ba d97e df3c
00000390: 5aec c6bc 3753 91bc a90d 723c 9388 13be
000003a0: 4adb c43d 3dfd 38bc e9f4 a9bc 6f41 9cbe
000003b0: f2cd 773e 9eba e0bb 771b 04bd 754f 3abf
000003c0: d4d0 423e 9cd2 32bd 79c9 c5bd a51c 6eba
000003d0: ed5e d03c 6427 bcbc 1636 46bd 6eff 35be
000003e0: 3e86 0d3c 82e5 02bc 9e76 023d feb3 ffbc
000003f0: a63e 503d 109c 083f 653a 50bc 9dba 9c3e
-0.019582307 0.6182404 -0.07813562 -0.51912874 0.15673423 0.43895337 0.0013710461 -0.0062983385
0.005530605 -0.0037547702 -0.0061690076 -0.035702158 -0.71151906 -0.026370868 -0.023388885 -0.025888538
-0.01362763 -0.03196437 0.62203383 0.013389075 0.10656983 -0.124972984 -0.60230577 0.030239038
0.004766997 0.0056121177 -0.14271791 -0.2713845 0.03401383 0.049588647 -0.10121279 -0.06831301
-0.069999896 -0.02090386 0.07919553 -0.018878417 0.0058048004 0.12065919 -0.08348451 -1.0484871
0.19613546 -0.007906602 0.028286194 -0.7285341 -0.16667895 0.03696971 -0.6004582 -0.44384974
0.0949997 -0.051408384 0.02758828 -0.03869377 -0.03070916 -0.042353913 -0.06842285 -0.6868478
-0.04652644 0.04538829 0.00015825078 0.0014719658 0.7621357 -1.3724949 -0.006317415 -0.3724939
0.028783023 0.650019 0.009819536 -0.044653866 -0.87720776 0.19796352 -0.008761299 0.19784288
-0.017101692 -0.005594405 0.02737361 0.04102869 -0.5151718 0.003151898 0.018002475 -0.018422857
-0.050143227 -0.015091084 -0.26664668 -0.043314505 0.027989712 0.68623596 -1.0444592 0.04724793
-0.050206833 0.027543278 0.015262814 -0.322557 -0.024661316 0.032787185 0.0045836642 0.022750195
-0.01767163 0.007323868 -0.011520878 0.026059033 -0.0045537925 -0.026061583 0.0072522038 0.78550863
-0.17403103 -0.008573992 0.04946716 0.35573292 0.7622318 0.024023104 -0.319895 0.36043805
0.5563138 0.008322308 0.92236936 0.06057755 0.03131219 -0.01616438 -0.060685832 0.04208598
0.011943323 -0.017834626 0.052188434 -0.010246653 -0.83293045 -1.0853014 -0.015090184 0.52948314
-0.028964939 0.3851095 0.0033031022 0.3519456 0.26308754 -0.34275782 0.009299154 0.03901964
0.013233476 -0.025373813 -0.015598853 -0.0005282555 0.44745725 0.007369492 0.016056864 0.0054916684
-0.03355325 0.00073003344 -0.04274134 -0.020982608 -0.00021528607 0.06469124 -0.09027789 0.00040246127
0.023973934 0.037754167 0.002144531 0.16333738 0.00572898 0.010022384 -0.0061769253 -0.014065118
0.004079529 0.024624169 -0.009090758 -0.004140497 0.017971216 -0.013211909 0.006410372 0.16667816
0.57764655 0.0116552925 -0.015722431 0.21016157 0.09462981 0.00064119365 -0.07032278 0.18905179
-0.062363833 -0.051848613 0.18503858 -0.0008544912 0.019054292 0.0027713603 -0.014472686 0.043572072
0.014877656 0.0034936327 0.0037704068 0.019216416 0.58295435 -0.29182512 -0.0068691513 -0.21327676
-0.0015131265 -0.6549005 -0.018475983 0.09741621 -0.033138186 -0.36510047 -0.010934357 -0.35835543
-0.02895922 0.017641416 0.011203094 0.0032108312 -0.2398762 0.0010866295 -0.012431993 0.008025804
-0.02600641 0.054473277 0.10382037 0.017064167 0.019567968 0.39015833 -0.13782768 -0.02885679
-0.008237871 -0.031159772 -0.0017718445 -0.14619444 -0.014971152 0.038750406 0.009626883 0.015818466
0.008073194 0.0051258965 -0.0008275018 0.027282165 -0.024282623 -0.017739875 0.014773765 -0.14407568
0.096121386 -0.011290845 -0.020746665 -0.30518672 0.24199656 -0.006858184 -0.032252755 -0.7277749
0.19024974 -0.043657884 -0.096575685 -0.0009083248 0.02543589 -0.022968002 -0.048391424 -0.1777322
0.008637963 -0.007989289 0.031851403 -0.031213757 0.050840996 0.5336313 -0.012709235 0.30611125

encoder.layers.0.self_attn.out_proj.bias f4 [64]
00000000: 3a46 30c0 a2bf b8be 4870 83be 6d21 943e
00000010: 09e2 b4bd bc1f 2340 0b40 5fbe 49db 9d3d
00000020: b9fe 0dc0 5588 c43e 1c75 a5bd 2fb5 13be
00000030: d89e 2740 0fb2 ae3f 5298 0c3e 59f5 26c0
00000040: de9f 55bd f6bc 84be 479e 1ebf 7c6f f3bd
00000050: 98b0 03bf 9c0a dabe d495 bd3f 3b91 9e3e
00000060: 4729 1bbf a827 dfbe 6239 913e eadd dcbd
00000070: d198 8bbe 1a90 b3be 7cda eebe 8687 aabf
00000080: d4ae ed3d 38ec 323f 096a 87be 0f99 82bf
00000090: 5365 f9bd d1bd d8be ffbb 5a3f 99e8 773d
000000a0: bf3f 7dbe 1315 f33d 3e65 55c0 d0e0 2dbd
000000b0: 08cb c43e 65f5 9ebe 2d26 843f a17a 713f
000000c0: e0b3 413d d4df 96bf ffa9 31be 9d38 1ec0
000000d0: a9f8 2c3f f1e6 e3b9 7f35 bebe c7f3 06c0
000000e0: 0cae acbe 50b9 043f 580e cb3d 0e5b e33e
000000f0: 4926 9940 6f15 353f 5800 d5bd c0f5 143f
-2.7542863 -0.36083704 -0.256716 0.28931752 -0.08832175 2.548812 -0.21801774 0.07707841
-2.218672 0.38385263 -0.080789775 -0.14424585 2.61907 1.3648089 0.1372998 -2.6087248
-0.052154414 -0.25925416 -0.6196026 -0.11886498 -0.51441336 -0.4258622 1.4811349 0.30970177
-0.6060986 -0.43584943 0.28364092 -0.10784514 -0.27265027 -0.35070878 -0.46651065 -1.3322608
0.116056114 0.6989169 -0.26448086 -1.020296 -0.12177529 -0.42332318 0.8544311 0.060524557
-0.24731348 0.11869254 -3.3343043 -0.042450726 0.3843615 -0.31046596 1.032415 0.9432774
0.047290683 -1.1787057 -0.17350005 -2.4722054 0.67566925 -0.0004346888 -0.3715019 -2.108629
-0.33726537 0.51845264 0.09914845 0.44405407 4.7859235 0.7073583 -0.10400456 0.58187485

encoder.layers.0.ff.0.weight f4 [128, 64]
00000000: 317a c3bf 153e d9bd 8480 0f3f db58 7dbf
00000010: f5ac abbc 6986 fd3f f8f8 523f f1ac ff3f
00000020: fd48 963f 42bb debd 887d a5bd 5219 c53d
00000030: 9716 cabf db41 c23f 70ac d1be c000 8d3f
00000040: 48bd 97bf eb10 e3bc 6c1d 29be deb6 77bf
00000050: f4aa 8d3d e7a0 113f d9d3 fa3f c77c a33f
00000060: 1311 b73d ba4c bdbf 616e a63f 89e8 f5be
00000070: fbb5 66bd a43a 9b3f e4d8 a03e ef2e b7be
00000080: 372e 1bbc 55ea 5e3e 4827 043e 01fd a0bd
00000090: faa5 bf3e db40 4bbd cdb8 c93e 11a2 3ebf
000000a0: b5c4 113f a3a6 4bbf 862b 95bf f25e 1fbf
000000b0: 7518 7fbf 6982 593e 649d 863e 6b4f 44be
000000c0: db3d 8fbe 99d5 9f3f c404 ac3c 00b8 6ebe
000000d0: 57d1 2c3f 82ae 89be 8222 cebe b4de a53d
000000e0: 5888 82bf b4e3 92bf f7ee 4e3e cf9b 933f
000000f0: 51f7 ef3f 45b9 f2be 19b0 a03d 252b a13e
00000100: c636 7b3f 9d07 553d 5687 4e3f 6612 86bf
00000110: daef f7be 2fc1 28bf bb85 87be 8882 7a3e
00000120: 48c3 3540 c91a 02be 2253 b7bc 7211 9c3e
00000130: 36e8 58c0 71e8 23bf 2420 1ebf 89f6 1740
00000140: c94d 863f 649c 69bd 32cc 5e3f eb26 ddbe
00000150: 8207 abbd 19f1 6b3f 7756 c33e 4e0d 253f
00000160: 04fb ee3c b443 bf3e 7baf 0ebf 3e66 dcbd
00000170: 3af9 f03f 8d50 fd3f a547 343f 3a76 1e3e
00000180: 1fc8 a53e a7da b5bd ca83 f23d a4dd 97be
00000190: 8b78 8abe 9f9f 833d f4cd 78bf 87a4 dabe
000001a0: 4060 b13f c324 0bbd ebcd 083f 0060 9cbf
000001b0: 0a21 8fbd 3574 723f 8262 0b3d 2333 5bbf
000001c0: 00fb 31bf 2559 ae3f 07a8 173c b789 45bd
000001d0: 1fc1 133e 98a8 983e f83d bdbe 0dad 093e
000001e0: c1c0 f0bf e717 b03d 70de 66be 79e4 dcbe
000001f0: 3c8e 13bf cc2c 92bf 41a7 353d 9e97 f1be
00000200: b856 f13e 868a f63e 5336 9f3f cb75 fa3d
00000210: b82f eabf d4f8 f8be 90c9 393e a13e e33e
00000220: a7d3 b8bd a574 09bc 7a53 f83d d5d6 373e
00000230: 1c5c 0c3f 2ed7 673e c0af c83f 7b4a bf3f
00000240: aa4e 01bf 6d17 983d d03e 6b3e 7fd8 053e
00000250: 53db 4c3c 1a28 45bf 03f0 1c3d 1e42 60bf
00000260: a071 8dbd f04b 813e 4ab1 b0be 091e 42c0
00000270: c57c 37be d784 533e 3ebd 4d40 d186 213d
00000280: 5935 4c3f 2805 a2bb 6de7 003c eaa6 0f3f
00000290: 81e9 c33f f6e7 cfbd 7937 2fbd a358 43c0
000002a0: 6ca1 a83e 81c1 bebe c90b 813e cccc 223e
000002b0: 364d 26bf 364d 8f3f 4004 81bf effb 79bf
000002c0: b500 d4be 97d4 253f 5b8a ff3c db39 fcbc
000002d0: e310 15c0 878b a43f ed61 1c3e aa69 b2bd
000002e0: 0ecb ea3e 686c 6fbf 5368 1440 a302 50bf
000002f0: 166e 13be eef3 1b3f 0495 5dbd e6de cabd
00000300: 229b 1cc0 c30f 343f 7a96 d63f ca69 f1bf
00000310: d580 3fbd 5060 8dbe a2aa 863f 6d8e ca3c
00000320: 4f48 883f 542a 0fbd fd5c a6bd 4b49 a03d
00000330: a63e 92bf a474 0f3f f43c 8c3f 2a25 80be
00000340: 9c4a ea3f 2597 ccbc ce02 2fbf cd56 503f
00000350: 6811 d3bd b153 c43f fceb 013e 86e8 3d3f
00000360: f6e3 81bc 8876 8a3e b081 09bf 3d06 b13f
00000370: 43af cc3e 4ce8 1f3d 4d42 d4be 4ef5 d0bd
00000380: 0df9 34bd 7cbd fb3c 2104 bc3a a568 26bf
00000390: f72b c4be d602 c9bb ec2e 1d3e 8728 adbf
000003a0: 3193 9cbe 79d7 91bf d94c 2ebb bbc6 cb3e
000003b0: cfb7 91bf b263 523f d147 acbf bac9 60bc
000003c0: 3fde ccbe 05ae 0fbf d065 80bd cd3d 48be
000003d0: 6335 6f3f 8f7e 6ebe e6f7 ffbe 51cb 953d
000003e0: 8188 963f c590 703e 89ec 283e b80f bb3f
000003f0: 2113 1d3e 0564 3fbe 23a2 da3d fb68 d83e
-1.5271665 -0.10607544 0.56055474 -0.9896371 -0.020956496 1.9806644 0.82411146 1.9974653
1.1741024 -0.1087556 -0.08080584 0.0962397 -1.5788144 1.5176347 -0.40951872 1.1015854
-1.1854639 -0.027718028 -0.1651513 -0.9676341 0.06917372 0.5688614 1.9595901 1.2772454
0.089388035 -1.478904 1.3002435 -0.48028973 -0.056325894 1.2127271 0.31415474 -0.35777995
-0.009471468 0.21769078 0.1290561 -0.07860757 0.37431318 -0.049622398 0.39398804 -0.74466044
0.56940776 -0.7955114 -1.1653907 -0.6225425 -0.99646693 0.21241154 0.26291955 -0.1917092
-0.2797688 1.248706 0.020998366 -0.23312378 0.6750693 -0.2689095 -0.40260702 0.08099118
-1.0197859 -1.147574 0.20208345 1.1531924 1.874735 -0.47406974 0.07846088 0.3147823
0.9813045 0.052009214 0.80675256 -1.0474365 -0.4842518 -0.65919775 -0.26469216 0.24463856
2.840044 -0.1270553 -0.022378508 0.3048206 -3.389173 -0.6402655 -0.6176779 2.3744223
1.0492488 -0.05703391 0.8703033 -0.43193755 -0.083510414 0.9216476 0.38151905 0.64473426
0.029172428 0.3735634 -0.5573651 -0.10761689 1.8826058 1.9790207 0.7042182 0.15474787
0.32379243 -0.08879595 0.11841543 -0.29661286 -0.27045092 0.0642693 -0.9718926 -0.4270365
1.3857498 -0.033970606 0.53439206 -1.2216797 -0.069887236 0.9470857 0.03402949 -0.85624903
-0.6952362 1.3620955 0.009256369 -0.04822704 0.14429139 0.29816127 -0.3696134 0.1344492
-1.8808824 0.08598309 -0.2254579 -0.4314306 -0.5763891 -1.1419921 0.04434896 -0.47185987
0.47136474 0.4815256 1.2438453 0.122294985 -1.8295813 -0.4862734 0.18143296 0.4438372
-0.090247445 -0.008389627 0.12125297 0.17953046 0.5482805 0.22640678 1.5678635 1.4944605
-0.50510657 0.07426343 0.2297318 0.13070868 0.012503463 -0.77014315 0.03831483 -0.87600887
-0.06906438 0.25253248 -0.3451026 -3.0330832 -0.1791869 0.20656143 3.2146754 0.03943521
0.797689 -0.0049444623 0.007867676 0.56114066 1.5305635 -0.10151665 -0.042777512 -3.052285
0.32935655 -0.37257007 0.25204304 0.15898436 -0.64961565 1.1195438 -1.0079422 -0.97650045
-0.4140679 0.6477751 0.031193903 -0.030789306 -2.3291557 1.285508 0.1527173 -0.0871156
0.45858043 -0.9352479 2.3188674 -0.81254023 -0.14397463 0.6091908 -0.05409719 -0.09905796
-2.4469686 0.7033655 1.6764672 -1.8860409 -0.046753723 -0.27612543 1.0520823 0.024726117
1.0647067 -0.034952477 -0.08123205 0.078264795 -1.1425369 0.56037354 1.0956101 -0.25028354
1.8304019 -0.024974415 -0.68363655 0.8138245 -0.10306054 1.533804 0.12687677 0.7418293
-0.01585577 0.27043557 -0.5371351 1.3830029 0.39977464 0.039039895 -0.41456833 -0.10203038
-0.044182826 0.030730002 0.0014344492 -0.65003425 -0.38314793 -0.0061343713 0.1534993 -1.3527993
-0.30581048 -1.1393882 -0.0026596098 0.39800057 -1.1384219 0.8218337 -1.3459417 -0.01371997
-0.4001331 -0.5612491 -0.06269419 -0.19554825 0.93440837 -0.23290466 -0.4999382 0.0731417
1.1760408 0.23492725 0.16496481 1.4614172 0.15339328 -0.18690498 0.106754564 0.42267594

encoder.layers.0.ff.0.bias f4 [128]
00000000: 2ac6 53c0 37f0 c1bf c778 83be 3122 babf
00000010: a0ef 52c0 d049 503f 0c7a 39be 7300 7abf
00000020: 6c68 f3bf 35dd 9fbf 74b1 6bbf 6cb2 03c0
00000030: 29cd 36bf e72f ddbf 3afd bf3f d80f b3bf
00000040: d3bf a53e 069a e9bf 8c7d 92bf 67da ad3c
00000050: 7490 c4bd 37dd 11c0 d050 11c0 f2d5 babf
00000060: e7e3 e8bd 40ed 7f3f c305 5ebf 998b d6bf
00000070: d8b8 d9bf c6e0 c7be 4b13 24c0 f135 8bc0
00000080: b505 1cbf 1394 24c0 cb92 62bf 739a 2ec0
00000090: 3b36 4ec0 ae5d 29be e216 a5be 8052 4abf
000000a0: 16d7 abbf d6dc a9bf 9d32 15bf 03b9 1cbf
000000b0: a094 11bf 9a52 0fc0 cff5 5abf 5682 c2bf
000000c0: b4b7 16c0 3cc9 17c0 cfcb 5cbf edff e0bf
000000d0: ac16 81bf e662 eabf 592f d13e ab3e 5bbe
000000e0: e6a1 9cbf b7c5 04c0 a366 fdbf cb1e b03e
000000f0: da9c 9b3f 9740 b7be eadb 63be d1fe 58c0
00000100: b016 b3bf d3e8 dfbf 33ed ddbf e91d d2bf
00000110: 7e8f 18bf 9433 d8bd 3299 32bf c39e 54bf
00000120: bfec eabe 6c29 273e 6bcc 1ac0 5d0b e4bf
00000130: b1c1 acbf 4ce3 13c0 f679 c5be e489 92be
00000140: 39da 6abf 4fdb 9cbf b509 27c0 f244 bbbf
00000150: 74ba 35bf 78e3 cebf 0b36 9f3e 59b1 cebe
00000160: f942 46be b156 c1bf e2ed 7bbc d15b 32c0
00000170: 441f 41bf e8fc 5fbe ac5c 2cbd 7cda 7e3e
00000180: a5f8 38c0 135f 78be bb99 a8bf d537 25bd
00000190: 42b4 e2bf 6f53 203e 8d75 63bf c486 85bf
000001a0: 13c1 75be 4ef2 98be b4c3 4fbd d609 2e3d
000001b0: 77ad c4bd 3b3c 06bf 1326 f0be d967 d3bf
000001c0: c019 d2bf af94 47be afc0 cabf 4272 abbf
000001d0: b41c 80bf ef94 3e3f 4d5c b4bf b917 463e
000001e0: ebca 2cbf 5803 98bf eefd 56c0 9af2 a3bf
000001f0: 132c f0be cc7e 1ec0 a5d4 01c0 3866 c6bf
-3.30897 -1.5151433 -0.25678083 -1.4541684 -3.2958755 0.8136263 -0.18112963 -0.97656935
-1.9016242 -1.2489382 -0.92067647 -2.057765 -0.714068 -1.7280244 1.4999154 -1.398921
0.32372913 -1.8250129 -1.1444564 0.021222306 -0.09597865 -2.279127 -2.2705574 -1.4596541
-0.11371594 0.9997139 -0.8672754 -1.6761352 -1.7009535 -0.39038676 -2.5636775 -4.3503346
-0.6094621 -2.5715377 -0.8850524 -2.7281768 -3.22206 -0.16539642 -0.3224402 -0.79032135
-1.3425014 -1.3270519 -0.58280355 -0.61219805 -0.5686741 -2.2394166 -0.85531324 -1.5196025
-2.3549623 -2.3716574 -0.8624849 -1.7578102 -1.0085044 -1.8311431 0.40856436 -0.21410625
-1.2236907 -2.0745676 -1.9796947 0.34398493 1.2157242 -0.35791466 -0.2225186 -3.3905528
-1.3991299 -1.7492927 -1.7338012 -1.6415378 -0.5959395 -0.10556713 -0.6976501 -0.8305475
-0.45883748 0.16324395 -2.4187267 -1.7815968 -1.349661 -2.310748 -0.3856961 -0.28620827
-0.9173923 -1.2254428 -2.6099675 -1.4630415 -0.7098763 -1.6163168 0.3109592 -0.4036968
-0.19361486 -1.5104581 -0.01537654 -2.786854 -0.7543833 -0.2187382 -0.042080566 0.24888033
-2.890176 -0.24255018 -1.3171915 -0.04033645 -1.771126 0.15656827 -0.88851243 -1.0431752
-0.23999433 -0.29872364 -0.050723746 0.04248985 -0.09603398 -0.52435654 -0.46904048 -1.6516067
-1.6414108 -0.19490312 -1.5840052 -1.3394244 -1.000876 0.74446005 -1.4090668 0.19344987
-0.6749713 -1.187602 -3.3592486 -1.2808411 -0.46908626 -2.476489 -2.0286038 -1.5499945

encoder.layers.0.ff.2.weight f4 [64, 128]
00000000: 3031 4bbc 234a 083f 302f 7a3e b0aa e53f
00000010: 8775 81bd f9e0 283f 600a e13f 8c33 973f
00000020: 2908 d63d 2905 b6be becd b7be 0cc0 9f3f
00000030: d8dd fcbd 9759 a9be 2adc 3dbf 24bc fbbf
00000040: 4fce 253f 6aa5 3e3f 6b1d 243f dbbc 273f
00000050: f453 703f 2cc1 f1b8 7f8f e13e 2f78 e5bf
00000060: c2ec 07be 0809 3c3e 05c9 593f 6df7 f53f
00000070: c9e7 913e 9fc8 533f a813 633e b040 b6bf
00000080: 01df ccbf 1025 8a3e 5fc2 d2bd e913 8dbf
00000090: b83f ad3e a5f7 92bf b333 b6be a42b 81bf
000000a0: e7d5 d03f 4215 0bbd 924c e33d b3cd a33f
000000b0: 7cf1 22be 5b5b b0be 3ead 90bf f5c1 3f3f
000000c0: 6727 ef3e 2ca8 a23e e753 a9bd ee37 313f
000000d0: 8d06 5b3e 5f20 c53c cf1b 06c0 0a78 ea3d
000000e0: a793 c53e 558e 52bf 519a e3be 4051 e23e
000000f0: 28f9 47bf 45c9 9f3f 1a06 3a3e ffa9 f53e
00000100: d7c1 003f 0e47 523f b188 6dbf df96 c2bd
00000110: 7cbc 6dbf 0883 15bd 4e8f a53f 87ea 84bf
00000120: 5441 cdbe 37e6 2e3e ad47 cb3f c7c9 f7bd
00000130: 4792 fdbd b5d7 89bf 53bd 00bf ef25 763e
00000140: f93e cbbd 46c7 a73f e210 c53e c506 1cbd
00000150: d6e5 2f3f e10b 5c3f 8239 253f f556 8b3f
00000160: 2510 2d3d c5ad 2940 d8f3 a5bf dc72 e03d
00000170: c19a d5be 6037 08c0 5474 ee3e 80bf 793f
00000180: 8378 4d3e 6008 aebd d90b cebe 04e6 c1bf
00000190: 1d03 73be 7b43 febd fb9f 5f3d 1138 ad3e
000001a0: e759 263f a2c6 963f 1d59 253f e3de 663e
000001b0: 28d7 32bf 0f95 8a3e 49f9 023f 450a 6f3e
000001c0: de84 b8be b594 b3bf 4707 ca3d 131c e53e
000001d0: db4a 1dbf deae 9b3c 0c53 c2be d377 b33e
000001e0: d5a4 c93f 1e30 833f 5900 d6bf 7810 b23e
000001f0: 2981 cabf b384 653d 9f5e 4739 4e28 8cbe
00000200: 7a48 e5be 198f fdbe 6c34 0e3f e326 df3f
00000210: 45a9 e3bf c267 67bf dc9f b33c 6586 503f
00000220: 2e97 c43e c8cd cb3f 8493 6b3f 9c38 22bf
00000230: e3ea 16bf a38e 12bf 386d 863e 5ea4 c93d
00000240: 2bf7 463f 13e1 7a3e 4b45 d43e d067 e2be
00000250: 58b3 393f 3320 b83e dd8e 263f 7099 95bf
00000260: 4466 a23e 0dfd 3ebd d0f0 b93f 0935 183f
00000270: 1851 ce3e 403d 0f3e 75e1 713e 1160 8d3f
00000280: 7323 b7bf 9842 13bf c99d c2be 53b9 8cbe
00000290: 30a0 083f 20e8 aabe 4b31 dcbf 9a12 a0be
000002a0: facc a13f 034b 17bf 7a2e 24bd 46f1 bb3e
000002b0: 9cdb 083f b76c 993e a78e 48bd ad5b a43f
000002c0: 7efe 1f3f 2604 d4be b846 67bf 1f99 943f
000002d0: 4dd3 9fbf 12a8 aabe b4f2 c4bf 7c4d 0bbf
000002e0: 1d3f fcbe 9e81 cd3e 247e f23e c379 abbf
000002f0: a5df 3dbf 9817 abbf 6352 923e efcf 603f
00000300: 35c1 d13e 7b1c 0340 a85b 96bd e580 7dbf
00000310: 9bda e83f 3f4f 773e bd2d babf 7aa8 a0be
00000320: f97f 2040 e06d 87bf 4328 773f e123 3cbf
00000330: 65ce 9bbe c49a e8bd 1957 68be 1f45 d0bd
00000340: 49d4 b53d 287e 153f a86b ad3e f15b 4b3f
00000350: b48c d03d 3ca0 5bbf 59b4 503e 5e2a ab3f
00000360: d222 193f 2716 573f ff35 a83e e748 c93d
00000370: 3eb0 683e f5c1 99bf eed1 7abf 7423 213f
00000380: dfa8 15bf b291 193e 0f9e 46be 0692 9f3f
00000390: af5e 9a3f 53c7 0b40 e5c8 913f d8ac 4640
000003a0: 075e 1e3f 7af4 9dbe 5820 05c0 c31d e73e
000003b0: 92fe cd3e e062 f13e 0140 1cc0 8ef1 26bf
000003c0: 0d0d 67bf 3fe6 13bf 6a59 f3bf a80b 1abf
000003d0: 93b6 163f 8073 f33d 1eab 473f 7516 a03f
000003e0: 655c b33e 00fa 53be b397 aebf 8536 fc3f
000003f0: 80ba b7be a845 b0bf 8dd0 8f3f 5431 6a3f
-0.012401864 0.53238124 0.24432063 1.7942715 -0.06321245 0.6596828 1.7581291 1.1812606
0.10450775 -0.35550812 -0.35899156 1.2480483 -0.12347001 -0.33076164 -0.7416407 -1.9666791
0.64767927 0.7447115 0.6410739 0.65522546 0.938781 -0.000115277566 0.4405479 -1.7927302
-0.1327391 0.1836282 0.85072356 1.9216133 0.2849715 0.82728 0.22175467 -1.4238491
-1.6005555 0.269814 -0.102909796 -1.1021701 0.33837676 -1.1481825 -0.35586318 -1.0091443
1.6315278 -0.03395582 0.11098589 1.279715 -0.15912431 -0.344447 -1.1302869 0.7490533
0.4670975 0.3176893 -0.08267956 0.69225967 0.21389218 0.024063287 -2.0954473 0.11448677
0.38589212 -0.8224843 -0.44453672 0.44202614 -0.7811456 1.2483298 0.1816639 0.4798126
0.50295776 0.8213967 -0.927867 -0.095014326 -0.9286573 -0.036501914 1.2934358 -1.0384072
-0.40088904 0.17080007 1.5881249 -0.12099033 -0.12381416 -1.0768954 -0.50288886 0.24037908
-0.099241205 1.3107688 0.38489443 -0.038092393 0.68710077 0.85955626 0.64540875 1.0885912
0.042251725 2.651231 -1.296504 0.10959408 -0.4171963 -2.1283798 0.46573126 0.9755783
0.20065503 -0.08497691 -0.40243414 -1.514832 -0.23731656 -0.12415215 0.05459593 0.33831838
0.6498093 1.1779368 0.645891 0.22545962 -0.6985955 0.27066848 0.5116163 0.23343761
-0.3603887 -1.4029757 0.09864669 0.4474798 -0.61442345 0.019004282 -0.37953985 0.35052356
1.5753428 1.0249059 -1.6718856 0.3477819 -1.5820667 0.056034755 0.00019013368 -0.273745
-0.44781858 -0.49523237 0.5554874 1.7433742 -1.7786032 -0.90392697 0.021926813 0.8145507
0.3839659 1.5922174 0.92021966 -0.6336763 -0.5895216 -0.57248896 0.26255202 0.09845804
0.777209 0.24499922 0.41459116 -0.44219828 0.7253928 0.35962066 0.6506174 -1.168745
0.31718647 -0.046628047 1.4526615 0.59455925 0.40296245 0.13988209 0.23621161 1.1044942
-1.4307693 -0.5752349 -0.38011006 -0.2748514 0.53369427 -0.33380222 -1.7202543 -0.31264192
1.2640679 -0.59098834 -0.040083386 0.36707515 0.534601 0.29965755 -0.04896417 1.2840477
0.624977 -0.41409415 -0.90342283 1.1609229 -1.2486359 -0.33331352 -1.5386567 -0.54415107
-0.49266902 0.40137953 0.47361863 -1.3396534 -0.7416938 -1.3366575 0.2857848 0.8781728
0.40967718 2.0486133 -0.07341701 -0.990248 1.8191713 0.24151324 -1.4545208 -0.31378537
2.5078108 -1.0580406 0.9654581 -0.73492247 -0.30430904 -0.11357644 -0.22689475 -0.10169434
0.08878381 0.58395624 0.33871198 0.79437166 0.10183087 -0.85791373 0.20381297 1.3372304
0.59818757 0.84018177 0.32853696 0.09828358 0.22723481 -1.2012316 -0.9797658 0.6294472
-0.584608 0.14996985 -0.19396232 1.2466438 1.2060145 2.1840408 1.1389433 3.1042995
0.61862224 -0.30850583 -2.080099 0.45139894 0.40233284 0.47145748 -2.4414065 -0.65212333
-0.9025429 -0.577732 -1.9011662 -0.60174036 0.58872336 0.11887264 0.7799548 1.2506853
0.3503143 -0.20700836 -1.3640045 1.9704138 -0.35884476 -1.3771257 1.123552 0.9148152

encoder.layers.0.ff.2.bias f4 [64]
00000000: b8b7 bfbf 132d a43d 13c4 4cc0 fc30 a540
00000010: fd86 d0be b8d6 c540 44da 50c0 800a 18c0
00000020: 59dc 16c1 feba 78bf 5a7c 0abf 5116 84be
00000030: 6128 ab41 3cac ca3f be4a 0dc0 1e61 6dc1
00000040: 8251 f53e 5c6f 803d 2eaa cdbf 2f8d c940
00000050: 40f6 683f 9d57 bfbf 3f44 1640 0658 8c3f
00000060: fdf8 7abe 270a 59c0 95d7 32bf eca0 0ac0
00000070: 5f75 44bf d91c e1c0 8989 833f b8e0 99c0
00000080: 89b8 d9be be48 1040 c205 a9bf 8db0 5bc0
00000090: 8b8d f93f 29a2 0bc0 4d75 2b40 640d 45bf
000000a0: 1a52 aebe dabb debe c22b d1c0 bfbf 81be
000000b0: bc9f ce40 3b27 6ebf 50fd b940 ad3e 4940
000000c0: b909 9f40 5a33 a8c0 a0e8 db3e 94cf 3fbf
000000d0: b9eb 8a3e 9fc8 af3f f411 08c0 4855 843e
000000e0: a80b 4b3d a781 2840 31a0 5a40 8804 9440
000000f0: 01fc 0840 7a4b 5240 d257 3d40 8484 a63e
-1.4977942 0.0801641 -3.1994674 5.1622295 -0.40727988 6.182461 -3.2633219 -2.3756409
-9.428796 -0.9716033 -0.54095995 -0.25798276 21.394716 1.5833812 -2.207687 -14.83621
0.47913748 0.0627124 -1.606756 6.2984843 0.9100075 -1.4948612 2.3479154 1.0964363
-0.24509044 -3.3912446 -0.698602 -2.166072 -0.76741594 -7.0347714 1.0276347 -4.8086815
-0.42523602 2.2544398 -1.3204882 -3.4326508 1.949632 -2.1817725 2.6790345 -0.7697356
-0.34047014 -0.43502694 -6.5365915 -0.25341603 6.456999 -0.9302861 5.812172 3.1444504
4.969937 -5.2562685 0.42950916 -0.74926114 0.27132967 1.37331 -2.1260958 0.25846314
0.049571663 2.6329134 3.4160273 4.625553 2.140381 3.2858567 2.9584851 0.32522976
