checkpoints/epicon_comp/K562/best_model.pt (torch, 578018 bytes, 54 tensors)

encoder.pos f4 [1, 15, 64]
0	0xbd99c2e8	-0.075078785
1	0xbeff9e47	-0.49925444
2	0xbf9374a3	-1.151997
3	0xbf43d870	-0.7650213
4	0x3f1b54c7	0.60676235
5	0xbdb73fb0	-0.08947694
6	0xbec7ffab	-0.39062247
7	0xbee87edc	-0.45409286
8	0xbebb4a36	-0.36580056
9	0xbeb59ce5	-0.35471264
10	0x3e90185c	0.28143585
11	0x3ed8e710	0.42363787
12	0x3dfc9b80	0.12334347
13	0x3da84c00	0.08217621
14	0x3e30c816	0.17263827
15	0xbd16c27d	-0.036806572
16	0xbe979700	-0.2960739
17	0xbe63ddf0	-0.22252631
18	0x3f258cde	0.6466807
19	0x3e7b9494	0.24568397
20	0xbe157c1e	-0.14598128
21	0xbf037c6f	-0.51361746
22	0x3dc747de	0.097305045
23	0xbcf2a8b0	-0.029621452
24	0x3e87689a	0.26446992
25	0xbd62c6fc	-0.055365548
26	0x3e297339	0.1654786
27	0x3e05c302	0.13062671
28	0xbd6ef362	-0.058337577
29	0x3df6bc06	0.120475814
30	0xbf241d8d	-0.6410759
31	0x3d91220c	0.07086572
32	0xbf669249	-0.90066963
33	0x3d2dcf62	0.042434104
34	0xbe3984e7	-0.18117104
35	0x3e5df829	0.21676697
36	0xbfba4d10	-1.4554768
37	0xbe172c45	-0.14762981
38	0xbe1d188c	-0.15341395
39	0x3ed12bcc	0.40853727
40	0x3eaea36d	0.3410906
41	0xbdfd5eb5	-0.123715796
42	0xbe3b53b2	-0.18293646
43	0xbec18f3d	-0.37804595
44	0xbe1a09a4	-0.1504274
45	0xbe7a586c	-0.24447793
46	0x3e295018	0.1653446
47	0x3eaab96b	0.33344588
48	0xbe7b3840	-0.24533176
49	0x3da8e4e3	0.08246782
50	0xbe24f21d	-0.16107984
51	0x3d1d2ebf	0.03837466
52	0x3f7bad66	0.9831146
53	0x3f20b4de	0.6277598
54	0xbe3a081e	-0.18167159
55	0xbd8d8042	-0.06909229
56	0x3e02f5ff	0.12789153
57	0x3d24f784	0.04027511
58	0x3f936a96	1.1516902
59	0xbdc637f6	-0.096786425
60	0x3ec061ae	0.37574524
61	0xbe1bf2da	-0.1522936
62	0xbe0c143b	-0.13679592
63	0xbd23d1e7	-0.0399951
64	0xbda59b03	-0.08086207
65	0xbedd01ec	-0.4316553
66	0xbed7ef2b	-0.42174658
67	0xbe5cb07e	-0.21551701
68	0x3ebb1a05	0.3654329
69	0xbd66cbad	-0.056346584
70	0x3d84fe30	0.06493795
71	0xbe9e749d	-0.30948344
72	0xbf14e03d	-0.5815466
73	0xbeb2226a	-0.3479188
74	0x3e98655d	0.29764834
75	0x3f04cc42	0.5187417
76	0xbf730a5d	-0.9493769
77	0x3daf1a25	0.085499085
78	0x3cf0aeb1	0.029380174
79	0x3c481532	0.012212085
80	0xbe8cf42b	-0.27530035
81	0xbe54abc1	-0.20768644
82	0xbfcead88	-1.6146708
83	0x3e8044f6	0.25052613
84	0xbe027610	-0.1274035
85	0xbe9aae04	-0.30210888
86	0x3de3b19e	0.11117862
87	0x3b2dcec8	0.0026520956
88	0x3e8fd817	0.2809455
89	0xbcc7f5b1	-0.024409147
90	0x3e2ed610	0.17073846
91	0xbe6be06c	-0.23034829
92	0xbd1a6cde	-0.03770148
93	0xbf4fc743	-0.81163424
94	0xbf3ebc25	-0.74505836
95	0x3d903b11	0.07042516
96	0xbfaa18c0	-1.3288803
97	0x3d34ca9a	0.04413853
98	0xbe258d05	-0.16167076
99	0x3e0decc2	0.13859847
100	0xbe354288	-0.17701161
101	0xbe09492a	-0.13406816
102	0xbe0c4841	-0.13699438
103	0x3f88601f	1.0654334
104	0x3e9aa198	0.3020141
105	0x3c80e59e	0.01573449
106	0xbe386948	-0.18008912
107	0xbec568d3	-0.38556537
108	0x3e8f7054	0.28015387
109	0x3eb1f411	0.3475652
110	0x3e995e0c	0.29954565
111	0x3eb0f2a1	0.3456011
112	0xbd983860	-0.07432628
113	0x3d899bde	0.067191824
114	0xbdefc6e5	-0.11707858
115	0x3d28dc67	0.041225817
116	0xbf36994a	-0.7132765
117	0x3db70bef	0.08937823
118	0xbe8563b8	-0.26052642
119	0xbd9b7430	-0.075905204
120	0x3e0496e1	0.1294818
121	0x3f049b8f	0.51799864
122	0x3f8fc7f0	1.1232891
123	0xbe2f1e4c	-0.17101401
124	0x3ec78e09	0.38975552
125	0xbe20b970	-0.15695739
126	0xbdf4084a	-0.119156435
127	0xbc69686f	-0.01424609
128	0xbddd7ae5	-0.10814456
129	0xbf012a3d	-0.50455076
130	0xbf801275	-1.0005633
131	0x3ef9e55c	0.488078
132	0x3f2e8b52	0.68181336
133	0xbdc02f29	-0.09383995
134	0x3e1025b5	0.14076884
135	0xbec1821b	-0.37794575
136	0xbe79ff1c	-0.24413723
137	0xbea387e1	-0.31939605
138	0x3e9cbf60	0.30614758
139	0x3f331198	0.6994872
140	0xbedb7b8b	-0.42867693
141	0x3d79cfde	0.060989253
142	0x3eea4022	0.45752054
143	0xbcf2b31a	-0.029626418
144	0xbe90f183	-0.2830926
145	0xbe46615f	-0.19373082
146	0xbf43cbf3	-0.76483077
147	0x3e886719	0.26641157
148	0xbdfc0ac5	-0.123067416
149	0xbe15e327	-0.14637433
150	0x3ddb3c85	0.107049026
151	0x3bc6581c	0.006052984
152	0x3e95b727	0.29241297
153	0xbd19fb0b	-0.03759293
154	0x3e3bdf96	0.1834701
155	0xbee8f68e	-0.45500606
156	0x3b8ed8b7	0.0043593305
157	0xbf0dafd4	-0.5534642
158	0x3f4cf2b7	0.80057853
159	0x3d8801c9	0.066409655
160	0xbf640498	-0.8906951
161	0x3d513bd8	0.051082462
162	0xbe1d405d	-0.15356584
163	0x3e196554	0.1498006
164	0xbdc1f0ee	-0.09469782
165	0xbdf5676a	-0.11982615
166	0xbe043cb9	-0.12913789
167	0x3d8aedb9	0.06783623
168	0xbee526ae	-0.44756073
169	0x3e381868	0.1797806
170	0xbe47f5a1	-0.19527294
171	0xbeb7133f	-0.3575687
172	0x3e95e3e6	0.29275435
173	0x3f6bf403	0.9216921
174	0xbd8fb2e2	-0.07016541
175	0xbdbbeff9	-0.091766305
176	0x3e057951	0.1303456
177	0x3dd6cfc8	0.1048885
178	0xbde74073	-0.112915896
179	0x3d28b6c0	0.04118991
180	0x3f900417	1.1251248
181	0x3fc1d332	1.5142577
182	0xbd1eaf72	-0.038741536
183	0xbda2a37d	-0.07941339
184	0x3e01dc83	0.12681775
185	0x3ea05688	0.31316018
186	0x3ce1a2a4	0.027543373
187	0x3e09994d	0.13437386
188	0x3edaebb0	0.4275794
189	0xbe38f4d2	-0.18062142
190	0xbde14d9a	-0.110011294
191	0xbd47df8d	-0.04879718
192	0xbde7a82c	-0.11311373
193	0xbefe0d15	-0.49619356
194	0x3f876c5f	1.0579947
195	0x3f2aaac1	0.666668
196	0xbf689f4f	-0.90868086
197	0xbda0e81f	-0.078567736
198	0x3ec561cb	0.38551173
199	0xbed83515	-0.42227998
200	0xbf0b95c0	-0.54525375
201	0xbe9b4467	-0.30325624
202	0x3e94ad69	0.2903855
203	0x3f1037a8	0.56334925
204	0x3f082be2	0.5319196
205	0x3dc0a909	0.09407241
206	0x3e84c34a	0.25930244
207	0xbdc08265	-0.09399871
208	0xbe8bac6d	-0.27279988
209	0xbe4e820e	-0.201668
210	0xbf2b31a0	-0.66872597
211	0x3e7c68ea	0.24649397
212	0xbe1fc52d	-0.1560256
213	0x3d85146f	0.06498038
214	0x3dd79bc8	0.1052776
215	0xbcfe5053	-0.031044161
216	0x3e8d86c2	0.27641875
217	0xbcbace89	-0.022803562
218	0x3e2a37ad	0.16622801
219	0xbfd5c704	-1.670136
220	0xbd8728b5	-0.06599561
221	0x3dc8f9db	0.09813281
222	0x3f6d3f9e	0.926752
223	0x3db0a616	0.086254284
224	0xbfb0b20a	-1.3804333
225	0x3d65fa1c	0.056146726
226	0xbe1e71e3	-0.15473132
227	0x3e157a33	0.14597397
228	0xbe15d3fa	-0.14631644
229	0xbe065d4f	-0.13121532
230	0xbe06b5dd	-0.13155313
231	0x3e796a26	0.24356899
232	0x3e76dd81	0.24107935
233	0xbe7d041e	-0.24708602
234	0xbe4288bf	-0.18997477
235	0xbeb45de2	-0.35227877
236	0xbe0d39fc	-0.1379165
237	0x3f435d60	0.76314354
238	0x3e541235	0.2071007
239	0x3d9d1982	0.07670881
240	0xbe85dcf1	-0.26145127
241	0x3d7edf66	0.062224768
242	0xbdf3642d	-0.118843414
243	0x3bef5d9b	0.00730486
244	0x3e88da3f	0.2672901
245	0x3ec27f93	0.37987956
246	0x3e6907cd	0.22756882
247	0xbe008b14	-0.12553054
248	0x3e2f0a64	0.17093807
249	0xbe47ea17	-0.19522892
250	0x3f562417	0.8364882
251	0xbf096639	-0.53671604
252	0x3eb92f52	0.36168915
253	0xbe454172	-0.19263247
254	0xbde067c2	-0.1095729
255	0xbd603cff	-0.05474567

encoder.embed.weight f4 [64, 6]
0	0x3cd5b3e1	0.02608675
1	0x3c82341d	0.01589399
2	0x3d03a2cd	0.03213768
3	0x3cb5ce95	0.022193233
4	0x3b9c7b6f	0.0047754566
5	0x3ade2999	0.0016949653
6	0x3d13d6cd	0.036093522
7	0xbae0b2c9	-0.0017143126
8	0x3c5d2d01	0.013499499
9	0x3c6991fd	0.014255998
10	0xbba3ec29	-0.0050025177
11	0xbce62e59	-0.028098272
12	0x3e16a1c2	0.14710143
13	0xbe11c431	-0.14234997
14	0xbd3814d4	-0.04494174
15	0x3df56f3f	0.11984109
16	0xbe02123d	-0.1270227
17	0xbd3a6dc9	-0.045514856
18	0xbe89f182	-0.26942068
19	0x3ef9e874	0.4881016
20	0x3f2b7df9	0.66989094
21	0xbdbc77ec	-0.09202561
22	0x3d6ef6e4	0.058340922
23	0x3f1cda67	0.61270756
24	0x3ec627b8	0.38702178
25	0x3e325cf7	0.17418276
26	0x3ee8d20f	0.45472762
27	0xbf497b54	-0.7870381
28	0xbf2c1cfd	-0.6723173
29	0x3fbaae36	1.4584415
30	0xbbbe7860	-0.0058126897
31	0xbbbfd596	-0.005854319
32	0x3c7818bc	0.015142616
33	0xbbe993b8	-0.007128205
34	0xbc4507b4	-0.012025762
35	0xbc089c7d	-0.008338091
36	0xbf19dbc2	-0.6010095
37	0xbff1c50f	-1.8888263
38	0xc0375055	-2.864278
39	0xbfaef54f	-1.3668612
40	0x3f85eecc	1.04635
41	0x3eb511d5	0.35365167
42	0x3b483703	0.0030550368
43	0x3b726740	0.0036987811
44	0x3c9ea65d	0.019366438
45	0xbac173bf	-0.0014759226
46	0xbbced516	-0.006312023
47	0xbba11aea	-0.0049165385
48	0xbd564cc4	-0.052319303
49	0x3cb8e604	0.022570617
50	0x3d8cd93c	0.06877372
51	0x3e125d92	0.14293507
52	0xbc5bae1b	-0.013408209
53	0x3e04073d	0.12893386
54	0xbc63f542	-0.0139134545
55	0x3bb20105	0.0054322504
56	0x3b2bc6d6	0.0026211045
57	0xbca62111	-0.02027944
58	0xbce544fd	-0.027986998
59	0x3c6b2a09	0.014353284
60	0xbcca2473	-0.024675583
61	0x3b35d353	0.0027744367
62	0x3b13988a	0.002252134
63	0xbca8151d	-0.02051788
64	0xbccec001	-0.025238039
65	0x3c82f0dc	0.015983991
66	0x3f1627a9	0.58654267
67	0x3e3445c9	0.17604746
68	0x3f4047b5	0.75109416
69	0xbf117006	-0.5681156
70	0x3fadd2fc	1.3580012
71	0xc01e1f5e	-2.4706645
72	0x3e1e020c	0.15430468
73	0x3d66fe45	0.056394834
74	0x3d69e956	0.057107292
75	0xbe21668b	-0.15761773
76	0xbca288ad	-0.019840563
77	0x3e3052b5	0.1721905
78	0xbc4fbcc6	-0.012679284
79	0x3ad1ab11	0.0015996416
80	0x3c2eb781	0.010663868
81	0xbc83a1ef	-0.016068427
82	0x3ba00d3f	0.0048843916
83	0x3507c0d1	5.0572004e-07
84	0xbc67d957	-0.014150939
85	0xbc82d2b4	-0.015969612
86	0x3b4a40c3	0.0030861355
87	0x3ceac2e2	0.02865738
88	0xb702be5d	-7.792926e-06
89	0xbca7bcb1	-0.020475717
90	0x3b0dd159	0.0021639674
91	0x3c360f78	0.0111120865
92	0x3c1e54d0	0.009663776
93	0x3c99c275	0.018769482
94	0xbb02662a	-0.001989732
95	0x3c268718	0.010164045
96	0xbc22e738	-0.009942822
97	0xbb0d950a	-0.0021603727
98	0xbbcb5f00	-0.0062063932
99	0xbc3de072	-0.011589156
100	0xbce03a70	-0.027371615
101	0xbbb17328	-0.005415339
102	0xbc47cbfb	-0.012194629
103	0xbb87e418	-0.004147064
104	0x3add0181	0.001686141
105	0xbc8eb17d	-0.017418617
106	0xbcbf021a	-0.023316432
107	0x3c1cad3b	0.009562786
108	0xbe3a8f6f	-0.18218778
109	0x3deeb8e9	0.116563626
110	0xbec32a2f	-0.3811812
111	0x3e83a9ae	0.25715393
112	0x3d01fee4	0.031737223
113	0xbea78104	-0.3271562
114	0xbc04bfd0	-0.008102372
115	0xbb981ee3	-0.004642354
116	0xbc16dfd9	-0.009208643
117	0x3b271c08	0.0025498886
118	0xbca7de15	-0.02049164
119	0xbbc4ec62	-0.0060096243
120	0xbcca6bed	-0.024709666
121	0x3b520646	0.0032047196
122	0x3c093af1	0.008375869
123	0xbc3cea72	-0.0115305055
124	0xbcbe0f57	-0.023200674
125	0xbb1e2a5c	-0.0024134135
126	0xbc9e1284	-0.019295938
127	0xbd98a06e	-0.074524745
128	0x3c12b788	0.00895489
129	0x3e779ec0	0.24181652
130	0xbdd19b14	-0.10234657
131	0x3e03c794	0.12869102
132	0xbcbd317c	-0.023094885
133	0x3bc471d0	0.005995013
134	0xbb5c3912	-0.0033603352
135	0xbc7a80b5	-0.015289475
136	0xbc949f5e	-0.018142398
137	0xbbb1098a	-0.0054027485
138	0x3bcd615c	0.0062677097
139	0x3c931d7b	0.017958393
140	0x3bebf543	0.0072008683
141	0x3c0695e7	0.00821445
142	0xbc091a17	-0.008368037
143	0xbc3515d5	-0.011052568
144	0xbcbf1efb	-0.023330202
145	0xb99360bb	-0.00028110095
146	0x3a319ee0	0.00067756884
147	0xbca19931	-0.019726368
148	0xbcb87175	-0.022515038
149	0x3bf0ddd5	0.007350663
150	0xbc2f49eb	-0.010698776
151	0xb94b01dc	-0.00019360281
152	0xbb9bf84d	-0.0047598244
153	0xbc9a9b9f	-0.018873034
154	0xbba28eea	-0.0049608843
155	0xba19e98a	-0.0005871287
156	0x3bfe9e5f	0.007770344
157	0xbb550701	-0.0032505395
158	0x3be41726	0.0069607673
159	0xbc818d87	-0.015814556
160	0xbb1e19ec	-0.0024124337
161	0xbbd1cd00	-0.0064026117
162	0xbd504640	-0.050848246
163	0xbd5bbf29	-0.0536491
164	0xbccec60d	-0.025240922
165	0x3ca37e2e	0.019957628
166	0xb7a5cd70	-1.9765197e-05
167	0xbce79374	-0.028268553
168	0xbbd56175	-0.006511862
169	0x3b2eb033	0.0026655316
170	0xbb194cb3	-0.0023391664
171	0xbbd17023	-0.0063915416
172	0xbcb5367c	-0.022120707
173	0x3c3df8f6	0.011595001
174	0x3d45fe35	0.048338134
175	0x3c9f82a0	0.019471467
176	0x3cbac927	0.022800995
177	0x3b2ef8c8	0.0026698578
178	0xbce4e1f1	-0.027939769
179	0x3d5e5a6b	0.054285448
180	0x3b581679	0.003297238
181	0x3cba1bfe	0.022718426
182	0xbb21883f	-0.002464786
183	0x3c8d53c2	0.017251853
184	0xbc85ffc5	-0.016357312
185	0xbd2cb7db	-0.042167526
186	0xbc662a85	-0.014048223
187	0x39a2ef65	0.0003107741
188	0xbbd778a8	-0.0065756626
189	0xbcb6d538	-0.022318467
190	0xbbe5f98a	-0.0070182728
191	0x3a66c305	0.0008802864
192	0xbdeea99b	-0.116534434
193	0x3d4a774b	0.049430173
194	0xbe882f73	-0.265987
195	0x3e5965ee	0.2123029
196	0x3e08aa36	0.1334618
197	0xbe8eeb93	-0.27914104
198	0xbc75a8fe	-0.014993904
199	0x3b9226b1	0.004460179
200	0x3c352fca	0.011058757
201	0x3b4ce7fb	0.00312662
202	0xbcc251fa	-0.02372073
203	0x3bb425f8	0.0054976903
204	0xbc1e85ce	-0.009675456
205	0xbb7d0ae1	-0.003861122
206	0x3bab020a	0.005218749
207	0xbc8824b0	-0.016619056
208	0xbcade764	-0.0212285
209	0x3c6578b9	0.014005833
210	0x3c0b3b4c	0.008498024
211	0xbc475b63	-0.012167784
212	0x3c69eef2	0.01427816
213	0xbc7106fb	-0.014711137
214	0x3beb6b60	0.007184431
215	0x3c03729c	0.0080229305
216	0xbd28e6fc	-0.04123591
217	0xbc4c53a9	-0.012471118
218	0x3a0c6fcb	0.00053572346
219	0x3d96436f	0.07337081
220	0xbcd0ed26	-0.025503706
221	0x3c2dbbf2	0.010603892
222	0xbc91e51f	-0.017809449
223	0x3b056d85	0.0020359468
224	0x3c2a42b8	0.010391884
225	0xbc9cd565	-0.019144723
226	0xbcd8287b	-0.02638649
227	0x3c60f24a	0.013729641
228	0xbc1ceaea	-0.009577492
229	0xba9acaa7	-0.0011809663
230	0x3c2388ae	0.009981317
231	0xbbe98f30	-0.007127665
232	0xbce05105	-0.027382383
233	0x3c89247d	0.016741032
234	0xbe6df597	-0.23238216
235	0x3ea15bea	0.31515437
236	0x3ed33a2c	0.4125532
237	0xbdbbefb5	-0.0917658
238	0x3ea6531a	0.32485276
239	0xbd2cb798	-0.042167276
240	0x3ca8919b	0.020577243
241	0x3bbcb36d	0.005758694
242	0x3c460f38	0.012088589
243	0x3cc7138e	0.024301317
244	0xbc8dd8ed	-0.017315352
245	0x3c01da3c	0.007925566
246	0xbd6efac7	-0.05834463
247	0x3fcc36aa	1.5954182
248	0xbeffc364	-0.4995376
249	0x3d803638	0.062603414
250	0x402eb00f	2.7294958
251	0x3f2506f7	0.6446375
252	0xbaacdfb6	-0.001318923
253	0x3c474224	0.012161765
254	0x3c4491ca	0.011997649
255	0xbc3a8c65	-0.011386012

encoder.embed.bias f4 [64]
0	0x3dbb3ec7	0.09142833
1	0x3ef90257	0.48634598
2	0xbe273c16	-0.16331515
3	0x3e13d5d6	0.1443704
4	0x3e7649a1	0.24051525
5	0x3dc659ec	0.0968512
6	0xbda28adf	-0.07936644
7	0x3ebea783	0.37237176
8	0x3e3cfc35	0.18455584
9	0x3ea747a9	0.3267186
10	0xbe9f25f2	-0.31083637
11	0xbeaf6ac3	-0.3426114
12	0xbd6f951e	-0.05849182
13	0xbda1d9c5	-0.07902864
14	0xbd850453	-0.064949654
15	0x3d90a78d	0.07063208
16	0x3e8e0fdb	0.27746472
17	0x3e406570	0.18788695
18	0x3e1b5dd5	0.15172513
19	0xbe84cb07	-0.25936148
20	0x3df50492	0.11963762
21	0x3e53cd4a	0.2068378
22	0xbdd83709	-0.10557372
23	0xba2b31e3	-0.0006530566
24	0xbe943b45	-0.2895147
25	0x3ca2bd54	0.01986567
26	0xbe47646a	-0.19471899
27	0x3e9071de	0.28211874
28	0x3d45e757	0.048316326
29	0x3e94a7e6	0.29034346
30	0x3d48945d	0.048969615
31	0xbd804b50	-0.06264365
32	0xbe939d68	-0.2883103
33	0xbd682563	-0.05667628
34	0x3e0d9daf	0.13829683
35	0xbe388000	-0.18017578
36	0x3e9c84b2	0.30569988
37	0x3de9323d	0.11386535
38	0x3de8936f	0.11356246
39	0xbe5bf582	-0.21480373
40	0xbdf99614	-0.12186828
41	0x3e913531	0.28360894
42	0x3e4061d0	0.18787313
43	0x3ec12149	0.37720707
44	0xbdfbf463	-0.123024724
45	0x3dc2b924	0.09507969
46	0xbe2c221f	-0.16809891
47	0xbe14fba3	-0.14549117
48	0xbcfd4f39	-0.030921565
49	0xbd9b179a	-0.07572861
50	0x3dd7d256	0.10538165
51	0xbccd7939	-0.025082218
52	0xbcedd8ba	-0.029034007
53	0xbe7edd2e	-0.24889061
54	0xbe46617a	-0.19373122
55	0x3db4aeca	0.08822401
56	0xbe0bc416	-0.1364902
57	0xbe0c1aa6	-0.1368204
58	0x3d072b30	0.03300017
59	0x3a853ee1	0.0010165834
60	0xbec7ae7d	-0.39000311
61	0x3e15819f	0.14600228
62	0x3dd0615a	0.10174818
63	0x3d3f4e0d	0.046705294

encoder.layers.0.self_attn.in_proj_weight f4 [192, 64]
0	0x3c8c7d13	0.017149484
1	0x3cf816fd	0.0302844
2	0x3ed26db3	0.4109932
3	0xbd20243d	-0.03909706
4	0x3e1addb2	0.15123633
5	0xba9fbbe3	-0.0012186732
6	0xbc9a35dc	-0.01882451
7	0xbc6dce02	-0.014514448
8	0xbe494244	-0.19654185
9	0x3be54e9c	0.0069978964
10	0xbc37fb7f	-0.011229395
11	0x3dcacae6	0.09901981
12	0xbe25cca7	-0.1619135
13	0xbc9bbfef	-0.01901242
14	0xbd776d6d	-0.06040709
15	0x3ddb7084	0.1071482
16	0xbc99723e	-0.018731233
17	0xb94be2f4	-0.00019444135
18	0x3de50673	0.11182871
19	0xbbafe450	-0.005367793
20	0xbbb5850e	-0.005539543
21	0x3eac729e	0.33681196
22	0xbd0ee1da	-0.034883358
23	0x39f28535	0.00046257084
24	0x3b23b6b1	0.0024980719
25	0x398745e3	0.00025801276
26	0xbc9882ca	-0.018617053
27	0xbea76ecf	-0.32701728
28	0xbce40c99	-0.027838038
29	0xbe38c099	-0.1804222
30	0xbd92f388	-0.07175356
31	0x3bb9f98c	0.0056755003
32	0xbdd285ee	-0.10279451
33	0xbc1c324a	-0.009533474
34	0xbbe6bc11	-0.007041462
35	0x3d0f8a5b	0.035044055
36	0xbe7a2c5d	-0.24430986
37	0x3ba875e1	0.0051410054
38	0xbbb2f54e	-0.0054613715
39	0x3e2c778d	0.1684248
40	0x3e0730f8	0.13202274
41	0xbc6a918f	-0.01431693
42	0x3d0f8b07	0.035044696
43	0x3d0d5caa	0.0345122
44	0x3c3a1ce8	0.011359431
45	0xbd0916e9	-0.033469114
46	0xbd86f842	-0.0659032
47	0x3d23cbe2	0.03998936
48	0xbd9b90f8	-0.0759601
49	0x3cbe313f	0.023216842
50	0xbc076896	-0.008264681
51	0x3c150b4b	0.009096931
52	0x3de38bf9	0.11110682
53	0xbe75d2a3	-0.24006133
54	0xbce22a17	-0.02760796
55	0x3bfd040c	0.0077214297
56	0x3cb736f0	0.022365063
57	0x3ce77946	0.02825607
58	0x3e9021b1	0.28150705
59	0xbd88e174	-0.06683627
60	0xbc8772a0	-0.01653415
61	0xbc7753bf	-0.01509565
62	0xbc1d173c	-0.009588059
63	0x3b88878e	0.00416655
64	0x3c92a758	0.017902061
65	0x3d803204	0.0625954
66	0xbdf3eed0	-0.11910784
67	0xbe161379	-0.14655866
68	0xbc6660ef	-0.014061197
69	0x3d203cc1	0.03912044
70	0xbd71e9f2	-0.059061
71	0x3c83db80	0.016095877
72	0xbd4dafb0	-0.050216377
73	0x3cec25e2	0.028826658
74	0xbce8c011	-0.028411897
75	0xbe1016ee	-0.14071247
76	0xbd4611bb	-0.048356753
77	0xbd57b968	-0.05266705
78	0xbea95466	-0.33072203
79	0x3ce8b49a	0.02840643
80	0x3d9318fa	0.07182498
81	0x3af75319	0.001886937
82	0x3da98799	0.08277816
83	0x3d2f7b00	0.04284191
84	0xbd11ad53	-0.035565685
85	0xbe4b51dc	-0.19855446
86	0xbca1caa2	-0.019749943
87	0x3c306d40	0.010768235
88	0xbc36716d	-0.011135441
89	0xbc0154f0	-0.007893786
90	0xbdae1e86	-0.08501916
91	0xbe7e4a9b	-0.24833147
92	0x3ca2870f	0.019839792
93	0xbe6cdaa1	-0.23130275
94	0x3edb6946	0.42853755
95	0x3d2cdef7	0.042204823
96	0xbc0140f0	-0.007889017
97	0xbc5be899	-0.013422155
98	0xbb674ccf	-0.0035293584
99	0xbc6d854e	-0.014497114
100	0x3d91fcfe	0.071283326
101	0x3b05ecc1	0.0020435306
102	0xbb10dd5a	-0.0022104592
103	0x3dc920c6	0.09820704
104	0x3e8bac2d	0.27279797
105	0x3d3c8629	0.046026383
106	0x3d19d57f	0.03755712
107	0x3c0a6266	0.008446312
108	0xbcca90c7	-0.024727238
109	0xbda13f1f	-0.078733675
110	0xbf31e654	-0.6949208
111	0x3e9be64e	0.30449146
112	0x3d85da8e	0.065358266
113	0xbd258196	-0.040406786
114	0x3cb50691	0.022097858
115	0xbabe7a99	-0.0014532387
116	0x3da9b81a	0.08287068
117	0xbe107346	-0.14106473
118	0x3c972967	0.01845236
119	0xbd1022af	-0.035189327
120	0xbd0b2497	-0.03397044
121	0x3ef5ead0	0.4803071
122	0xbd741210	-0.05958754
123	0x3d5fc925	0.054635186
124	0xbccaaa47	-0.024739398
125	0xbc99fada	-0.018796373
126	0xba4f3df8	-0.00079056574
127	0x3d816007	0.06317144
128	0xbcc809ac	-0.024418674
129	0x3d84c477	0.06482785
130	0xbd2eb176	-0.04264971
131	0x3dc1ac17	0.09456652
132	0x3d527105	0.051377315
133	0x3d807115	0.06271569
134	0x3ca57fc3	0.020202523
135	0xbcdeb526	-0.027185988
136	0xbd5c2e2d	-0.053754974
137	0x3c394c25	0.011309658
138	0x3c5d9c9a	0.013526106
139	0x3d821313	0.06351294
140	0x3d3927c9	0.045203958
141	0xbc3502fb	-0.011048074
142	0xbd946774	-0.072462946
143	0xbcf25f90	-0.029586583
144	0x3d0cd3f4	0.03438182
145	0x3d7f380b	0.062309306
146	0x3d177f40	0.03698659
147	0x3d27c410	0.040958464
148	0x3c32648f	0.010888233
149	0xbd80308b	-0.06259259
150	0x3c961848	0.018322125
151	0xbc35462a	-0.011064092
152	0x3cd0ac9f	0.025472937
153	0x3c386077	0.011253468
154	0xbe1f1b23	-0.15537696
155	0x3d96ef73	0.0736989
156	0x3c18519c	0.009296801
157	0x3dde02b2	0.10840358
158	0xbd662374	-0.056186154
159	0x3cb6879e	0.022281464
160	0xbb66d298	-0.0035220739
161	0x3bd31b30	0.00644245
162	0x3d1425e2	0.03616894
163	0x3b6356ae	0.0034689116
164	0x3cc18493	0.023622787
165	0x3b7616eb	0.0037550281
166	0x3d846aa1	0.0646565
167	0xbd2dadf5	-0.042402226
168	0xbb0eb0cc	-0.002177286
169	0xbd369259	-0.04457316
170	0xbb5fd74f	-0.0034155434
171	0x3bed2fb8	0.0072383545
172	0x3cd3ff5f	0.025878606
173	0x3c4916db	0.012273516
174	0xbdd0d296	-0.10196416
175	0x3c813bf4	0.015775658
176	0xbd4e8775	-0.05042215
177	0xbd4d3167	-0.050095942
178	0x3d060a7f	0.032724854
179	0x3c85a59c	0.01631432
180	0xbd306b46	-0.043071054
181	0xbd8d606f	-0.06903159
182	0xbcdde8a3	-0.027088469
183	0x3b0360e7	0.0020046772
184	0x3d37ff4e	0.044921212
185	0x3db3f1c6	0.08786349
186	0xbd37c364	-0.044864073
187	0xbd0c8b06	-0.03431227
188	0x3d56bc91	0.052425925
189	0x3d17857e	0.036992542
190	0x3cc67d73	0.02422974
191	0x3dc522a6	0.09625749
192	0xbe2d2b1f	-0.1691098
193	0xbdb56908	-0.08857924
194	0x3d332b0d	0.04374223
195	0x3b68a2f4	0.0035497518
196	0xbb99db7a	-0.004695353
197	0x3d6589a2	0.05603946
198	0x3cb007ac	0.021488033
199	0x3d7148a5	0.05890717
200	0xbd06e13f	-0.032929655
201	0xbc7d4000	-0.015457153
202	0xbc38912f	-0.011265083
203	0x3cee9a71	0.029126378
204	0x3bc7ee0e	0.0061013764
205	0x3d16a3e1	0.03677738
206	0xbc1e2f66	-0.009654855
207	0xbc6ab4c0	-0.014325321
208	0x3cca71d9	0.02471249
209	0x3c4756cc	0.01216669
210	0xbca4badd	-0.020108635
211	0xbce60bbd	-0.02808177
212	0xbbc25b1c	-0.0059312712
213	0xbc9d35f0	-0.019190758
214	0x3da08530	0.078379035
215	0xbd11f79f	-0.03563654
216	0x3befa9de	0.007313951
217	0xbd733a12	-0.059381552
218	0x3bfedb66	0.007777619
219	0x3b8c8b0e	0.0042890375
220	0x3bb7bbee	0.0056071198
221	0xbc8bd7de	-0.017070707
222	0x3b9fc097	0.0048752534
223	0xbd4ff470	-0.050770223
224	0xbca9c402	-0.020723347
225	0x3c53ed3d	0.01293498
226	0x3c6113bf	0.013737618
227	0xbc979f82	-0.018508676
228	0x3d590840	0.052986383
229	0xbb7c9a2c	-0.0038544042
230	0xba9cc908	-0.0011961767
231	0x3d0a84e6	0.033818148
232	0xbcdd54c3	-0.027017957
233	0xbcf0125c	-0.02930563
234	0xbd9e8aea	-0.077413395
235	0xbe10489e	-0.14090201
236	0xbcbf6adb	-0.023366382
237	0x3c8190b8	0.015816078
238	0x3cd99d40	0.02656424
239	0xbd9dc25c	-0.07703087
240	0xbd6435c5	-0.05571534
241	0xbd7a32e9	-0.061083708
242	0xbc05ea91	-0.008173601
243	0xbd4f483b	-0.050605994
244	0x3c8983b7	0.01678644
245	0x3d427e91	0.047483984
246	0xbc3b3210	-0.01142551
247	0xbc064453	-0.008195001
248	0xbd1d2634	-0.03836651
249	0x3c54fd20	0.012999803
250	0xbd0cc24c	-0.034364983
251	0xbcd4c78d	-0.02597406
252	0x3d98d0a4	0.0746167
253	0x3d134258	0.035951942
254	0xbb4c3d07	-0.0031164305
255	0x3d2bad03	0.041913044

encoder.layers.0.self_attn.in_proj_bias f4 [192]
0	0xbf3dbd7f	-0.74117273
1	0x3caf334e	0.021386769
2	0xbcaedd99	-0.0213459
3	0x3bad5b0d	0.005290395
4	0x39b32f7b	0.00034176916
5	0xbb51b8ca	-0.0032001012
6	0xbca8863b	-0.020571819
7	0x3af7c2c6	0.0018902651
8	0x3caeda26	0.021344256
9	0x3f2db1de	0.6784953
10	0x3c9c8f98	0.01911144
11	0x3f5c0703	0.859482
12	0xbbbd5ef9	-0.005779144
13	0x3e231ae5	0.15928228
14	0xbdccf641	-0.10007907
15	0x3cf1d0b9	0.029518472
16	0xc04d5834	-3.2085085
17	0x3ae1d848	0.0017230595
18	0xbd795fb6	-0.060882293
19	0xbb6cd751	-0.003613908
20	0xbd7359c1	-0.059411768
21	0xbd1f18c5	-0.03884198
22	0x3ceab287	0.028649582
23	0xbca750f5	-0.020424346
24	0xbbf4f8df	-0.007475957
25	0x3d2a8d38	0.041638583
26	0x3cb4c9bb	0.022068849
27	0x3d977749	0.07395799
28	0xbd0f05a7	-0.0349175
29	0xbb4511a7	-0.0030070336
30	0xbd43e3c3	-0.047824632
31	0x3d4f2a46	0.050577424
32	0xbd0d29ad	-0.034463573
33	0x3acf0e2f	0.0015797074
34	0xbdd64686	-0.1046267
35	0x3d011194	0.031510904
36	0xc01b91d6	-2.4307761
37	0x3da2b04b	0.079437815
38	0xbe094530	-0.13405299
39	0xbcd56900	-0.026051044
40	0x3d772a83	0.060343277
41	0x3d2b7294	0.041857317
42	0xbc793f55	-0.015212853
43	0x3cc5dbf5	0.024152735
44	0xbc5b8462	-0.013398262
45	0xbdf0bb47	-0.1175447
46	0xbda22506	-0.07917218
47	0xbd046120	-0.032319188
48	0xbd5df880	-0.054192066
49	0x3d01ab01	0.031657223
50	0x3c97c2f5	0.01852558
51	0x3c1e9cb8	0.009680919
52	0x3d027721	0.03185189
53	0x3d2b4b7b	0.04182003
54	0x3e49170e	0.19637701
55	0xbc207ca0	-0.009795338
56	0x3c5be14a	0.013420412
57	0xbcc3ba07	-0.023892416
58	0x3b561793	0.003266786
59	0xbc9d2a59	-0.019185232
60	0xbc35fc01	-0.011107446
61	0xbb9257a9	-0.0044660163
62	0xc0500dbf	-3.250839
63	0x3d44afd8	0.04801926
64	0xbb873457	-0.0041261124
65	0x3bdde28f	0.0067713927
66	0xbb060807	-0.0020451562
67	0x398b75c1	0.0002659988
68	0xb9828049	-0.00024891112
69	0xba0377cb	-0.0005015104
70	0x3b89ba70	0.0042031333
71	0x3a896712	0.0010482988
72	0xb9f8e54e	-0.0004747309
73	0xbba9a33f	-0.005176931
74	0xbbd16290	-0.0063899234
75	0xbc896641	-0.016772391
76	0x3a884c8c	0.0010398789
77	0x3c2dd123	0.010608944
78	0xbb37625b	-0.0027982208
79	0x3b9e958f	0.004839606
80	0x3cc0495a	0.023472477
81	0x3a6c425a	0.00090125727
82	0x3ad1aa62	0.0015996213
83	0xba8db181	-0.0010810347
84	0xb937eb8f	-0.00017539992
85	0xbb2ead9d	-0.0026653775
86	0xba020e1e	-0.000496121
87	0x3b0632f1	0.002047714
88	0x360a5e71	2.0618575e-06
89	0xb9db13d4	-0.00041785708
90	0x3a680fce	0.0008852453
91	0x3b2aa607	0.0026038901
92	0xba392e1f	-0.00070640625
93	0xba222b0a	-0.0006186223
94	0xba8263f5	-0.0009948002
95	0x398fd54c	0.00027434004
96	0xb98200a7	-0.00024796018
97	0x3bb01fec	0.005374899
98	0x3b16a6d9	0.0022987633
99	0xb9a38bf9	-0.0003119407
100	0xbd10afee	-0.03532403
101	0xbba00e1e	-0.0048844954
102	0x3ba61fb8	0.005069699
103	0x38b75c43	8.743305e-05
104	0xbbc34348	-0.0059589483
105	0xbbaba311	-0.005237945
106	0xbad8a0cf	-0.0016527417
107	0x3a588c4a	0.0008260651
108	0xbb223de7	-0.0024756135
109	0x3a9f5b83	0.001215801
110	0xba26021a	-0.00063327106
111	0x3a6cc085	0.0009031373
112	0x3a35a0c3	0.00069285574
113	0x3a97d528	0.0011583911
114	0xbb0744f9	-0.0020640476
115	0x3acb8a9c	0.001552898
116	0xbb56cb45	-0.0032774967
117	0xbb4c6cc7	-0.0031192766
118	0xbc24f9bf	-0.01006931
119	0x3a00d5db	0.00049146794
120	0x3b81cedb	0.0039614267
121	0x3ac776bc	0.0015217881
122	0xbabc20f8	-0.0014353087
123	0xbaf1a1c2	-0.0018435048
124	0x3b0f7bdd	0.0021893897
125	0x3b30474e	0.002689797
126	0xbcf56d34	-0.029959299
127	0xbb01af58	-0.001978835
128	0xb99d6ce6	-0.0003002651
129	0x3d7bdb97	0.061488714
130	0x3ad7542e	0.0016428286
131	0xbc4b3c43	-0.012404504
132	0xbc9a640c	-0.018846534
133	0x3da92f37	0.08260959
134	0x3c03536d	0.008015496
135	0x3cf5f3d7	0.030023498
136	0x3aa19b86	0.0012329675
137	0xbc56ec0c	-0.013117801
138	0xbc45ee8e	-0.012080802
139	0xbc41acff	-0.011821031
140	0x3b4eef00	0.003157556
141	0xbb5b5eb2	-0.003347319
142	0x3c4a3eed	0.012344104
143	0x39805649	0.0002447835
144	0xbc9b6f37	-0.01897393
145	0x3b8d0c7b	0.0043044663
146	0x3ca1f395	0.01976947
147	0x3bef38e2	0.007300482
148	0x3ba0ddbd	0.0049092458
149	0x3cecf76c	0.028926574
150	0xbd920813	-0.07130446
151	0x3c8968e3	0.016773647
152	0x3b692fb9	0.0035581423
153	0x3bc8aa43	0.0061238124
154	0xbbe3e1b1	-0.0069543947
155	0x3f317283	0.69315356
156	0xbb2095bb	-0.0024503309
157	0xbcb4eb9f	-0.02208501
158	0x3bfc5511	0.0077005704
159	0xbbfdf0d2	-0.0077496553
160	0xbab18dca	-0.0013546285
161	0xbb645ead	-0.003484647
162	0x3b897922	0.0041953484
163	0xba6096cd	-0.0008567393
164	0x3b2485c4	0.0025104145
165	0xbbba9d61	-0.0056950306
166	0xbb96ded2	-0.004604199
167	0x3db34b4d	0.08754597
168	0x3e35574f	0.17709087
169	0x3b83da2b	0.0040238104
170	0x3b5192e1	0.0031978416
171	0xbcbb831c	-0.022889666
172	0xbc80fbb4	-0.015745021
173	0x3be508e4	0.0069895852
174	0xbcc6d60c	-0.024271987
175	0x3e025c8a	0.12730613
176	0x3c9812dc	0.01856368
177	0xbbb2fc97	-0.00546224
178	0x3da43338	0.08017582
179	0x3a63079c	0.00086604967
180	0x3b14ab15	0.002268498
181	0xbb2dde14	-0.0026530074
182	0x3a339594	0.0006850597
183	0xbcbaaf7e	-0.02278876
184	0x3b825126	0.003976959
185	0xb904d8f6	-0.00012669325
186	0x3c169557	0.009190879
187	0xbb51cc88	-0.003201278
188	0xbf01bb71	-0.5067664
189	0x3e6a8940	0.22903919
190	0x3b671441	0.0035259875
191	0xbef5fe05	-0.48045364

encoder.layers.0.self_attn.out_proj.weight f4 [64, 64]
0	0xbceb40a1	-0.02871734
1	0x3f1b9576	0.60774934
2	0xbdc040e1	-0.09387375
3	0xbf024189	-0.5088125
4	0x3e110512	0.1416209
5	0x3ee14e18	0.44004893
6	0x3bb52747	0.005528364
7	0xbb40c03c	-0.0029411456
8	0x3b4172fb	0.0029517997
9	0x3bcea94c	0.006306803
10	0xbca54bb1	-0.020177694
11	0xbd14511c	-0.036210164
12	0xbf3a25cf	-0.7271394
13	0xbd3501c9	-0.044191156
14	0xbcc82639	-0.024432288
15	0xbd349c6e	-0.044094495
16	0xbc8b1fde	-0.016982969
17	0xbced77ef	-0.028987853
18	0x3f1dd045	0.6164592
19	0x3cafbd2d	0.02145251
20	0x3dcff136	0.10153429
21	0xbe015e91	-0.1263373
22	0xbf1ad186	-0.6047596
23	0x3cf121dc	0.02943509
24	0x3b2090ab	0.0024500291
25	0x3c94b0e6	0.018150758
26	0xbe0e2947	-0.13882934
27	0xbe861e01	-0.26194766
28	0x3d196f3a	0.03745959
29	0x3d325773	0.04354043
30	0xbdcc8260	-0.099858046
31	0xbd830421	-0.06397272
32	0xbd343666	-0.04399719
33	0xbca0164b	-0.01954188
34	0x3d9d72ea	0.07687934
35	0xbd28a7f2	-0.04117579
36	0x3cbe337d	0.02321791
37	0x3dc9ffda	0.09863253
38	0xbdafe3b0	-0.0858835
39	0xbf84edd9	-1.0385085
40	0x3e3ff341	0.18745138
41	0xbbc6163a	-0.00604513
42	0x3ce4d6a9	0.02793439
43	0xbf3a29f4	-0.72720265
44	0xbe4129e8	-0.18863642
45	0x3d54d287	0.051958587
46	0xbf12895b	-0.5724084
47	0xbede4cc0	-0.4341793
48	0x3da736a5	0.081647195
49	0xbd1f222e	-0.038850956
50	0x3cf7e6f5	0.030261496
51	0xbd3fe271	-0.04684681
52	0xbd243ed9	-0.040099
53	0xbd3d4a34	-0.046213344
54	0xbd848916	-0.064714596
55	0xbf2e3805	-0.6805423
56	0xbd415c1e	-0.04720699
57	0x3d6d7159	0.057969425
58	0xbc02d4b6	-0.007985285
59	0x3c01bf5e	0.007919161
60	0x3f424e74	0.7590096
61	0xbfb02ef9	-1.3764335
62	0xbc51cd77	-0.012805334
63	0xbebe8bc1	-0.37216
64	0x3d110572	0.035405584
65	0x3f27ba93	0.65519065
66	0x3c0c915a	0.008579576
67	0xbd3c37a1	-0.04595149
68	0xbf5fdd0c	-0.87446666
69	0x3e51659b	0.20448916
70	0xbc171bd5	-0.009222944
71	0x3e4deb7b	0.2010936
72	0xbc97b9bb	-0.01852118
73	0xbb9d4c26	-0.0048003374
74	0x3d0ba4e8	0.034092814
75	0x3d2857c3	0.04109932
76	0xbf047907	-0.51747173
77	0x3bd6ec14	0.0065589044
78	0x3c7d4397	0.015458009
79	0xbc89dee0	-0.016829908
80	0xbd73abf2	-0.05949015
81	0xbb94b105	-0.004537704
82	0xbe8ab4ae	-0.27090973
83	0xbd06e451	-0.032932583
84	0x3d04d31a	0.032427885
85	0x3f3067f0	0.68908596
86	0xbf84437d	-1.0333096
87	0x3d4bb776	0.04973551
88	0xbd6ca437	-0.057773795
89	0x3cc0cf72	0.023536418
90	0x3cb5d19f	0.022194682
91	0xbea5cc01	-0.32382205
92	0xbc898fc5	-0.016792187
93	0x3d13000e	0.035888724
94	0x3a9bd7fe	0.0011889932
95	0x3cc96e2c	0.024588667
96	0xbca38c8f	-0.019964484
97	0x3b14808f	0.0022659635
98	0xbb8324ed	-0.0040022046
99	0x3cda28df	0.026630817
100	0xbbbea567	-0.0058180573
101	0xbca5b6ef	-0.020228831
102	0x3b9da44c	0.0048108455
103	0x3f4745fd	0.7784117
104	0xbe37e371	-0.17957856
105	0xbc3d4046	-0.0115509685
106	0x3d4f54c7	0.05061796
107	0x3eb8a9a4	0.36066926
108	0x3f436ec7	0.7634091
109	0x3cbc86d4	0.02301351
110	0xbea39323	-0.31948194
111	0x3eb944dd	0.3618535
112	0x3f0e1010	0.5549326
113	0x3bbac4b3	0.005699718
114	0x3f688a06	0.9083561
115	0x3d81f2ba	0.063451245
116	0x3cf8e113	0.030380761
117	0xbc39c760	-0.011339039
118	0xbd66f9f4	-0.056390718
119	0x3d218e6d	0.03944247
120	0x3c88c8f3	0.016697383
121	0xbcb2beeb	-0.021819552
122	0x3d45be81	0.04827738
123	0xbbdc8b1f	-0.0067304517
124	0xbf54ce57	-0.8312735
125	0xbf8b70d5	-1.0893809
126	0xbbaca413	-0.0052685826
127	0x3f073e8c	0.52829814
128	0xbd0aaca1	-0.033856038
129	0x3ec4a2b4	0.38405383
130	0xbb7c141f	-0.0038464142
131	0x3eb46ab4	0.35237658
132	0x3e8776c7	0.26457807
133	0xbeaf9659	-0.34294394
134	0x3c49eaf3	0.012324083
135	0x3d19a82b	0.037513893
136	0x3c42439e	0.0118569415
137	0xbca6186c	-0.020275317
138	0xbca740d5	-0.020416657
139	0xbb8df176	-0.004331763
140	0x3ee1f296	0.4413039
141	0x3b245bbd	0.0025079094
142	0x3c5680be	0.013092218
143	0x3b5a7e2d	0.0033339367
144	0xbd04c196	-0.03241118
145	0x3b8b5fe8	0.0042533763
146	0xbd08b1b0	-0.03337258
147	0xbc76aceb	-0.015055875
148	0x3c2aa61f	0.010415583
149	0x3d89c1d0	0.0672642
150	0xbdb1cf3b	-0.08682104
151	0xbbfd3ce5	-0.0077282065
152	0x3c950951	0.018192919
153	0x3d0a4c49	0.033764157
154	0xbbc6fd92	-0.0060727084
155	0x3e1f99a7	0.15585957
156	0xbb75fefe	-0.003753602
157	0x3c8fc01f	0.017547665
158	0xbb502aea	-0.003176386
159	0xbb70327a	-0.003665118
160	0x3b01ef10	0.001982633
161	0x3caa219e	0.020767983
162	0xbc1b38fa	-0.0094740335
163	0x3ab598e6	0.0013854771
164	0x3c753720	0.014966756
165	0xbc20195f	-0.009771674
166	0x3c2489a4	0.010042582
167	0x3e277395	0.16352685
168	0x3f12d1c8	0.5735135
169	0x3bc28e01	0.0059373383
170	0xbc921387	-0.017831577
171	0x3e57c8d1	0.21072699
172	0x3dd03a05	0.10167316
173	0xba060798	-0.0005112826
174	0xbd8bc055	-0.06823794
175	0x3e411b2e	0.18858024
176	0xbd69525b	-0.056963306
177	0xbd504de2	-0.050855525
178	0x3e3cef4e	0.18450662
179	0x3b9381ee	0.004501573
180	0x3c935348	0.017984048
181	0x398effa8	0.0002727483
182	0xbcc4112f	-0.023933975
183	0x3d27a005	0.04092409
184	0x3c540701	0.012941123
185	0x39f2f147	0.00046337603
186	0x3c1943e3	0.009354564
187	0x3c62bc20	0.013838798
188	0x3f1534a4	0.5828345
189	0xbe919479	-0.28433588
190	0x392405ce	0.00015642421
191	0xbe561669	-0.20906986
192	0x3a4f1d99	0.0007900834
193	0xbf2844ed	-0.6573017
194	0xbce45cca	-0.027876277
195	0x3dd1c43d	0.102425076
196	0xbcee9e0a	-0.029128093
197	0xbeb80aac	-0.35945642
198	0xbbf938e9	-0.007605661
199	0xbeb453ba	-0.35220128
200	0xbcaa7006	-0.02080537
201	0x3cafc1d0	0.021454722
202	0x3c52636a	0.012841085
203	0xba8aa540	-0.0010577813
204	0xbe6f848e	-0.2339041
205	0xbb5184db	-0.0031970057
206	0xbb6c086f	-0.003601577
207	0x39900ed9	0.00027476883
208	0xbce049fe	-0.027379032
209	0x3d6c2ed5	0.05766185
210	0x3dd3afbb	0.10336252
211	0x3c9d5695	0.019206325
212	0x3c94a2e2	0.018144075
213	0x3ec9ca60	0.39412212
214	0xbe090ae9	-0.13383068
215	0xbc94c722	-0.01816136
216	0xbc4116af	-0.011785193
217	0xbcdc16a9	-0.026866274
218	0x3a511d50	0.0007977085
219	0xbe18496d	-0.1487176
220	0xbc3e0d63	-0.011599871
221	0x3d198a52	0.03748543
222	0x3c209357	0.009800754
223	0x3b6f1aea	0.0036484548
224	0x3c3e75bd	0.011624751
225	0x3c1bf648	0.009519167
226	0x3b806720	0.0039185435
227	0x3c9a5fcf	0.018844513
228	0xbc69278c	-0.01423062
229	0xbc82633e	-0.015916463
230	0x3c089e73	0.0083385585
231	0xbe1544ed	-0.14577074
232	0x3db42c1c	0.08797476
233	0x3b97fc36	0.00463822
234	0xbc0d1b0b	-0.008612405
235	0xbe9e1f35	-0.30883184
236	0x3e69ed05	0.22844322
237	0xbb2cfe4d	-0.0026396692
238	0xbd235ccc	-0.03988342
239	0xbf3acecc	-0.72971797
240	0x3e3883b5	0.18018992
241	0xbd111fab	-0.03543059
242	0xbdc1cb17	-0.094625644
243	0x39f27e03	0.00046251723
244	0x3c8a4366	0.016877841
245	0xbc91525c	-0.017739467
246	0xbd20fa1a	-0.039301015
247	0xbe396aaf	-0.18107103
248	0x3bc8ed0f	0.006131775
249	0xbc0242b0	-0.00795047
250	0x3cf56d4f	0.029959349
251	0xbcb97a1b	-0.022641232
252	0x3d62e0ab	0.05539004
253	0x3f0569b3	0.5211441
254	0xbceb12a6	-0.028695416
255	0x3e9fe8df	0.31232354

encoder.layers.0.self_attn.out_proj.bias f4 [64]
0	0xc030454d	-2.7542298
1	0xbeb6fad1	-0.35738233
2	0xbe80f42c	-0.25186288
3	0x3e991616	0.29899663
4	0xbdadd5f5	-0.08488075
5	0x40230548	2.5471973
6	0xbe6002f0	-0.2187612
7	0x3d8d6ed8	0.069059074
8	0xc00db4ed	-2.2141678
9	0x3ec56b4c	0.38558424
10	0xbda02b56	-0.07820766
11	0xbe1dc66a	-0.1540772
12	0x4027bd0c	2.6209135
13	0x3faf0af4	1.3675218
14	0x3e0b1a75	0.13584311
15	0xc026bc0b	-2.6052272
16	0xbd2665dc	-0.040624484
17	0xbe83d482	-0.25748068
18	0xbf203aef	-0.62589926
19	0xbdf35bd8	-0.11882752
20	0xbf02c931	-0.51088244
21	0xbedfb69f	-0.43694016
22	0x3fbd1501	1.4772035
23	0x3ea0940a	0.31362945
24	0xbf19ef29	-0.60130554
25	0xbede68e7	-0.4343941
26	0x3e908534	0.28226626
27	0xbde94c1f	-0.11391472
28	0xbe877baa	-0.26461536
29	0xbeb5ee92	-0.35533577
30	0xbeed865c	-0.4639157
31	0xbfa9d6d7	-1.3268689
32	0x3de4727e	0.1115465
33	0x3f3340be	0.70020664
34	0xbe8626b6	-0.2620141
35	0xbf82e5ef	-1.022642
36	0xbdd87296	-0.105687305
37	0xbed7d4e0	-0.42154598
38	0x3f59ca2e	0.85074127
39	0x3d5805be	0.05273985
40	0xbe7660d6	-0.24060377
41	0x3e01a89d	0.12661977
42	0xc054f3c7	-3.327379
43	0xbd32bcd1	-0.0436371
44	0x3ec14a38	0.37751937
45	0xbe9eb8bb	-0.31000313
46	0x3f84ef6c	1.0385566
47	0x3f744f94	0.95433927
48	0x3d30e348	0.043185502
49	0xbf970555	-1.1798502
50	0xbe30451f	-0.17213868
51	0xc01de8c2	-2.4673314
52	0x3f2bf0a8	0.6716409
53	0x3bd6bbd7	0.006553154
54	0xbeb8ed25	-0.36118427
55	0xc006973a	-2.1029801
56	0xbeaf387e	-0.34222788
57	0x3f052ca4	0.5202124
58	0x3dc7327e	0.097264275
59	0x3ee15bac	0.44015253
60	0x4098d17a	4.775571
61	0x3f34234f	0.70366377
62	0xbdd176a3	-0.10227706
63	0x3f14f5b1	0.58187395

encoder.layers.0.ff.0.weight f4 [128, 64]
0	0xbfc56c7a	-1.542373
1	0xbdc18c97	-0.094506435
2	0x3f13697a	0.5758282
3	0xbf8049fb	-1.0022577
4	0xbc95c84b	-0.018283984
5	0x3ffd1d71	1.977461
6	0x3f5164ac	0.8179424
7	0x3ffd82b7	1.9805516
8	0x3f98701c	1.1909213
9	0xbe06a361	-0.13148262
10	0xbd893c3a	-0.067009404
11	0x3dc29bce	0.09502374
12	0xbfcc7654	-1.5973611
13	0x3fc3da53	1.5301002
14	0xbecb8157	-0.39747116
15	0x3f8f5e74	1.12007
16	0xbf96b6b2	-1.1774504
17	0xbbd81ab1	-0.0065949787
18	0xbe2a8a93	-0.16654424
19	0xbf79aaa7	-0.9752602
20	0x3d488be3	0.04896153
21	0x3f12ff97	0.5742125
22	0x3ffab81f	1.9587439
23	0x3fa23e57	1.2675275
24	0x3d8d8783	0.069106124
25	0xbfbb7f20	-1.464817
26	0x3fa55e2c	1.2919364
27	0xbefb1cd7	-0.4904544
28	0xbd43609e	-0.047699563
29	0x3f9d15e5	1.2272307
30	0x3e9c5f43	0.3054143
31	0xbeafb463	-0.34317312
32	0xbc044472	-0.008072959
33	0x3e498b86	0.1968213
34	0x3e1913bd	0.14948936
35	0xbd72e810	-0.059303343
36	0x3eb65d1e	0.35617918
37	0xbd031b15	-0.03200825
38	0x3ec3b482	0.38223654
39	0xbf3d875d	-0.7403467
40	0x3f0bd5d8	0.54623175
41	0xbf479cb3	-0.7797348
42	0xbf95bb93	-1.1697868
43	0xbf2174ad	-0.6306866
44	0xbf7ddc39	-0.9916416
45	0x3e6c6814	0.23086578
46	0x3e76f97b	0.24118607
47	0xbe300aef	-0.17191671
48	0xbe98ca67	-0.2984192
49	0x3f9fd997	1.2488278
50	0x3cd0ed84	0.025503881
51	0xbe6781c7	-0.226081
52	0x3f2e8ab7	0.6818041
53	0xbe81f40c	-0.25381505
54	0xbece7b8b	-0.4032863
55	0x3dd17826	0.102279946
56	0xbf81ee77	-1.0150899
57	0xbf90d5ac	-1.1315207
58	0x3e402c10	0.18766809
59	0x3f9155b8	1.1354284
60	0x3ff0dd94	1.881762
61	0xbef0564f	-0.46940848
62	0x3d813905	0.06309704
63	0x3ea1dad7	0.31612274
64	0x3f7affe0	0.98046684
65	0x3d046b81	0.032329086
66	0x3f4a4820	0.79016304
67	0xbf840cde	-1.0316427
68	0xbefad5b0	-0.48991156
69	0xbf28ccbd	-0.65937406
70	0xbe88590d	-0.2663044
71	0x3e7dfa86	0.24802598
72	0x403697ad	2.8530076
73	0xbdf6482e	-0.12025486
74	0xbd080e1e	-0.03321659
75	0x3e9e3737	0.309015
76	0xc05910f6	-3.3916602
77	0xbf22fef6	-0.6367029
78	0xbf20b2ab	-0.62772626
79	0x4016eae1	2.3580859
80	0x3f864eae	1.0492761
81	0xbd825ba6	-0.06365137
82	0x3f62e717	0.88633865
83	0xbee4fd86	-0.44724673
84	0xbda2035f	-0.07910799
85	0x3f6f1c51	0.9340258
86	0x3ec9fa54	0.39448798
87	0x3f23d2a4	0.6399329
88	0x3d1fd67f	0.03902292
89	0x3ebe1163	0.3712264
90	0xbf0b950b	-0.54524297
91	0xbdd4bc7d	-0.10387514
92	0x3ff04cba	1.8773415
93	0x3ffcd022	1.9751017
94	0x3f36d1ab	0.7141368
95	0x3e128147	0.14307128
96	0x3ea8794d	0.32905045
97	0xbda67600	-0.081279755
98	0x3de7c352	0.11316551
99	0xbe9fd05a	-0.31213647
100	0xbe84da88	-0.25947976
101	0x3d4e3f13	0.05035312
102	0xbf7b78af	-0.98231024
103	0xbed673cd	-0.41885224
104	0x3fb3cf93	1.4047722
105	0xbd0a5bb3	-0.033778857
106	0x3f099b07	0.5375218
107	0xbf9cc666	-1.2248046
108	0xbdade628	-0.084911644
109	0x3f728dab	0.9474742
110	0x3d303ac4	0.043024793
111	0xbf612b41	-0.87956625
112	0xbf304387	-0.6885304
113	0x3faf9816	1.3718288
114	0x3c0136cc	0.0078866
115	0xbd419827	-0.047264244
116	0x3e1958e0	0.1497531
117	0x3e989045	0.2979757
118	0xbec2ecf2	-0.380714
119	0x3e03a5be	0.12856194
120	0xbfee4cde	-1.8617208
121	0x3db2be4f	0.08727705
122	0xbe5573cd	-0.20844956
123	0xbed6eb71	-0.41976503
124	0xbf1368ce	-0.57581794
125	0xbf92b175	-1.1460406
126	0x3d3479c1	0.044061426
127	0xbef66c39	-0.48129442
128	0x3ef13883	0.47113428
129	0x3ef6ff9a	0.48241884
130	0x3f9fd522	1.2486918
131	0x3e005459	0.12532176
132	0xbfea7a24	-1.8318524
133	0xbef8d042	-0.48596388
134	0x3e376677	0.17910181
135	0x3edfe034	0.4372574
136	0xbdb4e902	-0.08833505
137	0xbb64eca0	-0.0034931079
138	0x3df88e0f	0.121364705
139	0x3e35bd0e	0.177479
140	0x3f0dc8c3	0.55384463
141	0x3e686f1d	0.22698636
142	0x3fc8a1e8	1.567441
143	0x3fbfa8d1	1.4973394
144	0xbefeae9e	-0.49742597
145	0x3d954610	0.07288754
146	0x3e656eaf	0.22405504
147	0x3e0cdaba	0.13755313
148	0x3c4ae14f	0.012382819
149	0xbf4493d5	-0.76788074
150	0x3d14d384	0.03633453
151	0xbf609ba8	-0.8773751
152	0xbd8bd1b7	-0.06827109
153	0x3e7d7735	0.24752505
154	0xbeb45213	-0.35218868
155	0xc0423e65	-3.0350583
156	0xbe2fa6bc	-0.17153448
157	0x3e4f0b32	0.20219114
158	0x404d6dd1	3.2098277
159	0x3d06fd1c	0.032956228
160	0x3f4aef5d	0.7927149
161	0xbb58f42e	-0.0033104527
162	0x3bbcd423	0.0057625934
163	0x3f10ba47	0.56534237
164	0x3fc3043c	1.5235667
165	0xbdd5dffc	-0.10443112
166	0xbd3baef0	-0.04582113
167	0xc042f738	-3.046339
168	0x3ea6803d	0.32519713
169	0xbebda9df	-0.37043664
170	0x3e7fa9c3	0.24967103
171	0x3e1d5a66	0.15366516
172	0xbf244e7e	-0.6418227
173	0x3f906e75	1.1283709
174	0xbf81aeef	-1.013151
175	0xbf7803f9	-0.9688106
176	0xbed30691	-0.41215947
177	0x3f251d3c	0.64497733
178	0x3d579761	0.0526346
179	0xbc060751	-0.008180455
180	0xc0154732	-2.3324704
181	0x3fa5850f	1.2931231
182	0x3e27a71f	0.16372345
183	0xbdb44663	-0.08802488
184	0x3ee63124	0.44959366
185	0xbf6ef0fb	-0.93336457
186	0x4014006e	2.3125262
187	0xbf523692	-0.8211452
188	0xbe142575	-0.14467414
189	0x3f1c5f23	0.6108267
190	0xbd619809	-0.055076633
191	0xbdc0befc	-0.094114274
192	0xc01dac81	-2.4636538
193	0x3f36b145	0.7136424
194	0x3fd9ed3c	1.7025523
195	0xbff499d0	-1.910944
196	0xbcb2dc4b	-0.02183356
197	0xbe90d322	-0.28286082
198	0x3f8aa464	1.0831418
199	0x3c910e2f	0.017706959
200	0x3f862ab3	1.0481781
201	0xbd428398	-0.04748878
202	0xbd9198d6	-0.07109229
203	0x3d9919e8	0.07475644
204	0xbf93f33c	-1.1558604
205	0x3f0a9c40	0.5414467
206	0x3f8e8567	1.1134461
207	0xbe82a083	-0.25513086
208	0x3fea5b22	1.8309062
209	0xbc2c480c	-0.010515224
210	0xbf2c2a53	-0.6725208
211	0x3f50938f	0.81475157
212	0xbdea58bf	-0.11442708
213	0x3fc245a3	1.5177501
214	0x3dd94938	0.106096685
215	0x3f381525	0.71907264
216	0xbd424fad	-0.047439266
217	0x3e939b8a	0.28829604
218	0xbf0a6677	-0.540626
219	0x3fb13b3b	1.3846201
220	0x3ecbc4d4	0.39798605
221	0x3d5e7c06	0.054317497
222	0xbedb28e0	-0.42804623
223	0xbda477b1	-0.08030642
224	0xbd4bc095	-0.049744207
225	0x3c6680cf	0.014068796
226	0x3c31ad2a	0.010844508
227	0xbf22662c	-0.6343715
228	0xbec38938	-0.38190627
229	0x3c0b5e1d	0.008506325
230	0x3e0ff691	0.14058901
231	0xbfaeea0e	-1.3665178
232	0xbeafe7d3	-0.34356555
233	0xbf90d013	-1.1313499
234	0x3caf4ef5	0.021399954
235	0x3ec31521	0.38102058
236	0xbf91a882	-1.137955
237	0x3f4ece3e	0.8078345
238	0xbfb000bb	-1.3750223
239	0x3bdd4e1e	0.006753697
240	0xbec990c7	-0.3936827
241	0xbf106232	-0.56399834
242	0xbd4d2f53	-0.05009396
243	0xbe4d6966	-0.20059738
244	0x3f72648b	0.94684666
245	0xbe78008c	-0.24218959
246	0xbef9d127	-0.48792383
247	0x3dbadf12	0.091245785
248	0x3f98fe58	1.195262
249	0x3e80d4e1	0.25162414
250	0x3e234a3e	0.1594629
251	0x3fb6f2fd	1.4292904
252	0x3e067fbc	0.13134664
253	0xbe4bb9fe	-0.19895169
254	0x3dc1eba1	0.09468771
255	0x3ed8d525	0.42350116

encoder.layers.0.ff.0.bias f4 [128]
0	0xc05531ff	-3.3311765
1	0xbfc15d4f	-1.51066
2	0xbe820293	-0.2539259
3	0xbfbbba10	-1.4666157
4	0xc05386d7	-3.305105
5	0x3f4e9d78	0.8070903
6	0xbe4df084	-0.2011128
7	0xbf78b853	-0.97156256
8	0xbff39b80	-1.903183
9	0xbf9f867e	-1.2462919
10	0xbf6c06df	-0.92197984
11	0xc0044cfa	-2.0671983
12	0xbf359bd2	-0.7094089
13	0xbfdddc60	-1.7332878
14	0x3fbfbcc8	1.4979486
15	0xbfb21fd2	-1.3915961
16	0x3e9d5f9c	0.30737007
17	0xbfe7bc3e	-1.8104322
18	0xbf9283db	-1.1446489
19	0x3c5a9098	0.013340138
20	0xbdcc23af	-0.099677436
21	0xc010fefd	-2.2655632
22	0xc011f4ad	-2.2805588
23	0xbfbc1462	-1.469372
24	0xbdd4a221	-0.10382486
25	0x3f7fdc58	0.9994559
26	0xbf60abb5	-0.87762004
27	0xbfd6e750	-1.6789341
28	0xbfdaa15b	-1.7080492
29	0xbec26581	-0.37968066
30	0xc0248c1b	-2.5710514
31	0xc08b9386	-4.361758
32	0xbf183129	-0.5945001
33	0xc02566a2	-2.5843892
34	0xbf6241d3	-0.8838169
35	0xc02ed1b3	-2.731549
36	0xc04e4121	-3.2227252
37	0xbe23f316	-0.16010699
38	0xbea27b2b	-0.31734595
39	0xbf466dbd	-0.775112
40	0xbfab9d1f	-1.3407325
41	0xbfaa6b8b	-1.331407
42	0xbf15329d	-0.58280355
43	0xbf1c727d	-0.61112195
44	0xbf1210df	-0.57056993
45	0xc0100d7e	-2.2508235
46	0xbf578533	-0.8418762
47	0xbfc2832a	-1.5196278
48	0xc017f324	-2.3742151
49	0xc016c478	-2.3557415
50	0xbf5cff89	-0.86327416
51	0xbfe12e5b	-1.7592272
52	0xbf7f711a	-0.99781954
53	0xbfe9b25f	-1.825756
54	0x3ecdcc1d	0.4019479
55	0xbe561c3a	-0.20909205
56	0xbf9cb0b3	-1.2241424
57	0xc0048710	-2.0707436
58	0xbffc3efe	-1.9706724
59	0x3eaa80c9	0.3330138
60	0x3f9b8136	1.2148807
61	0xbeba9670	-0.364429
62	0xbe6a67f1	-0.22891213
63	0xc058882d	-3.3833115
64	0xbfb29467	-1.3951539
65	0xbfe07608	-1.753602
66	0xbfde265a	-1.7355454
67	0xbfd0c13d	-1.6308972
68	0xbf1924e3	-0.5982191
69	0xbdc60a35	-0.096699156
70	0xbf32f8ef	-0.6991109
71	0xbf513311	-0.81718546
72	0xbeeb8c8a	-0.4600566
73	0x3e2ac668	0.16677248
74	0xc01b22d3	-2.4240005
75	0xbfe39655	-1.7780253
76	0xbfad2ccb	-1.3529295
77	0xc013986f	-2.3061788
78	0xbec9993c	-0.3937472
79	0xbe94e376	-0.2907979
80	0xbf6ae9df	-0.9176311
81	0xbf9ec429	-1.2403613
82	0xc026a427	-2.603769
83	0xbfbacc20	-1.4593544
84	0xbf3888d0	-0.7208376
85	0xbfcfb391	-1.6226674
86	0x3ea54bb3	0.32284316
87	0xbeced0c6	-0.40393656
88	0xbe3ca8ad	-0.1842372
89	0xbfc290ae	-1.5200403
90	0xbb9732cc	-0.0046142098
91	0xc032a7e3	-2.791497
92	0xbf42ab3b	-0.76042527
93	0xbe5e4c7f	-0.21708868
94	0xbd4bfbde	-0.049800746
95	0x3e7da979	0.2477168
96	0xc03a36ea	-2.9096017
97	0xbe808e69	-0.2510865
98	0xbfa88f91	-1.3168813
99	0xbd07a0b5	-0.033112247
100	0xbfe1d62f	-1.7643489
101	0x3e237123	0.15961127
102	0xbf637da6	-0.888636
103	0xbf842c27	-1.0325974
104	0xbe7a7a14	-0.24460632
105	0xbe96233b	-0.29323754
106	0xbd66c041	-0.05633569
107	0x3d06ca3b	0.032907706
108	0xbdc806e3	-0.097669385
109	0xbf04cc13	-0.5187389
110	0xbef3737d	-0.47549048
111	0xbfd2c066	-1.6464965
112	0xbfd23e11	-1.6425191
113	0xbe4a580b	-0.19760148
114	0xbfcd4c52	-1.6038916
115	0xbfaaf32c	-1.335546
116	0xbf812a4c	-1.0091033
117	0x3f40ac86	0.7526325
118	0xbfb48e67	-1.4105958
119	0x3e40777d	0.18795581
120	0xbf2a6623	-0.665621
121	0xbf98c561	-1.1935235
122	0xc056859d	-3.351905
123	0xbfa402ad	-1.2813317
124	0xbeeadbfa	-0.45870954
125	0xc01e1855	-2.470235
126	0xc0013951	-2.0191233
127	0xbfc6d627	-1.5534104
