checkpoints/epicon_comp/HUVEC/best_model.pt (torch, 578018 bytes, 54 tensors)

encoder.pos f4 [1, 15, 64]
-0.07259913 -0.51771176 -1.1481099 -0.76751566 0.60921603 -0.09521179 -0.3878114 -0.4414371
-0.3789357 -0.34746933 0.28041965 0.43739325 0.14183348 0.06508645 0.16221686 -0.048177328
-0.30121118 -0.21828619 0.64822763 0.23614083 -0.14992592 -0.5141259 0.09688162 -0.046118785
0.26632226 -0.04789428 0.16590153 0.13039106 -0.067482635 0.11035356 -0.644367 0.060600393
-0.89513266 0.041615292 -0.17682964 0.22498448 -1.4512392 -0.14375673 -0.14953254 0.40606037
0.31690958 -0.11958317 -0.19357719 -0.38415796 -0.14840417 -0.26062095 0.16652577 0.33061653
-0.25866035 0.069881365 -0.1545207 0.022819119 0.97753924 0.6168745 -0.18129328 -0.08369318
0.12438879 0.051513255 1.1460844 -0.08081269 0.3811204 -0.14292382 -0.1344267 -0.04577669
-0.085883275 -0.4484107 -0.4276359 -0.2046054 0.36939046 -0.06478015 0.05943104 -0.30012938
-0.599472 -0.35605326 0.29326898 0.51543623 -0.9450493 0.08649446 0.02480595 0.002572247
-0.28509593 -0.21615441 -1.616805 0.24270107 -0.1300924 -0.31099576 0.11189637 -0.013861587
0.28151825 -0.017747426 0.1764795 -0.22538869 -0.03664521 -0.8034829 -0.7426558 0.07093462
-1.3209769 0.036708046 -0.16691487 0.14542302 -0.16776815 -0.13766594 -0.1471627 1.0603523
0.28778243 0.021511478 -0.18691783 -0.3912784 0.27798995 0.34549803 0.30270728 0.3473478
-0.069539845 0.05618721 -0.12601101 0.04128843 -0.7239483 0.09971788 -0.2485536 -0.07570147
0.122574 0.51658756 1.1210693 -0.17124581 0.38423485 -0.15421002 -0.12661205 -0.018750634
-0.107468374 -0.51642555 -0.9957063 0.48173895 0.671538 -0.116941445 0.12970352 -0.3871906
-0.25066504 -0.33629572 0.2936341 0.70285416 -0.43199718 0.052677657 0.46058342 -0.026494704
-0.2890651 -0.21529168 -0.7570902 0.2554163 -0.13941665 -0.14257947 0.093836874 -0.0063073426
0.28406668 -0.03742447 0.17347871 -0.4637695 -0.0017848044 -0.5559013 0.808733 0.058475725
-0.88172007 0.046313412 -0.17275901 0.17051747 -0.08994457 -0.13508768 -0.14420286 0.047825404
-0.45171076 0.16752197 -0.20567909 -0.36290833 0.30997273 0.92541283 -0.07733906 -0.09424818
0.13518713 0.11053125 -0.13545746 0.021228438 1.1200047 1.5172769 -0.038932465 -0.09297763
0.12391142 0.2898718 0.025925804 0.15267207 0.41337323 -0.17800295 -0.12827829 -0.043503832
-0.121560656 -0.52040505 1.0538167 0.66351795 -0.9119575 -0.090143286 0.40363854 -0.42207077
-0.5521183 -0.31526482 0.27804908 0.55884266 0.5254575 0.08684131 0.25854707 -0.09632018
-0.27642483 -0.21142645 -0.6708787 0.24406473 -0.15962437 0.07505396 0.09327549 -0.02972853
0.2739978 -0.02500588 0.1766792 -1.6736656 -0.07795609 0.096517764 0.9280567 0.078885294
-1.3786799 0.049897917 -0.16442122 0.14796942 -0.14726304 -0.13482423 -0.13878855 0.2441978
0.23038061 -0.2430997 -0.19773148 -0.34536117 -0.112759806 0.7609113 0.18810931 0.091121875
-0.2697443 0.057401508 -0.13089275 0.0044246046 0.2751307 0.38894966 0.21964227 -0.12392472
0.16981475 -0.19418204 0.8328098 -0.539595 0.35183808 -0.18586984 -0.12523548 -0.04400303
00000000: daae 94bd c288 04bf 44f5 92bf e87b 44bf
00000010: 95f5 1b3f 66fe c2bd 378f c6be 0b04 e2be
00000020: dc03 c2be 80e7 b1be 2a93 8f3e 02f2 df3e
00000030: cc3c 113e 0b4c 853d 2d1c 263e 9755 45bd
00000040: 5a38 9abe 6a86 5fbe 3ff2 253f e7ce 713e
00000050: 2e86 19be c19d 03bf df69 c63d 0de7 3cbd
00000060: 645b 883e cb2c 44bd 17e2 293e 3c85 053e
00000070: 5634 8abd 0c01 e23d 3cf5 24bf 1e38 783d
00000080: 6a27 65bf cc74 2a3d d412 35be 5562 663e
00000090: 35c2 b9bf f734 13be 0f1f 19be 25e7 cf3e
000000a0: f941 a23e 05e8 f4bd 1939 46be 5ab0 c4be
000000b0: 43f7 17be 1c70 85be bb85 2a3e 9246 a93e
000000c0: 216f 84be f61d 8f3d ad3a 1ebe 29ef ba3c
000000d0: 0340 7a3f 7deb 1d3f f2a4 39be 5467 abbd
000000e0: 8dbf fe3d 90ff 523d e5b2 923f 2081 a5bd
000000f0: 3722 c33e 9f5a 12be 27a7 09be 5780 3bbd
00000100: 92e3 afbd 1696 e5be 18f3 dabe 1484 51be
00000110: bf20 bd3e 75ab 84bd f66d 733d 8faa 99be
00000120: ff76 19bf 9d4c b6be 5a27 963e a1f3 033f
00000130: c0ee 71bf 0224 b13d d935 cb3c 2593 283b
00000140: 18f8 91be 9557 5dbe 77f3 cebf a186 783e
00000150: f136 05be d63a 9fbe ed29 e53d b61b 63bc
00000160: 2923 903e 0d63 91bc 0bb7 343e 4bcc 66be
00000170: 4a19 16bd 0eb1 4dbf b11e 3ebf 2c46 913d
00000180: c515 a9bf 2d5b 163d bbeb 2abe c6e9 143e
00000190: 6acb 2bbe 4df8 0cbe d2b1 16be a0b9 873f
000001a0: 3858 933e d738 b03c 6367 3fbe a455 c8be
000001b0: b354 8e3e 1ee5 b03e 73fc 9a3e 92d7 b13e
000001c0: e86a 8ebd 8f24 663d 0809 01be 0f1e 293d
000001d0: ad54 39bf e338 cc3d d684 7ebe 5f09 9bbd
000001e0: 1408 fb3d 153f 043f 337f 8f3f 105b 2fbe
000001f0: 6eba c43e 3be9 1dbe 97a6 01be ee9a 99bc
00000200: 6118 dcbd 7734 04bf 9ce6 7ebf 7da6 f63e
00000210: eae9 2b3f ff7e efbd 00d1 043e d93d c6be
00000220: 2b57 80be f42e acbe 3557 963e 40ee 333f
00000230: bc2e ddbe 87c4 573d 97d1 eb3e 6c0b d9bc
00000240: 5700 94be 6c75 5cbe aad0 41bf edc5 823e
00000250: 3dc3 0ebe 5a00 12be 8c2d c03d d3ad cebb
00000260: 3071 913e 674a 19bd 67a4 313e 3273 edbe
00000270: 19f0 e9ba 8c4f 0ebf 2009 4f3f 3e84 6f3d
00000280: 68b8 61bf 22b3 3d3d bde7 30be 229c 2e3e
00000290: dc34 b8bd 6d54 0abe eaa9 13be 92e4 433d
000002a0: a246 e7be e18a 2b3e 8a9d 52be 1fcf b9be
000002b0: bfb4 9e3e dbe7 6c3f f163 9ebd 3105 c1bd
000002c0: 7f6e 0a3e 355e e23d 5cb5 0abe 43e7 ad3c
000002d0: 505c 8f3f 2136 c23f a677 1fbd 0e6b bebd
000002e0: 45c5 fd3d 146a 943e 5a62 d43c 1156 1c3e
000002f0: a8a5 d33e 6846 36be 625b 03be 1331 32bd
00000300: cbf4 f8bd 4439 05bf 77e3 863f 50dc 293f
00000310: 0c76 69bf 0b9d b8bd b6a9 ce3e a919 d8be
00000320: a057 0dbf 646a a1be 735c 8e3e 5010 0f3f
00000330: 6284 063f dbd9 b13d 4860 843e 8443 c5bd
00000340: 8e87 8dbe 2d80 58be b5be 2bbf 1bec 793e
00000350: 9274 23be e4b5 993d 3807 bf3d 3f89 f3bc
00000360: 7149 8c3e 22d9 ccbc 64eb 343e ad3a d6bf
00000370: 71a7 9fbd 1bab c53d 2095 6d3f 9d8e a13d
00000380: 9578 b0bf c261 4c3d 095e 28be 4c85 173e
00000390: 1fcc 16be 5d0f 0abe 961e 0ebe fd0e 7a3e
000003a0: e5e8 6b3e 21ef 78be 1f7a 4abe 2ed3 b0be
000003b0: 9dee e6bd 15cb 423f ba9f 403e 1b9e ba3d
000003c0: ed1b 8abe d81d 6b3d c008 06be 46fc 903b
000003d0: eedd 8c3e 6924 c73e e7e9 603e 3ecc fdbd
000003e0: ebe3 2d3e a8d7 46be 0633 553f e622 0abf
000003f0: 1f24 b43e aa54 3ebe bb3d 00be 853c 34bd

encoder.embed.weight f4 [64, 6]
0.01202409 0.0054693134 0.013338966 -0.007288362 -0.010699126 0.0069467574 0.023848603 -0.009197695
0.010313936 0.0060745394 -0.015313115 -0.020513795 0.14022067 -0.14502123 -0.048097197 0.12134039
-0.12362883 -0.03222723 -0.24612524 0.4827011 0.6570919 -0.08449381 0.069548815 0.61946356
0.39419088 0.18094501 0.43841404 -0.77976996 -0.6711144 1.4564798 -0.011057041 -0.014770614
0.01508569 -0.0062665245 -0.014943657 -0.012530978 -0.6173956 -1.8797935 -2.8616903 -1.3650216
1.0372243 0.35404676 -0.012385576 -0.00044996425 0.018183384 -0.013959382 -0.028003603 -0.0076096677
-0.054962415 0.019006822 0.057908274 0.13378905 -0.018597376 0.13143685 -0.014833847 -0.0037816677
0.010527243 -0.027418377 -0.031932756 0.013053546 -0.026336338 0.0029068596 -0.0026819399 -0.02808159
-0.023349233 0.008345746 0.5883677 0.17097715 0.7728032 -0.5848266 1.3589892 -2.4655778
0.15386058 0.06565427 0.057773896 -0.14786275 -0.01680633 0.17185651 -0.0019979067 0.004854283
0.01845163 -0.009197277 0.004442722 -0.008179932 -0.016865758 -0.024923436 0.0031506272 0.02275945
-0.0063880673 -0.029659448 0.005407972 -0.011028983 0.0016884083 0.01056661 2.244676e-06 0.014146514
-0.008030443 0.0044310223 0.004714649 -0.001487619 -0.024817638 0.0047360053 -0.014638514 -0.0095593715
0.01255501 -0.024043098 -0.024932625 0.010061297 -0.19729066 0.120687805 -0.39136863 0.24999973
0.02859332 -0.33347502 0.0047500473 -0.007552168 0.0050149886 0.015927011 -0.01258979 -0.004404328
-0.031884324 0.0036963075 0.00093596615 -0.021259796 -0.02511299 0.0034665188 -0.028329182 -0.07807821
0.005886544 0.23701109 -0.10428549 0.13579187 -0.024806978 -0.004820063 0.013407383 -0.024777295
-0.02573641 0.0052794735 -0.012629287 0.018690625 -0.0019574529 -0.006697165 -0.014479916 -0.00387397
-0.03045463 -0.004236517 0.0007865473 -0.027072325 -0.02147656 -0.00012759387 -0.0015868375 -0.0038162933
0.0086540785 -0.0076785255 -0.00012103788 0.00085088646 0.0043351366 0.012310852 -0.008436345 -0.016080236
1.867943e-05 -0.0021671595 -0.047878504 -0.047884855 -0.012814401 0.022013746 -0.0013062678 -0.031088129
-0.005129523 -0.010680224 0.0015963423 -0.008605557 -0.018238574 0.015368629 0.060740624 0.020530494
0.011255838 0.008606419 -0.022424946 0.04694005 0.002441768 0.01976027 -0.007294408 0.015213545
-0.0133008305 -0.04130224 -0.016621046 -0.00650599 -0.0077543664 -0.024117127 -0.013200996 -0.0016454842
-0.1284876 0.057471596 -0.27868095 0.21115106 0.13035288 -0.28288683 -0.014172693 0.0028976805
0.007052575 -0.009039574 -0.024839217 0.009803577 -0.016223166 -0.0033317318 0.004135794 -0.023411768
-0.028020363 0.010349609 0.0015376601 -0.012842303 -0.006216203 -0.014930075 0.010616056 -0.0014475406
-0.038450092 -0.023656217 0.0011601679 0.074526034 -0.024497202 0.021348907 -0.029801302 -0.0030928575
0.00603744 -0.03091614 -0.029858444 0.009496221 -0.007835895 -0.0017928756 0.008009783 -0.013311662
-0.020460714 0.010748326 -0.23515633 0.31606773 0.41282868 -0.10115634 0.32090047 -0.048460018
0.018607516 0.0006849817 0.011727073 0.016346294 -0.017032364 0.024870213 -0.06041294 1.5864738
-0.5107814 0.05550949 2.7223258 0.6425083 -0.007862604 0.0060270997 0.0014755926 -0.019403154
00000000: b000 453c ed37 b33b ae8b 5a3c 36d3 eebb
00000010: 634b 2fbc a0a1 e33b 255e c33c eeb1 16bc
00000020: c8fb 283c ee0c c73b dce3 7abc 8c0c a8bc
00000030: 0296 0f3e 7280 14be 9101 45bd 4f81 f83d
00000040: 1d31 fdbd b300 04bd 4108 7cbe 9924 f73e
00000050: 2d37 283f 170b adbd 9c6f 8e3d 2a95 1e3f
00000060: 63d3 c93e a649 393e ce77 e03e 019f 47bf
00000070: 27ce 2bbf ee6d ba3f 9728 35bc 7200 72bc
00000080: f829 773c 6b57 cdbb 3ed6 74bc bb4e 4dbc
00000090: a30d 1ebf 139d f0bf ef25 37c0 07b9 aebf
000000a0: c4c3 843f 9e45 b53e dfec 4abc 2ee9 ebb9
000000b0: 52f5 943c e4b5 64bc d067 e5bc 855a f9bb
000000c0: 4520 61bd 32b4 9b3c 3a31 6d3d ffff 083e
000000d0: 8659 98bc 6297 063e aa09 73bc dbd5 77bb
000000e0: 757a 2c3c 819c e0bc eccb 02bd 8ade 553c
000000f0: 4ebf d7bc 0381 3e3b 7cc3 2fbb 5d0b e6bc
00000100: e446 bfbc 99bc 083c 449f 163f a214 2f3e
00000110: 6ed6 453f 32b7 15bf 5cf3 ad3f 07cc 1dc0
00000120: a18d 1d3e bf75 863d 52a4 6c3d 5569 17be
00000130: 6ead 89bc 27fb 2f3e 50ef 02bb ad10 9f3b
00000140: df27 973c 2db0 16bc 4194 913b 1f05 06bc
00000150: 0f2a 8abc 3c2c ccbc c17a 4e3b 0772 ba3c
00000160: fe52 d1bb 5ff8 f2bc 5b35 b13b e8b2 34bc
00000170: 954d dd3a 931f 2d3c 3da3 1636 c8c6 673c
00000180: 1f92 03bc 1c32 913b 587d 9a3b 36fc c2ba
00000190: 5c4e cbbc 7e30 9b3b 61d6 6fbc e99e 1cbc
000001a0: 87b3 4d3c 08f6 c4bc 813f ccbc 23d8 243c
000001b0: 9006 4abe 2b2b f73d 7861 c8be eeff 7f3e
000001c0: 8a3c ea3c 3dbd aabe 49a6 9b3b 2d78 f7bb
000001d0: c654 a43b 5d79 823c 6845 4ebc 2e52 90bb
000001e0: 2399 02bd c03d 723b a05b 753a 0629 aebc
000001f0: c2b9 cdbc 892e 633b 9a12 e8bc 78e7 9fbd
00000200: e9e3 c03b 09b3 723e a293 d5bd 060d 0b3e
00000210: 0138 cbbc 9ef1 9dbb a4aa 5b3c c1f9 cabc
00000220: 2ad5 d2bc 6fff ac3b 12eb 4ebc 151d 993c
00000230: 9c48 00bb e473 dbbb 2b3d 6dbc 6ee2 7dbb
00000240: fd7b f9bc 7bd2 8abb 4c30 4e3a c8c6 ddbc
00000250: 9cef afbc b8ca 05b9 6efd cfba c71a 7abb
00000260: d6c9 0d3c 249c fbbb b8d5 fdb8 060e 5f3a
00000270: c30d 8e3b 75b3 493c 9838 0abc b3ba 83bc
00000280: c5b1 9c37 e706 0ebb 401c 44bd e922 44bd
00000290: 7ef3 51bc 2c56 b43c 1337 abba 88ac febc
000002a0: 8f15 a8bb 1bfc 2ebc 5c3c d13a 52fe 0cbc
000002b0: 1069 95bc b4cc 7b3c 29cb 783d 912f a83c
000002c0: 686a 383c f001 0d3c 85b4 b7bc 3644 403d
000002d0: 1206 203b 4ae0 a13c ee05 efbb 3c42 793c
000002e0: baeb 59bc 8a2c 29bd dc28 88bc 3330 d5bb
000002f0: 5718 febb 4891 c5bc fe48 58bc 4aad d7ba
00000300: 4192 03be 5667 6b3d 45af 8ebe fc37 583e
00000310: 3a7b 053e 8bd6 90be 9534 68bc 03e7 3d3b
00000320: 4919 e73b b91a 14bc 9d7b cbbc 2f9f 203c
00000330: 72e6 84bc 2f59 5abb 8e85 873b 09ca bfbc
00000340: f68a e5bc 6891 293c 508b c93a 8668 52bc
00000350: 4ab1 cbbb 469d 74bc f7ee 2d3c 67bb bdba
00000360: d87d 1dbd afca c1bc c610 983a 1ba1 983d
00000370: 5bae c8bc e7e3 ae3c dc21 f4bc 8ab1 4abb
00000380: b8d5 c53b d843 fdbc b299 f4bc 0a96 1b3c
00000390: 2062 00bc ecfe eaba 773b 033c 2819 5abc
000003a0: 3a9d a7bc bf19 303c d2cc 70be a1d3 a13e
000003b0: 485e d33e 0e2b cfbd 114d a43e 037e 46bd
000003c0: ca6e 983c 5890 333a e922 403c aae8 853c
000003d0: 7587 8bbc 9ebc cb3c 8f73 77bd 9311 cb3f
000003e0: 92c2 02bf eb5d 633d 963a 2e40 6d7b 243f
000003f0: 27d2 00bc fa7e c53b ac68 c13a 5df3 9ebc

encoder.embed.bias f4 [64]
0.08385822 0.47757533 -0.17505996 0.13625808 0.23643403 0.09763736 -0.07485927 0.3811239
0.1728963 0.3181773 -0.3209784 -0.3330646 -0.056024704 -0.082584396 -0.071957 0.058220696
0.27246872 0.18067671 0.14841884 -0.2568188 0.10643975 0.20763582 -0.10742571 -0.01025228
-0.29279667 0.018992899 -0.18439765 0.28583816 0.03398423 0.2903759 0.050648913 -0.068647444
-0.2905304 -0.07278511 0.13341758 -0.18129356 0.30383277 0.10592041 0.10638136 -0.203551
-0.1373052 0.277487 0.16800664 0.37583408 -0.113108665 0.08547703 -0.16974993 -0.14154704
-0.03858864 -0.08747806 0.1011245 -0.03536559 -0.025342798 -0.25559238 -0.1820331 0.07401288
-0.14541446 -0.13466564 0.02736355 0.02028979 -0.38077033 0.15294515 0.09424181 0.04556306
00000000: dcbd ab3d c184 f43e eb42 33be 3d87 0b3e
00000010: c31b 723e 19f6 c73d d14f 99bd ac22 c33e
00000020: ba0b 313e 23e8 a23e 4857 a4be 7187 aabe
00000030: 297a 65bd 0222 a9bd 315e 93bd d378 6e3d
00000040: 0581 8b3e 5103 393e 1cfb 173e c17d 83be
00000050: 15fd d93d 7c9e 543e 0302 dcbd 2ef9 27bc
00000060: 72e9 95be ff96 9b3c bdd2 3cbe 6159 923e
00000070: 0c33 0b3d 26ac 943e 3c75 4f3d 0897 8cbd
00000080: 67c0 94be 5c10 95bd 9e9e 083e 05a5 39be
00000090: f88f 9b3e cdec d83d 78de d93d ac6f 50be
000000a0: bc99 0cbe c712 8e3e ef09 2c3e 536d c03e
000000b0: 84a5 e7bd 950e af3d edd2 2dbe b5f1 10be
000000c0: 1f0f 1ebd b227 b3bd 5d1a cf3d 82db 10bd
000000d0: b39b cfbc 01dd 82be e366 3abe 1194 973d
000000e0: 87e7 14be cae5 09be 8629 e03c c636 a63c
000000f0: 54f4 c2be a79d 1c3e da01 c13d 55a0 3a3d

encoder.layers.0.self_attn.in_proj_weight f4 [192, 64]
0.009085507 0.029470852 0.4161018 -0.056951948 0.14042883 -0.0015470219 -0.0038174582 -0.009833919
-0.20461072 0.010076811 -0.008927715 0.099492006 -0.1536596 -0.014635165 -0.05844778 0.10049318
-0.021649232 0.004870592 0.11188582 -0.010860708 -0.003907442 0.3336975 -0.031213272 -0.004281224
0.00587838 0.00017643203 -0.017541798 -0.3334206 -0.029037926 -0.16282232 -0.06698621 0.012806155
-0.09893714 -0.010992323 -0.003285643 0.050126005 -0.2401305 0.008393355 -0.007001691 0.16394933
0.117739536 -0.018084625 0.040903162 0.042112987 0.010162152 -0.047751684 -0.085069776 0.035001945
-0.070849024 0.015106226 -0.0049428623 0.01724015 0.11009591 -0.24394727 -0.028614288 0.015785938
0.029624883 0.03164333 0.2771599 -0.058130946 0.00027147334 -0.005593101 -0.005830743 0.0176577
0.0032526422 0.051496297 -0.11197079 -0.15051328 -0.0056618256 0.042070173 -0.05069707 0.0009201195
-0.03843538 0.034405563 -0.023986757 -0.14403485 -0.041013584 -0.046219554 -0.32472607 0.011454023
0.07853534 0.0069448496 0.08600043 0.05747235 -0.03436775 -0.20315096 -0.017613694 0.007666176
-0.007013983 0.00077669177 -0.0917614 -0.24692243 0.023930429 -0.24718286 0.44512963 0.049792074
0.00087903085 -0.013246847 0.00076026074 -0.024702316 0.070582636 0.005324264 0.0024703953 0.09566282
0.27090544 0.04078748 0.037157044 0.00040193868 -0.02404187 -0.084079295 -0.68438363 0.30187348
0.0694658 -0.036690537 0.027330704 0.0016859943 0.084553935 -0.15425609 0.019078152 -0.03801271
-0.029850306 0.47431076 -0.0636266 0.057384573 -0.030617546 -0.01284765 0.004520103 0.06439469
-0.027229788 0.059749722 -0.040738337 0.0876969 0.053014074 0.06102254 0.022773484 -0.021128003
-0.05216851 0.013714945 0.0153913805 0.057222974 0.053222254 -0.021223716 -0.0800749 -0.03172677
0.037390612 0.06261547 0.04373114 0.035178684 0.012403315 -0.05930306 0.020603977 -0.0027979317
0.028491504 0.0005042903 -0.15313557 0.0639522 0.009522321 0.112995125 -0.060365845 0.026652193
-0.008809752 0.007375928 0.036798846 0.0016988541 0.0199176 0.0063006557 0.06377066 -0.0435935
0.00083590974 -0.044973515 0.0024524932 0.010205515 0.037111364 0.0009652324 -0.105865926 0.013801238
-0.04242729 -0.058173366 0.033812672 0.020073712 -0.03950592 -0.074097544 -0.029413888 0.003269159
0.044241 0.093540184 -0.04006031 -0.041807078 0.059049964 0.033543527 0.025224406 0.09701806
-0.16050072 -0.087364525 0.043286882 0.02240331 0.0010685327 0.049249187 0.0073445174 0.054050803
-0.026839672 -0.016474867 -0.013477589 0.031732243 0.013596852 0.03944347 -0.022867247 -0.016676374
0.027806394 0.007770632 -0.017147766 -0.019525038 -0.007172892 -0.021921242 0.078334846 -0.026883073
0.0034456274 -0.057322472 0.0156607 0.007882527 0.0021012104 -0.01991312 -0.0019410198 -0.05593994
-0.01157735 0.014618999 0.009474507 -0.033493496 0.047413647 -0.007302807 -2.1003767e-05 0.045677368
-0.007850295 -0.021130329 -0.07621623 -0.14033522 -0.015525861 0.020991942 0.041252825 -0.07526574
-0.045726176 -0.06667221 -0.011138813 -0.054226376 0.014176638 0.044965155 -0.0034621588 -0.011157529
-0.0317065 -0.0025748918 -0.03500681 -0.04329909 0.059321046 0.023304515 -0.0069667557 0.030798104
00000000: 61db 143c db6c f13c 4c0b d53e 7246 69bd
00000010: 93cc 0f3e 71c5 caba 522e 7abb 721e 21bc
00000020: 7985 51be 3519 253c 8d45 12bc 77c2 cb3d
00000030: f158 1dbe 55c8 6fbc f066 6fbd 5ecf cd3d
00000040: bb59 b1bc 7d99 9f3b 6524 e53d 1cf1 31bc
00000050: 000a 80bb 66da aa3e fab2 ffbc 8349 8cbb
00000060: 6d9f c03b 9d00 3939 d1b3 8fbc 1bb6 aabe
00000070: f2e0 edbc e5ba 26be 1130 89bd e8d0 513c
00000080: 8e9f cabd 2519 34bc f153 57bb ed50 4d3d
00000090: c5e4 75be 4884 093c 716e e5bb 55e2 273e
000000a0: 6d21 f13d 3526 94bc 138a 273d ab7e 2c3d
000000b0: 287f 263c 4597 43bd 1039 aebd 335e 0f3d
000000c0: 4b19 91bd 1b80 773c bcf7 a1bb 373b 8d3c
000000d0: f779 e13d 50cd 79be 8368 eabc 8351 813c
000000e0: e2af f23c 709c 013d e7e7 8d3e b71a 6ebd
000000f0: 8954 8e39 5546 b7bb d10f bfbb e2a6 903c
00000100: 482a 553b c8ed 523d f150 e5bd 2720 1abe
00000110: d686 b9bb c651 2c3d bba7 4fbd 2d34 713a
00000120: 6b6e 1dbd d9ec 0c3d e07f c4bc df7d 13be
00000130: dcfd 27bd b750 3dbd 7f42 a6be a8a9 3b3c
00000140: 23d7 a03d 9f91 e33b fe20 b03d 2068 6b3d
00000150: 33c5 0cbd ce06 50be 984a 90bc 8c34 fb3b
00000160: 8ed5 e5bb e79a 4b3a 67ed bbbd 3cd9 7cbe
00000170: bf09 c43c 811d 7dbe 08e8 e33e c6f2 4b3d
00000180: c36e 663a 4e09 59bc 3c4c 473a 835c cabc
00000190: a18d 903d 2a77 ae3b 5be6 213b deea c33d
000001a0: 1eb4 8a3e c610 273d fc31 183d 4cbb d239
000001b0: 75f3 c4bc c431 acbd c433 2fbf 298f 9a3e
000001c0: 1644 8e3d d148 16bd a4e4 df3c 95fc dc3a
000001d0: 9d2a ad3d 4ff5 1dbe c949 9c3c 37b3 1bbd
000001e0: a188 f4bc dcd8 f23e aa4e 82bd 160c 6b3d
000001f0: a6d1 fabc f37e 52bc 5f1d 943b 5de1 833d
00000200: 0111 dfbc 20bc 743d 3edd 26bd 6f9a b33d
00000210: 4925 593d c5f2 793d 758f ba3c a214 adbc
00000220: a6ae 55bd a6b4 603c 212c 7c3c a362 6a3d
00000230: 94ff 593d 5cdd adbc 4ffe a3bd eef3 01bd
00000240: e626 193d 8a3c 803d 6d1f 333d 8617 103d
00000250: 4637 4b3c c4e7 72bd acc9 a83c 815d 37bb
00000260: 0467 e93c 5932 043a 92cf 1cbe 5ff9 823d
00000270: 8203 1c3c fd69 e73d 2d42 77bd b355 da3c
00000280: c756 10bc c5b1 f13b 63ba 163d 16ac de3a
00000290: 3c2a a33c bb75 ce3b 319a 823d 198f 32bd
000002a0: f420 5b3a 2636 38bd 02ba 203b 0835 273c
000002b0: 1602 183d a607 7d3a 3cd0 d8bd 961e 623c
000002c0: 3dc8 2dbd 3247 6ebd 287f 0a3d a071 a43c
000002d0: f6d0 21bd 74c0 97bd 65f5 f0bc 633f 563b
000002e0: 0d36 353d ff91 bf3d 4816 24bd e63d 2bbd
000002f0: 60de 713d f064 093d 6aa3 ce3c 68b1 c63d
00000300: 4d5a 24be 2cec b2bd 964d 313d 2587 b73c
00000310: 020e 8c3a 84b9 493d 47aa f03b 6064 5d3d
00000320: dfde dbbc 4df6 86bc 1bd1 5cbc abf9 013d
00000330: 55c5 5e3c 7a8f 213d 1854 bbbc e49c 88bc
00000340: 3cca e33c c9a0 fe3b 7979 8cbc f9f2 9fbc
00000350: 940a ebbb 2d94 b3bc 056e a03d e439 dcbc
00000360: 09d0 613b f8ca 6abd de4a 803c b725 013c
00000370: 76b4 093b d720 a3bc d169 feba 4721 65bd
00000380: edae 3dbc 8784 6f3c f63a 1b3c 7a30 09bd
00000390: d034 423d 634c efbb 3f31 b0b7 3118 3b3d
000003a0: 869e 00bc 8319 adbc 4117 9cbd 09b4 0fbe
000003b0: 2e60 7ebc 4bf7 ab3c b9f8 283d ed24 9abd
000003c0: 5f4b 3bbd 718b 88bd 917f 36bc 7a1c 5ebd
000003d0: 2145 683c 622d 383d 63e5 62bb 12ce 36bc
000003e0: adde 01bd 84bf 28bb 4d63 0fbd 635a 31bd
000003f0: a0fa 723d 1ce9 be3c 6249 e4bb 4e4c fc3c

encoder.layers.0.self_attn.in_proj_bias f4 [192]
-0.75008214 0.017677344 -0.01029086 0.006214208 0.0053841732 0.005738243 -0.015510532 0.0066475407
0.02129561 0.6741563 0.025963519 0.8600114 -0.0020097874 0.16736968 -0.10924214 0.024563761
-3.1980596 -0.010104542 -0.042716194 0.01591802 -0.05132286 -0.026581563 0.015310342 -0.009354136
-0.008226338 0.01527351 0.025312563 0.06791361 -0.04771961 0.00082584115 -0.027183969 0.03437523
-0.04249525 -0.011063805 -0.095093235 0.019752359 -2.420766 0.09197903 -0.13313864 -0.028805759
0.05580882 0.037499927 -0.0005047041 0.02811563 -0.013234449 -0.11988523 -0.077872165 -0.032316934
-0.014704147 0.007002357 -0.0030326985 0.027271023 0.058030665 0.057000548 0.19771457 -0.038589355
0.012933108 -0.014587063 0.01725534 -0.027251828 0.019756876 0.03714907 -3.2233422 0.03278632
-0.0042458186 0.00681289 -0.0020381676 0.00028281022 -0.00026620878 -0.0004847119 0.0042066732 0.0010227154
-0.00049699825 -0.005261221 -0.006400355 -0.016663285 0.0010371697 0.01073955 -0.00276925 0.005081426
0.023385389 0.00087011827 0.0016230163 -0.001060281 -0.00020433615 -0.0025856548 -0.000533419 0.002041813
-1.52363855e-05 -0.00041773973 0.00084873056 0.0025852546 -0.0007074892 -0.0006316976 -0.0010104007 0.000279233
-0.00025954627 0.005393478 0.0023845367 -0.00026580907 -0.03565077 -0.0048972503 0.005088594 9.681106e-05
-0.005920893 -0.005205938 -0.0016402513 0.00084229076 -0.0024681173 0.0012513102 -0.0006482818 0.0009331332
0.00069418154 0.0011370992 -0.0020786698 0.0015609108 -0.003254887 -0.0030919274 -0.0100559015 0.00046880808
0.003981523 0.0015077101 -0.001431654 -0.0018542138 0.0022020307 0.0026962585 -0.030085742 -0.001974856
0.0024994428 0.063169844 0.0019822181 -0.003515826 0.0024002073 0.089575484 0.005977691 0.03858061
-0.0025125123 -0.013970767 -0.010811369 -0.0052898894 -0.006994622 -0.004973631 0.011272816 -0.003907601
-0.026382843 0.014563044 0.014523511 0.008705712 0.008989915 0.031133126 -0.06107213 0.026124474
-0.0016087444 -0.0049529336 -0.00995395 0.6934497 0.010192186 -0.016179208 -0.011779192 -0.022584792
-0.006508524 0.00500693 0.008457359 -0.010094484 0.0037934512 0.005083006 -0.012167914 0.086453356
0.17637137 0.005335755 0.011156268 -0.021014307 -0.004915891 0.005116885 -0.026872747 0.11797401
0.02004654 -0.0068696206 0.08006441 -0.0046279454 -0.0006893955 0.0019100888 0.013405564 -0.02228811
-0.0013078388 0.008809002 0.0125650745 -0.008210605 -0.50837266 0.22948562 -0.0075787753 -0.47259578
00000000: 6205 40bf 14d0 903c ff9a 28bc 8ea0 cb3b
00000010: b86d b03b df07 bc3b e31f 7ebc 9dd3 d93b
00000020: 2274 ae3c 8295 2c3f 72b1 d43c b529 5c3f
00000030: a3b6 03bb f562 2b3e 58ba dfbd f139 c93c
00000040: 02ad 4cc0 858d 25bc 2df7 2ebd 8266 823c
00000050: eb37 52bd 94c1 d9bc 3bd8 7a3c 1742 19bc
00000060: c3c7 06bc be3d 7a3c 4b5c cf3c 4a16 8b3d
00000070: a375 43bd 437d 583a eab0 debc 0bcd 0c3d
00000080: 800f 2ebd f644 35bc 3ec0 c2bd b3cf a13c
00000090: d5ed 1ac0 805f bc3d 7f55 08be 0efa ebbc
000000a0: ca97 643d 8699 193d 1e4e 04ba c052 e63c
000000b0: 4dd5 58bc 6386 f5bd 717b 9fbd c35e 04bd
000000c0: aae9 70bc 0774 e53b 3dc0 46bb 7b67 df3c
000000d0: 90b1 6d3d 6879 693d b075 4a3e df0f 1ebd
000000e0: 63e5 533c 94fe 6ebc 125b 8d3c 3a3f dfbc
000000f0: 2cd9 a13c a029 183d 3d4b 4ec0 f34a 063d
00000100: 8220 8bbb aa3e df3b c792 05bb 2546 9439
00000110: f091 8bb9 ee20 feb9 22d8 893b a20c 863a
00000120: fd48 02ba 5266 acbb 12ba d1bb 7181 88bc
00000130: a4f1 873a f0f4 2f3c 4e7c 35bb 1782 a63b
00000140: b792 bf3c a618 643a 64bb d43a 20f9 8aba
00000150: 1143 56b9 1774 29bb 25d5 0bba f0cf 053b
00000160: c79f 7fb7 1404 dbb9 587d 5e3a 606d 293b
00000170: cc76 39ba 8298 25ba 6c6f 84ba 0566 9239
00000180: b613 88b9 c6bb b03b e345 1c3b 4a5c 8bb9
00000190: 8b06 12bd 1d79 a0bb 38be a63b 0b07 cb38
000001a0: 0d04 c2bb 9396 aabb b3fd d6ba 2dcd 5c3a
000001b0: 23c0 21bb 0103 a43a 75f1 29ba 829d 743a
000001c0: bcf9 353a b80a 953a 4b3a 08bb 7a97 cc3a
000001d0: f14f 55bb efa1 4abb 82c1 24bc 5bca f539
000001e0: 7077 823b 5b9e c53a 56a6 bbba 1709 f3ba
000001f0: f24f 103b b6b3 303b 6076 f6bc 966c 01bb
00000200: b1cd 233b 315f 813d 1ae8 013b c669 66bb
00000210: cc4c 1d3b 5a73 b73d 82e0 c33b b406 1e3d
00000220: f6a8 24bb a5e5 64bc 2b22 31bc cf56 adbb
00000230: 2433 e5bb d7f9 a2bb 9eb1 383c 550b 80bb
00000240: d520 d8bc d599 6e3c 05f4 6d3c 67a2 0e3c
00000250: 704a 133c e60a ff3c c526 7abd fe02 d63c
00000260: 81dc d2ba 384c a2bb e415 23bc eb85 313f
00000270: 20fd 263c 428a 84bc 83fd 40bc be03 b9bc
00000280: 7545 d5bb 2c11 a43b bc90 0a3c 5663 25bc
00000290: 8d9b 783b 588f a63b ee5b 47bc 750e b13d
000002a0: b29a 343e 8fd7 ae3b c8c8 363c 3226 acbc
000002b0: 7c15 a1bb 8bab a73b 3c24 dcbc 5c9c f13d
000002c0: a438 a43c 8e1a e1bb cff8 a33d 05a6 97bb
000002d0: 8db8 34ba f25b fa3a 03a3 5b3c 8e95 b6bc
000002e0: ca6b abba a253 103c bedd 4d3c c685 06bc
000002f0: b624 02bf 47fe 6a3e 6057 f8bb 13f8 f1be

encoder.layers.0.self_attn.out_proj.weight f4 [64, 64]
-0.020770725 0.62263525 -0.08180525 -0.5145328 0.14694582 0.43806663 -0.005754119 0.006063813
-0.007231143 0.0050281542 -0.0058019855 -0.028345924 -0.723281 -0.031211378 -0.027029678 -0.03128521
-0.0015821643 -0.04156273 0.6211411 0.007032846 0.11225171 -0.12253767 -0.6026681 0.017474568
0.011095842 0.009745813 -0.15058528 -0.27233252 0.026231974 0.04948615 -0.09122173 -0.056362085
-0.056003354 -0.024237135 0.08964512 -0.021354 0.0101845525 0.10651939 -0.073340744 -1.0492573
0.19281982 -0.010577333 0.023189714 -0.73227495 -0.17460859 0.03553909 -0.59801716 -0.44469503
0.094478406 -0.045891035 0.039572466 -0.036422968 -0.035284616 -0.038167298 -0.0686996 -0.68869424
-0.049280103 0.044980906 -0.0020465981 0.0006287596 0.76343316 -1.3676465 -0.0065359627 -0.3686076
0.031127376 0.65300405 0.0011853582 -0.042502873 -0.8821531 0.19144163 -0.021325214 0.20502138
-0.03344734 0.00662658 0.032201808 0.049003176 -0.52339095 0.008268548 0.011250263 -0.020399531
-0.04907707 -0.01205202 -0.28127906 -0.04562535 0.040373467 0.6938676 -1.0418102 0.036350586
-0.049495716 0.030676736 0.019569365 -0.3236462 -0.022037396 0.04563458 0.010755391 0.039457213
-0.015718738 0.006507644 -0.012097838 0.033515356 -0.018048216 -0.036418643 0.018714234 0.7825773
-0.16455814 -0.021528875 0.03867514 0.3503002 0.7772345 0.012476516 -0.32561857 0.3572817
0.5639692 0.0010672295 0.9215132 0.060809925 0.0349802 -0.020628493 -0.06483429 0.04029724
0.014126762 -0.023744432 0.058084313 -0.018143583 -0.8346945 -1.0840615 -0.010930898 0.525403
-0.029224684 0.37900934 0.002377882 0.35383892 0.27543667 -0.3445842 0.010581131 0.043465693
0.015977567 -0.027269779 -0.0145256575 0.005224246 0.44802198 0.00462525 0.021997502 0.004455683
-0.044658463 0.016982509 -0.045900743 -0.006045675 0.0136180995 0.07000385 -0.085843384 0.00388175
0.007253367 0.04011959 0.006744624 0.16452578 0.009798591 0.028154213 -0.01173153 -0.012360619
0.012107783 0.029067745 -0.0004570505 -0.007717831 0.01969043 -0.012645425 0.0039880294 0.16581199
0.5721819 0.013172257 -0.011382464 0.20138669 0.10872072 0.003589153 -0.072531596 0.19169241
-0.064934574 -0.04587012 0.18392657 0.001368222 0.012176351 0.0076012705 -0.015668392 0.043994494
0.011041813 0.007102006 0.0056686876 0.020989465 0.5826753 -0.2813733 -0.002164568 -0.21123548
-0.0016985621 -0.6587884 -0.016974213 0.09393238 -0.037571225 -0.36716127 -0.009813923 -0.35162458
-0.029038984 0.019809753 0.011320684 0.004868637 -0.24304257 -0.00248811 -0.006535651 0.007352116
-0.022557156 0.059274107 0.093303084 0.020878458 0.021284105 0.39430583 -0.13823834 -0.03557368
-0.007657027 -0.024820708 0.010280535 -0.14883089 -0.018113 0.036832917 0.017601117 0.023106948
0.0050734463 0.0063934852 -0.0047508995 0.022859355 -0.016805327 -0.012948819 0.0129593015 -0.14482768
0.092855185 0.0011037134 -0.014266974 -0.30118 0.2323878 -0.0028860623 -0.038500797 -0.73074466
0.18114914 -0.04233894 -0.08870553 -0.0002441172 0.023055581 -0.019055836 -0.04205625 -0.17940962
0.0066621057 -0.0077581755 0.031303495 -0.02594516 0.04617223 0.519494 -0.022995926 0.30836314
00000000: 5e27 aabc 0665 1f3f 8389 a7bd 6cb8 03bf
00000010: f778 163e 454a e03e 0c8d bcbb f3b2 c63b
00000020: 39f3 ecbb 37c3 a43b 951e bebb b635 e8bc
00000030: f228 39bf 01af ffbc 586d ddbc ec24 00bd
00000040: a060 cfba ae3d 2abd 1a03 1f3f ca73 e63b
00000050: 39e4 e53d 08f5 fabd 7548 1abf d326 8f3c
00000060: 56cb 353c e7ac 1f3c 0733 1abe 2b6f 8bbe
00000070: 70e4 d63c fdb1 4a3d 75d2 babd eedb 66bd
00000080: c663 65bd f58c c6bc dc97 b73d 95ee aebc
00000090: 1cdd 263c d726 da3d ac33 96bd 104e 86bf
000000a0: 8f72 453e 8d4c 2dbc 5bf8 bd3c 5f76 3bbf
000000b0: 98cc 32be 7091 113d a717 19bf 11af e3be
000000c0: e57d c13d 3df8 3bbd bd16 223d 4030 15bd
000000d0: 9a86 10bd 5055 1cbd 60b2 8cbd 444e 30bf
000000e0: efd9 49bd e63d 383d 3820 06bb 58d3 243a
000000f0: 5b70 433f 0a0f afbf a12b d6bb 23ba bcbe
00000100: d7fe fe3c 462b 273f 055e 9b3a 7e17 2ebd
00000110: c9d4 61bf 4609 443e 37b2 aebc 20f1 513e
00000120: 1400 09bd c823 d93b 0be6 033d 8eb7 483d
00000130: f3fc 05bf ce78 073c 0653 383c eb1c a7bc
00000140: 0a05 49bd d675 45bc cf03 90be a6e1 3abd
00000150: a65e 253d 4fa1 313f 095a 85bf 5ae4 143d
00000160: 05bc 4abd c74d fb3c ef4f a03c f4b4 a5be
00000170: c587 b4bc 53eb 3a3d 6137 303c e39d 213d
00000180: 95c4 80bc 133e d53b 0336 46bc 6647 093d
00000190: dad9 93bc b72b 15bd 984e 993c fc56 483f
000001a0: ee81 28be 535d b0bc d369 1e3d 8c5a b33e
000001b0: d7f8 463f 4d6a 4c3c 7ab7 a6be a1ed b63e
000001c0: 4960 103f 48e2 8b3a 4ae8 6b3f d413 793d
000001d0: 6647 0f3d 16fd a8bc d7c7 84bd b80e 253d
000001e0: ef73 673c af83 c2bc d1e9 6d3d daa1 94bc
000001f0: 8aae 55bf 87c2 8abf 8217 33bc d080 063f
00000200: 9b68 efbc 830d c23e 3dd6 1b3b 602a b53e
00000210: 0906 8d3e 576d b0be 7b5c 2d3c 1509 323d
00000220: 63e3 823c df64 dfbc 06fd 6dbc 2730 ab3b
00000230: 2363 e53e 698f 973b 1b34 b43c fa00 923b
00000240: cbeb 36bd e71e 8b3c 6b02 3cbd cc1a c6bb
00000250: 731e 5f3c 2e5e 8f3d a8ce afbd f564 7e3b
00000260: a7ad ed3b 7054 243d 0202 dd3b 7279 283e
00000270: 458a 203c aaa3 e63c 9a35 40bc 3284 4abc
00000280: b95f 463c 7b1f ee3c 48a0 efb9 dce5 fcbb
00000290: d34d a13c c22e 4fbc 04ae 823b 9eca 293e
000002a0: 837a 123f 73d0 573c 847d 3abc 5038 4e3e
000002b0: f8a8 de3d ff37 6b3b 728b 94bd 044b 443e
000002c0: 6bfc 84bd 4fe2 3bbd 3f57 3c3e e955 b33a
000002d0: 517f 473c 1414 f93b 005b 80bc 9233 343d
000002e0: b8e8 343c f2b7 e83b 66c0 b93b 19f2 ab3c
000002f0: 352a 153f 2910 90be 6ddb 0dbb 1d4e 58be
00000300: 49a2 deba 5ba6 28bf 810d 8bbc 9f5f c03d
00000310: 49e4 19bd 90fc bbbe 94ca 20bc 2308 b4be
00000320: 2ae3 edbc 1048 a23c 647a 393c 1689 9f3b
00000330: 27e0 78be 8f0f 23bb 0429 d6bb 05ea f03b
00000340: c9c9 b8bc 68c9 723d b015 bf3d 4d09 ab3c
00000350: 015c ae3c 74e2 c93e 5a8e 0dbe b5b5 11bd
00000360: cce7 fabb cc54 cbbc b06f 283c 2067 18be
00000370: b761 94bc 1dde 163d 3830 903c c84a bd3c
00000380: 273f a63b 7180 d13b 6fad 9bbb 8b43 bb3c
00000390: 53ab 89bc 4927 54bc 4053 543c b54d 14be
000003a0: dc2a be3d 7aaa 903a 07c0 69bc 4434 9abe
000003b0: 11f7 6d3e 1724 3dbb 03b3 1dbd 1512 3bbf
000003c0: 297f 393e 996b 2dbd 3fab b5bd b6f9 7fb9
000003d0: 0fdf bc3c fc1a 9cbc 2d43 2cbd 28b7 37be
000003e0: cb4d da3b 4b38 febb 1838 003d f28a d4bc
000003f0: 181f 3d3d 8ffd 043f f461 bcbc c6e1 9d3e

encoder.layers.0.self_attn.out_proj.bias f4 [64]
-2.7538733 -0.36665335 -0.26287714 0.29338577 -0.0900326 2.55302 -0.21542923 0.07246794
-2.2236328 0.3794046 -0.09005609 -0.14750332 2.6261501 1.3618896 0.12849349 -2.6106887
-0.0409315 -0.26771924 -0.62892514 -0.119877614 -0.5239361 -0.4339409 1.479711 0.31028247
-0.6154829 -0.44128308 0.2764649 -0.11446357 -0.27151564 -0.35290208 -0.46483856 -1.3348974
0.10733769 0.69123554 -0.27286774 -1.0247884 -0.108342715 -0.43189725 0.84466153 0.06389991
-0.2519744 0.12447852 -3.3360894 -0.044981886 0.38357133 -0.3157897 1.0279723 0.9501064
0.03642952 -1.1808285 -0.18031307 -2.4775834 0.6719462 0.00074144057 -0.35657254 -2.117485
-0.34527504 0.51779103 0.09283417 0.4537608 4.7855625 0.70076877 -0.112540476 0.579921
00000000: 763f 30c0 fdb9 bbbe d597 86be a936 963e
00000010: 0363 b8bd ae64 2340 7b99 5cbe 126a 943d
00000020: 0050 0ec0 5241 c23e 546f b8bd 1c0b 17be
00000030: d812 2840 6652 ae3f cc93 033e 8615 27c0
00000040: caa7 27bd 7f12 89be 3d01 21bf 6582 f5bd
00000050: ad20 06bf 802d debe 2c67 bd3f 58dd 9e3e
00000060: 4a90 1dbf dbef e1be cf8c 8d3e e06b eabd
00000070: 1904 8bbe 95af b4be 52ff edbe ebdd aabf
00000080: ddd3 db3d d0f4 303f 52b5 8bbe 442c 83bf
00000090: c9e2 ddbd a321 ddbe bd3b 583f f5dd 823d
000000a0: ca02 81be 98ee fe3d 7d82 55c0 ed3e 38bd
000000b0: 7663 c43e 30af a1be 9994 833f 2c3a 733f
000000c0: 1f37 153d 6325 97bf fda3 38be ba90 1ec0
000000d0: ab04 2c3f 3c5d 423a ad90 b6be e084 07c0
000000e0: e4c7 b0be f48d 043f d71f be3d 5653 e83e
000000f0: 5423 9940 9565 333f 9f7b e6bd b475 143f

encoder.layers.0.ff.0.weight f4 [128, 64]
-1.5326526 -0.11009944 0.5691777 -0.992079 -0.022301268 1.9764917 0.828802 1.9933572
1.1784997 -0.12258471 -0.07889472 0.09323765 -1.5871706 1.520289 -0.4045939 1.1156594
-1.1825716 -0.01943804 -0.17254207 -0.97717595 0.061482217 0.57060957 1.954645 1.273111
0.0812333 -1.468499 1.2837487 -0.47249326 -0.06260014 1.2196981 0.31195152 -0.34741995
0.0057476955 0.21072608 0.1385067 -0.070400715 0.36557275 -0.043726653 0.38158906 -0.7547944
0.56120473 -0.7877573 -1.167336 -0.614008 -0.99473536 0.21817985 0.25320813 -0.18536426
-0.26945776 1.2390308 0.02236215 -0.2257645 0.6713119 -0.26955742 -0.39002845 0.08798574
-1.0125438 -1.1455387 0.18628782 1.148471 1.8816642 -0.46838817 0.070996605 0.31597865
0.9730672 0.03139192 0.79569554 -1.0306826 -0.4954925 -0.66156447 -0.26713613 0.24172194
2.8544495 -0.11567941 -0.034918025 0.31400725 -3.3898776 -0.6292446 -0.61614645 2.363612
1.0558491 -0.06649754 0.8782722 -0.43201366 -0.07581246 0.9313353 0.3914175 0.6386242
0.039275363 0.3712182 -0.55525154 -0.09879951 1.8885 1.9682378 0.7144649 0.14053676
0.33580515 -0.07964814 0.11816705 -0.31666678 -0.26757064 0.051213115 -0.9798401 -0.41673407
1.4049702 -0.03185692 0.5294122 -1.2241652 -0.08367556 0.946677 0.04129013 -0.8773288
-0.6799904 1.3732607 0.0019608452 -0.057820115 0.14898333 0.30025473 -0.3798236 0.12783259
-1.8727194 0.0937357 -0.21521245 -0.42592883 -0.58085805 -1.1459664 0.051229358 -0.4785381
0.46849388 0.47644207 1.2485586 0.12258554 -1.8239324 -0.48634437 0.18948394 0.44550925
-0.08892258 -0.012643265 0.12236712 0.1810072 0.53929514 0.22185966 1.5680509 1.5037191
-0.50385875 0.077297345 0.23562552 0.12979051 0.0074053216 -0.76783645 0.033541348 -0.86155224
-0.06591496 0.24693595 -0.34059665 -3.034512 -0.18413185 0.21305358 3.219587 0.040533308
0.7978769 -0.009799926 0.012908274 0.5523063 1.5302147 -0.09448669 -0.04626148 -3.052377
0.32862005 -0.37479883 0.25108096 0.16743056 -0.6578181 1.1190356 -1.0141102 -0.97642875
-0.4010703 0.6513777 0.037002254 -0.025247345 -2.3291464 1.2848153 0.1572486 -0.08149638
0.44780603 -0.94034266 2.3233175 -0.80592704 -0.14476722 0.61417115 -0.05809207 -0.10236778
-2.4610257 0.70502734 1.6818395 -1.8987322 -0.03791363 -0.26808044 1.066804 0.02729354
1.06707 -0.043786515 -0.07302812 0.06620879 -1.160072 0.5651802 1.112774 -0.24057485
1.8347728 -0.0104011055 -0.67762697 0.81533813 -0.11676597 1.5287718 0.12964764 0.7397832
-0.03313024 0.28054422 -0.5392794 1.3787953 0.40252662 0.04788408 -0.4194536 -0.09612178
-0.06340679 0.012150893 0.020119669 -0.6532488 -0.3827828 0.0070361053 0.15238836 -1.3507156
-0.31713215 -1.1370169 -0.0025958265 0.3877513 -1.1328256 0.8131954 -1.3558545 -0.0028349014
-0.39434025 -0.55454093 -0.050664935 -0.18237056 0.950172 -0.22020663 -0.4980394 0.090784684
1.1786708 0.23619348 0.17174883 1.4381934 0.15553737 -0.18102604 0.094521716 0.42710468
00000000: f62d c4bf d17b e1bd a1b5 113f e4f8 7dbf
00000010: 26b1 b6bc aefd fc3f 5e2c 543f 5426 ff3f
00000020: 14d9 963f b10d fbbd 8e93 a1bd 62f3 be3d
00000030: 6828 cbbf d498 c23f ef26 cfbe edcd 8e3f
00000040: 825e 97bf 863c 9fbc deae 30be 3428 7abf
00000050: c7d4 7b3d 7813 123f cf31 fa3f 4df5 a23f
00000060: a55d a63d c6f7 bbbf e151 a43f a3ea f1be
00000070: 8134 80bd 111f 9c3f 1cb8 9f3e 07e1 b1be
00000080: 2a57 bc3b 94c8 573e b3d4 0d3e 402e 90bd
00000090: 5a2c bb3e b81a 33bd a45f c33e 353a 41bf
000000a0: 1dab 0f3f 76aa 49bf 446b 95bf a12f 1dbf
000000b0: faa6 7ebf 8a6a 5f3e 7fa4 813e 21d0 3dbe
000000c0: 5ef6 89be 9098 9e3f d430 b73c cf2e 67be
000000d0: 19db 2b3f 6e03 8abe cfb1 c7be de31 b43d
000000e0: 099b 81bf 03a1 92bf 3cc2 3e3e 1901 933f
000000f0: 5fda f03f 93d0 efbe ab66 913d f4c7 a13e
00000100: ef1a 793f d094 003d b4b2 4b3f 68ed 83bf
00000110: 31b1 fdbe 4a5c 29bf 11c6 88be f585 773e
00000120: 4daf 3640 54e9 ecbd 3406 0fbd 8fc5 a03e
00000130: c1f3 58c0 2d16 21bf c6bb 1dbf 6b45 1740
00000140: 1026 873f dd2f 88bd 72d6 603f e530 ddbe
00000150: 9043 9bbd fd6b 6e3f e067 c83e e07c 233f
00000160: 34df 203d 5010 be3e f724 0ebf 6657 cabd
00000170: 5eba f13f 37ef fb3f 2ce7 363f dee8 0f3e
00000180: a7ee ab3e 901e a3bd 9101 f23d 2622 a2be
00000190: 05ff 88be d8c4 513d cdd6 7abf 2b5e d5be
000001a0: 10d6 b33f 677c 02bd 8f87 073f 72b1 9cbf
000001b0: 185e abbd 6d59 723f d71f 293d 9f98 60bf
000001c0: da13 2ebf 02c7 af3f 8681 003b c9d4 6cbd
000001d0: 168f 183e fdba 993e 3d78 c2be 8ce6 023e
000001e0: 45b5 efbf 81f8 bf3d a760 5cbe 5813 dabe
000001f0: 1db3 14bf 07af 92bf e0d5 513d f202 f5be
00000200: 6ede ef3e 37f0 f33e c5d0 9f3f 210e fb3d
00000210: 9e76 e9bf 2102 f9be 1408 423e ca19 e43e
00000220: 0b1d b6bd b225 4fbc 9d9b fa3d f459 393e
00000230: 3f0f 0a3f 2e2f 633e e4b5 c83f de79 c03f
00000240: e3fc 00bf 124e 9e3d d147 713e cee7 043e
00000250: 57a8 f23b ee90 44bf a762 093d b08e 5cbf
00000260: 6cfe 86bd c7dc 7c3e af62 aebe 7235 42c0
00000270: 0f8d 3cbe b82a 5a3e b70d 4e40 4106 263d
00000280: a941 4c3f de8f 20bc 3a7d 533c f263 0d3f
00000290: 13de c33f 3d82 c1bd ad7c 3dbd 255a 43c0
000002a0: e340 a83e a2e5 bfbe af8d 803e eb72 2b3e
000002b0: c466 28bf 8f3c 8f3f 5dce 81bf 3cf7 79bf
000002c0: 1659 cdbe b0c0 263f ad8f 173d 85d3 cebc
000002d0: bc10 15c0 d474 a43f c705 213e 93e7 a6bd
000002e0: d546 e53e 4cba 70bf 3cb1 1440 3c51 4ebf
000002f0: dc3d 14be 523a 1d3f f3f1 6dbd 33a6 d1bd
00000300: 7281 1dc0 ac7c 343f 8446 d73f a809 f3bf
00000310: 534b 1bbd d741 89be 098d 883f b496 df3c
00000320: c095 883f 7d59 33bd c48f 95bd 7998 873d
00000330: 3d7d 94bf a6af 103f 616f 8e3f 4159 76be
00000340: d6d9 ea3f 6669 2abc f678 2dbf 00ba 503f
00000350: ff22 efbd cbae c33f 5ac2 043e 6f62 3d3f
00000360: 93b3 07bd 7ea3 8f3e 370e 0abf 5d7c b03f
00000370: f817 ce3e 1922 443d 9fc2 d6be 7fdb c4bd
00000380: 6bdb 81bd 8a14 473c 01d2 a43c 503b 27bf
00000390: 1bfc c3be 218f e63b b20b 1c3e 40e4 acbf
000003a0: 255f a2be c589 91bf be1e 2abb 5787 c63e
000003b0: 6e00 91bf 932d 503f a48c adbf c1c9 39bb
000003c0: f7e6 c9be 65f6 0dbf 0986 4fbd 59bf 3abe
000003d0: 793e 733f d97d 61be 05ff febe 52ed b93d
000003e0: afde 963f b4dc 713e edde 2f3e b916 b83f
000003f0: 3045 1f3e e45e 39be 9a94 c13d 77ad da3e

encoder.layers.0.ff.0.bias f4 [128]
-3.3173091 -1.5071157 -0.26103425 -1.4672303 -3.3017125 0.80406725 -0.19065931 -0.9764505
-1.9054707 -1.2457446 -0.91714656 -2.0769129 -0.71206313 -1.7325968 1.5063263 -1.3920156
0.31314707 -1.8238622 -1.1489028 0.016082795 -0.10215067 -2.2719584 -2.2697735 -1.4733415
-0.11192474 0.9981487 -0.87377393 -1.6741002 -1.6976308 -0.38805598 -2.5622325 -4.345051
-0.61755186 -2.5847535 -0.89813644 -2.737582 -3.214209 -0.1755394 -0.32042643 -0.7778277
-1.34013 -1.3340954 -0.58280355 -0.60892653 -0.571076 -2.2388604 -0.8552818 -1.5275557
-2.3562915 -2.3493283 -0.86739683 -1.7532314 -1.0082668 -1.8316909 0.41385278 -0.22280721
-1.2210824 -2.072032 -1.9794713 0.33206534 1.2184287 -0.36873934 -0.21588928 -3.387835
-1.4033914 -1.7448677 -1.7398947 -1.6443806 -0.5968512 -0.10285413 -0.69636106 -0.8257596
-0.45667222 0.17830417 -2.4194949 -1.7718087 -1.3510145 -2.3095033 -0.3930834 -0.2929546
-0.92329067 -1.2463171 -2.6196666 -1.4618626 -0.7209073 -1.622541 0.31099528 -0.40477532
-0.18466276 -1.5085045 0.0036205126 -2.7831912 -0.776422 -0.22298194 -0.033497613 0.25441018
-2.907815 -0.24633999 -1.3173819 -0.037039716 -1.7626795 0.14923075 -0.8858405 -1.0344937
-0.2408276 -0.2904097 -0.06468966 0.045911517 -0.09571937 -0.517209 -0.4687786 -1.6552387
-1.6526026 -0.19382253 -1.588002 -1.3413695 -0.99470216 0.75545985 -1.4084022 0.18893784
-0.6574925 -1.1789839 -3.3609717 -1.3037025 -0.47152108 -2.4815073 -2.0216684 -1.5573242
00000000: cb4e 54c0 2be9 c0bf 48a6 85be 34ce bbbf
00000010: 424f 53c0 5ad7 4d3f 323c 43be a9f8 79bf
00000020: 77e6 f3bf 8f74 9fbf 1eca 6abf 24ec 04c0
00000030: c549 36bf bbc5 ddbf 4dcf c03f 912d b2bf
00000040: d054 a03e 5174 e9bf 3f0f 93bf 11c0 833c
00000050: 5f34 d1bd c467 11c0 f843 11c0 7496 bcbf
00000060: cc38 e5bd ac86 7f3f a6af 5fbf ea48 d6bf
00000070: f74b d9bf 46af c6be 9efb 23c0 a80a 8bc0
00000080: e117 1ebf 9a6c 25c0 45ec 65bf 8b34 2fc0
00000090: 9ab5 4dc0 9ac0 33be ef0e a4be b71f 47bf
000000a0: 6189 abbf a3c3 aabf 9d32 15bf 9ce2 1bbf
000000b0: 0932 12bf 7d49 0fc0 bff3 5abf f286 c3bf
000000c0: 7bcd 16c0 655b 16c0 b80d 5ebf e369 e0bf
000000d0: e30e 81bf d974 eabf 83e4 d33e 9327 64be
000000e0: 6e4c 9cbf 2c9c 04c0 515f fdbf 7804 aa3e
000000f0: 79f5 9b3f 67cb bcbe 1412 5dbe 4ad2 58c0
00000100: 54a2 b3bf d357 dfbf dfb4 debf 107b d2bf
00000110: 3ecb 18bf 30a5 d2bd b844 32bf fb64 53bf
00000120: f1d0 e9be 5e95 363e 01d9 1ac0 a1ca e2bf
00000130: 0bee acbf e7ce 13c0 3a42 c9be 25fe 95be
00000140: c75c 6cbf 5287 9fbf 9ea8 27c0 501e bbbf
00000150: 618d 38bf 6caf cfbf c63a 9f3e b63e cfbe
00000160: 3c18 3dbe ad16 c1bf 1f46 6d3b ce1f 32c0
00000170: 98c3 46bf 6155 64be cb34 09bd 0d42 823e
00000180: a419 3ac0 8d40 7cbe f89f a8bf f5b6 17bd
00000190: 7b9f e1bf f2cf 183e 71c6 62bf 4a6a 84bf
000001a0: 839b 76be 95b0 94be 037c 84bd b70d 3c3d
000001b0: 8408 c4bd cf67 04bf c003 f0be ddde d3bf
000001c0: 7b88 d3bf 6a79 46be a643 cbbf ffb1 abbf
000001d0: cda4 7ebf d165 413f 8646 b4bf ec78 413e
000001e0: 6e51 28bf f2e8 96bf 291a 57c0 b9df a6bf
000001f0: 366b f1be 04d1 1ec0 0463 01c0 6656 c7bf

encoder.layers.0.ff.2.weight f4 [64, 128]
-0.010993646 0.527148 0.23361233 1.797071 -0.07200573 0.6543028 1.755301 1.1798638
0.07831804 -0.35203522 -0.3617361 1.2414091 -0.11834502 -0.32537472 -0.744848 -1.96498
0.6538301 0.7396974 0.630917 0.6419459 0.9318464 -0.006811766 0.4528935 -1.7848668
-0.1382085 0.17805731 0.8478143 1.9316077 0.2863478 0.83608353 0.22696991 -1.4311478
-1.5990862 0.25872695 -0.099729076 -1.104991 0.35239387 -1.153595 -0.35878167 -1.016527
1.6170567 -0.023911 0.11098589 1.2754976 -0.1499961 -0.33527565 -1.1299971 0.76198184
0.46479526 0.30822268 -0.09376576 0.69297093 0.212859 0.010207032 -2.0987065 0.108735785
0.39221385 -0.80976105 -0.45752665 0.43208998 -0.78378236 1.2533512 0.18129298 0.47824854
0.4994617 0.805964 -0.93301064 -0.093257144 -0.92176694 -0.048819102 1.291463 -1.0409973
-0.3895471 0.1748583 1.581803 -0.1270656 -0.12688433 -1.075323 -0.5007657 0.22606452
-0.10644775 1.3073382 0.37568268 -0.049664807 0.6915698 0.8648956 0.6541086 1.0819027
0.044726193 2.6530287 -1.2943308 0.10116507 -0.41943327 -2.132249 0.46773216 0.9620515
0.20650762 -0.095535 -0.4049744 -1.517231 -0.24177973 -0.12431189 0.054748435 0.34111962
0.6448821 1.1789019 0.6451553 0.22383122 -0.707959 0.26978526 0.5074578 0.21587628
-0.3574667 -1.4180996 0.09189224 0.43390757 -0.62109035 0.017142281 -0.38230366 0.34192562
1.5848287 1.0324917 -1.6659577 0.35142884 -1.58039 0.059076615 0.007274915 -0.28292733
-0.4391085 -0.49931923 0.555744 1.7306293 -1.7831506 -0.91450655 0.017015362 0.8185065
0.40551117 1.6022775 0.92454493 -0.6348641 -0.6069767 -0.5873472 0.2631924 0.09951648
0.7822474 0.24428765 0.41473806 -0.43844384 0.7298368 0.361285 0.63394547 -1.1613792
0.31985494 -0.045602288 1.45267 0.59725624 0.40424326 0.15280142 0.22625498 1.1112099
-1.4254208 -0.576898 -0.379564 -0.28503284 0.54252595 -0.3332834 -1.720713 -0.30609354
1.2627102 -0.5873367 -0.040083386 0.37158322 0.518878 0.30654475 -0.043819897 1.2795963
0.6275003 -0.4160017 -0.9064847 1.164102 -1.2487298 -0.3378691 -1.537599 -0.5571554
-0.4914405 0.40592754 0.47132248 -1.3470548 -0.746603 -1.3418688 0.28527045 0.87602824
0.40382418 2.056874 -0.071197964 -0.98962134 1.8279405 0.23340052 -1.4595006 -0.32019487
2.514224 -1.0746047 0.9681558 -0.73189074 -0.31991756 -0.10531037 -0.22382833 -0.11007253
0.082580075 0.57264775 0.33680904 0.796056 0.10527807 -0.8532859 0.21133398 1.3398107
0.60528976 0.8434416 0.3314884 0.09572622 0.24013628 -1.1964339 -0.97217214 0.62917024
-0.56869566 0.15075955 -0.19362856 1.2417908 1.1994817 2.1766589 1.1397942 3.112956
0.6166646 -0.3052916 -2.0829022 0.45216584 0.3990379 0.47754866 -2.4399617 -0.6599438
-0.8973248 -0.580249 -1.9087596 -0.6031536 0.59311837 0.122642316 0.78315264 1.2486851
0.35775888 -0.196658 -1.359781 1.9549637 -0.35692355 -1.3608248 1.1268858 0.9106963
00000000: b21e 34bc 2cf3 063f 1238 6f3e 6c06 e63f
00000010: bd77 93bd 6380 273f b4ad e03f c705 973f
00000020: 3565 a03d f63d b4be 7935 b9be 7ee6 9e3f
00000030: e05e f2bd 8497 a6be 5cae 3ebf 7784 fbbf
00000040: 6961 273f cf5c 3d3f c783 213f 9156 243f
00000050: 7c8d 6e3f 3c35 dfbb a8e1 e73e 8476 e4bf
00000060: 8786 0dbe a854 363e 5c0a 593f ec3e f73f
00000070: 2e9c 923e 9209 563f cd6a 683e da2f b7bf
00000080: dbae ccbf dc77 843e c23e ccbd 5870 8dbf
00000090: f86c b43e 00a9 93bf 3bb2 b7be 8f1d 82bf
000000a0: b7fb ce3f 00e1 c3bc 924c e33d 8143 a33f
000000b0: 9498 19be 40a9 abbe bfa3 90bf 3e11 433f
000000c0: a5f9 ed3e 5dcf 9d3e 4308 c0bd 8b66 313f
000000d0: b6f7 593e 653b 273c 3551 06c0 deb0 de3d
000000e0: 41d0 c83e 804c 4fbf ef40 eabe e63a dd3e
000000f0: f6a5 48bf d06d a03f dea4 393e fedc f43e
00000100: 72b9 ff3e a853 4e3f c9d9 6ebf 9afd bebd
00000110: ebf8 6bbf 8af6 47bd a94e a53f 663f 85bf
00000120: b872 c7be 0e0e 333e 8578 ca3f 7c1d 02be
00000130: f7ed 01be 2fa4 89bf 2e32 00bf 757d 673e
00000140: 4701 dabd dc56 a73f 7b59 c03e 536d 4bbd
00000150: b80a 313f cc69 5d3f a973 273f ca7b 8a3f
00000160: d032 373d 39cb 2940 a2ac a5bf a22f cf3d
00000170: f5bf d6be c576 08c0 977a ef3e 0249 763f
00000180: bc76 533e dba7 c3bd ce58 cfbe a034 c2bf
00000190: 1b95 77be 3b97 febd e53f 603d 3ba7 ae3e
000001a0: fe16 253f 42e6 963f e628 253f 0334 653e
000001b0: cd3c 35bf 4b21 8a3e c1e8 013f ac0e 5d3e
000001c0: e005 b7be 4a84 b5bf 0032 bc3d 2229 de3e
000001d0: c7ff 1ebf f86d 8c3c 4ebd c3be e010 af3e
000001e0: abdb ca3f b028 843f 1a3e d5bf 7bee b33e
000001f0: 384a cabf 52fa 713d 6962 ee3b dadb 90be
00000200: d4d2 e0be c5a6 ffbe 3d45 0e3f 4385 dd3f
00000210: 473e e4bf 1a1d 6abf cd63 8b3c a489 513f
00000220: 299f cf3e 6e17 cd3f faae 6c3f 7486 22bf
00000230: d362 1bbf 635c 16bf 27c1 863e 4ccf cb3d
00000240: 5e41 483f 8b26 7a3e 8c58 d43e b67b e0be
00000250: 96d6 3a3f 59fa b83e 404a 223f 13a8 94bf
00000260: 07c4 a33e 77c9 3abd 17f1 b93f c9e5 183f
00000270: f9f8 ce3e fa77 1c3e 63af 673e 203c 8e3f
00000280: 3074 b6bf 96af 13bf 3656 c2be d3ef 91be
00000290: fbe2 0a3f 1fa4 aabe 5340 dcbf 4bb8 9cbe
000002a0: 7da0 a13f b35b 16bf 7a2e 24bd 2840 be3e
000002b0: 30d5 043f 6ff3 9c3e 7e7c 33bd d0c9 a33f
000002c0: dca3 203f 2dfe d4be 620f 68bf 4b01 953f
000002d0: 61d6 9fbf 2efd acbe 0bd0 c4bf bca1 0ebf
000002e0: 179e fbbe bcd5 cf3e 2e51 f13e 4b6c acbf
000002f0: 6021 3fbf 5bc2 abbf f80e 923e 6343 603f
00000300: 0bc2 ce3e d3a3 0340 3dd0 91bd d357 7dbf
00000310: f4f9 e93f 8c00 6f3e ead0 babf 95f0 a3be
00000320: 0ce9 2040 a68c 89bf 0fd9 773f 315d 3bbf
00000330: 3ccc a3be f7ac d7bd 4133 65be b56d e1bd
00000340: be1f a93d 0b99 123f 3c72 ac3e 53ca 4b3f
00000350: 079c d73d f270 5abf ef67 583e eb7e ab3f
00000360: 45f4 1a3f caeb 573f d9b8 a93e 1c0c c43d
00000370: 49e6 753e bf24 99bf 46e0 78bf 4d11 213f
00000380: 0a96 11bf b660 1a3e 9146 46be 00f3 9e3f
00000390: 9e88 993f 614e 0b40 c7e4 913f ac3a 4740
000003a0: bbdd 1d3f 2e4f 9cbe 454e 05c0 4882 e73e
000003b0: b24e cc3e 4281 f43e 5528 1cc0 14f2 28bf
000003c0: 14b7 65bf 338b 14bf 3c52 f4bf 4668 1abf
000003d0: 9bd6 173f e52b fb3d b17c 483f ead4 9f3f
000003e0: 2c2c b73e b760 49be 4e0d aebf 403c fa3f
000003f0: afbe b6be 822f aebf cb3d 903f 6523 693f

encoder.layers.0.ff.2.bias f4 [64]
-1.5022513 0.080596626 -3.186726 5.169517 -0.40502453 6.1802764 -3.2595265 -2.3743048
-9.427369 -0.9628246 -0.548222 -0.2547988 21.40464 1.593909 -2.2038713 -14.829285
0.47496343 0.061707 -1.6107416 6.2944736 0.90390193 -1.4967551 2.3404615 1.0981741
-0.24208798 -3.4060767 -0.7002554 -2.1630158 -0.77730685 -7.02362 1.0272909 -4.802774
-0.41819343 2.2582002 -1.3275338 -3.43129 1.9529755 -2.1759849 2.6809907 -0.7676886
-0.34698704 -0.42743316 -6.539056 -0.2586067 6.4563637 -0.9310023 5.807518 3.1425805
4.965233 -5.2587266 0.42015815 -0.7585928 0.27153388 1.3722693 -2.1330934 0.2689776
0.04332287 2.6206245 3.4133446 4.6217604 2.1404681 3.2931664 2.957383 0.32321483
00000000: c549 c0bf d80f a53d 52f3 4bc0 af6c a540
00000010: 605f cfbe d3c4 c540 159c 50c0 9cf4 17c0
00000020: 81d6 16c1 ac7b 76bf 4758 0cbf fd74 82be
00000030: b43c ab41 3605 cc3f 3a0c 0dc0 c044 6dc1
00000040: 682e f33e 7bc0 7c3d c82c cebf 546c c940
00000050: 1e66 673f ac95 bfbf 1fca 1540 f890 8c3f
00000060: e9e5 77be 29fd 59c0 f043 33bf da6e 0ac0
00000070: 95fd 46bf 7fc1 e0c0 457e 833f 53b0 99c0
00000080: 731d d6be 5a86 1040 a1ec a9bf 419a 5bc0
00000090: 1afb f93f 5643 0bc0 5a95 2b40 3d87 44bf
000000a0: 49a8 b1be 85d8 dabe f23f d1c0 1968 84be
000000b0: 889a ce40 2b56 6ebf 30d7 b940 0a20 4940
000000c0: 30e3 9e40 7d47 a8c0 f81e d73e 2333 42bf
000000d0: 7d06 8b3e 85a6 af3f 9a84 08c0 6fb7 893e
000000e0: 5273 313d 50b8 2740 3d74 5a40 76e5 9340
000000f0: 6efd 0840 3dc3 5240 c345 3d40 6a7c a53e
