checkpoints/epicon_comp/GM12878/best_model.pt (torch, 578018 bytes, 54 tensors)

encoder.pos f4 [1, 15, 64]
00000000: 8d11 76bd 50a0 ffbe 6515 95bf ec16 44bf
00000010: e820 1c3f 87b7 a4bd 7e17 c5be ba58 e3be
00000020: 1d40 bfbe d3a5 b3be 23cc 8b3e 02ae d63e
00000030: de93 053e f5c1 923d d87f 273e 43f3 1bbd
00000040: 1b1f 9abe f37d 61be dbb7 273f 314f 793e
00000050: 6562 22be 60de 03bf 9778 b73d 8814 25bd
00000060: dfad 813e 87f9 39bd bee9 2d3e ed56 0c3e
00000070: 5ea8 5ebd d32b 053e 7d48 26bf e291 7d3d
00000080: cd0c 69bf 9729 093d 4aab 34be 86da 673e
00000090: 3962 bbbf 22f7 17be 0ddd 18be f548 d73e
000000a0: 02f8 ad3e 0c54 eebd c96e 3cbe 08a6 c2be
000000b0: 432b 13be a13e 7abe 841f 293e edf2 aa3e
000000c0: 179d 86be 217d ad3d 5fea 15be 0270 ce3c
000000d0: ef38 7c3f 56cc 203f 48cd 38be 5140 b7bd
000000e0: d560 f43d 8d51 293d 74f0 933f 5706 cebd
000000f0: 555c c53e b1b0 19be f663 09be 0979 4bbd
00000100: 91f6 92bd 821c ddbe 5486 ddbe 9d62 5fbe
00000110: 97fa be3e fe80 6fbd 2315 843d d9bf 9dbe
00000120: 7043 17bf 86e3 b1be 7c2b 973e 8304 063f
00000130: 4275 74bf d370 9d3d b417 a73c ff84 4b3c
00000140: c754 8fbe 8778 59be db65 cfbf 3a87 753e
00000150: cfab 07be a40a a0be 8c54 e13d ce17 e6ba
00000160: c817 8f3e 5811 9dbc d698 303e 88a5 68be
00000170: 0187 fcbc 3cbe 4fbf d1d8 3fbf 344d a23d
00000180: bd36 aabf 2525 1f3d 49cf 26be c73b 1b3e
00000190: 4c2e 32be a532 09be d3a5 13be 2576 893f
000001a0: 4723 963e e08f aa3c 06d4 30be 459d c6be
000001b0: 10b9 903e d46f af3e 58f0 963e dad3 b23e
000001c0: 2cee 95bd 3b37 693d dfeb eebd f75e 313d
000001d0: c635 39bf e5a7 b63d 7dc3 83be 8b25 a3bd
000001e0: 5257 fa3d f1f6 063f 40d2 903f 84db 2ebe
000001f0: 668d c43e 065f 28be 3756 f6bd c890 b5bc
00000200: c489 debd 7099 04bf 4adf 7ebf f7e0 fd3e
00000210: 85e4 2c3f 268b dabd 562d 053e 4cef cabe
00000220: 7cd3 77be 1084 abbe ae72 963e d225 343f
00000230: 00bf dcbe ef9c 4d3d 1589 ec3e f89c afbc
00000240: 4a11 90be 57d6 5bbe 150f 44bf ad97 863e
00000250: 2924 13be e218 0fbe ea82 b03d bdaf 13bc
00000260: 37eb 903e 6403 07bd f082 243e 2a4c efbe
00000270: dbd0 0ab9 ea32 10bf b80d 4f3f b4cb 7a3d
00000280: e02c 62bf 3904 423d 3c18 31be dc08 233e
00000290: c797 b5bd afb9 0abe 78e1 14be 73ae 6d3d
000002a0: 31f7 e4be 32ff 363e fef9 4fbe 9afb b9be
000002b0: 3ae0 963e aa45 6d3f ea5a 98bd a196 bdbd
000002c0: ffd9 073e 858f d93d 4f80 07be a4a5 8c3c
000002d0: d4c7 8e3f fc59 c23f f348 22bd e8ad cbbd
000002e0: 8d37 f73d fdc7 943e 6369 df3c 6393 153e
000002f0: cf95 d33e eecb 38be 4ee9 fbbd 702b 31bd
00000300: acb8 e8bd 9097 02bf 3e87 883f 803d 2b3f
00000310: a801 6dbf 66f2 babd 48af ce3e 89cf dbbe
00000320: d8d1 0dbf 5055 9fbe 497d 953e 2bf3 113f
00000330: 22d5 043f fe2e c93d d6b4 853e 635f b3bd
00000340: 5473 8bbe cb73 54be 9b40 2cbf a237 7d3e
00000350: 31e6 1cbe 4fa7 ab3d 58b0 ca3d 2045 2cbd
00000360: 4beb 8c3e 8bcc 95bc 3c5c 303e 891a d8bf
00000370: 3644 a3bd 5adf de3d 1239 703f 930c ac3d
00000380: 08ac b0bf 9318 683d 83cb 22be 2d32 093e
00000390: dd52 1fbe 339a 08be 1cd6 0abe 8647 783e
000003a0: db10 713e b6a8 7ebe 1886 41be cfa5 b3be
000003b0: fbba f3bd 1135 463f f256 373e eefb 843d
000003c0: d92f 86be 9a4e 913d 41c0 fbbd 2072 963b
000003d0: 9534 893e 1077 c83e 91ba 673e 4919 04be
000003e0: 5598 313e 4c21 4dbe 7ab4 543f 71e6 0abf
000003f0: 7502 b33e 9946 37be 46f4 e4bd 0ba5 72bd
-0.06007533 -0.49926996 -1.1647154 -0.76597476 0.6098771 -0.080428176 -0.38494486 -0.4440363
-0.37353602 -0.3508745 0.2730418 0.41929632 0.13044688 0.071659006 0.16357362 -0.03807379
-0.30101857 -0.22020702 0.65514916 0.24346615 -0.15857847 -0.5151119 0.089585476 -0.040302783
0.25327966 -0.045403983 0.16983697 0.13705035 -0.054359786 0.13004999 -0.6495436 0.061906703
-0.9103516 0.03348693 -0.17643467 0.22641954 -1.463935 -0.14840367 -0.14928074 0.4204785
0.33978277 -0.116371244 -0.18401636 -0.38017297 -0.14371972 -0.24437954 0.16515929 0.33388463
-0.26291725 0.08471132 -0.14640187 0.025199894 0.98524374 0.6281179 -0.18047059 -0.08947814
0.11932532 0.04133754 1.1557755 -0.10059803 0.38547006 -0.15008809 -0.13417038 -0.049675975
-0.07175935 -0.43185812 -0.43266547 -0.21814962 0.3730056 -0.058472626 0.06449344 -0.3081043
-0.59087276 -0.347439 0.29525363 0.52350634 -0.9549142 0.07687535 0.020397045 0.012421845
-0.27994367 -0.21237384 -1.6202959 0.23977366 -0.13249134 -0.31258118 0.11002454 -0.0017554702
0.2794783 -0.01917331 0.17245802 -0.22719395 -0.030826094 -0.8114965 -0.7494021 0.079248816
-1.3297955 0.038853783 -0.1629001 0.15159522 -0.17400473 -0.13398226 -0.14418726 1.073918
0.2932379 0.020820558 -0.1726838 -0.38791862 0.2826619 0.34265006 0.29480243 0.34927255
-0.07320818 0.056937438 -0.116660826 0.043303456 -0.72347677 0.08918742 -0.25735083 -0.07966145
0.12223686 0.5272055 1.1314163 -0.17075926 0.38389128 -0.16442499 -0.12028163 -0.022163764
-0.108661205 -0.5179663 -0.9955946 0.49585697 0.67536193 -0.10671072 0.13005576 -0.39635694
-0.24201769 -0.33499193 0.2938437 0.7037021 -0.4311447 0.05019849 0.46198335 -0.021437153
-0.2813819 -0.21468483 -0.76585513 0.26287594 -0.14369263 -0.13974336 0.0861872 -0.009014067
0.28304455 -0.032962218 0.16065574 -0.46737796 -0.0001323851 -0.5632769 0.8088031 0.061229423
-0.88349724 0.04736731 -0.17294401 0.15921348 -0.0886684 -0.13547395 -0.14539135 0.058027696
-0.44719842 0.17870787 -0.20310208 -0.3632477 0.29467946 0.92684424 -0.074392155 -0.09257246
0.13266753 0.10623077 -0.1323254 0.017168827 1.1154733 1.5183711 -0.03962035 -0.09945279
0.12071142 0.2905883 0.027271932 0.14607005 0.41325232 -0.18046543 -0.12300359 -0.043254316
-0.11363348 -0.51012516 1.0666273 0.66890717 -0.9258065 -0.09128265 0.40368104 -0.42931774
-0.5539832 -0.31119776 0.29197147 0.5701167 0.51887715 0.09823416 0.2611453 -0.08758428
-0.27236426 -0.20747297 -0.6728608 0.24728253 -0.15322186 0.08381521 0.09896916 -0.04205811
0.27523264 -0.01828601 0.17222685 -1.6883098 -0.079719946 0.10882445 0.9383708 0.08400836
-1.38025 0.05666406 -0.15897946 0.13398047 -0.15558954 -0.13340072 -0.13558239 0.24246034
0.23541586 -0.24869046 -0.18898809 -0.3508744 -0.11900898 0.7742472 0.17904261 0.06493364
-0.2620838 0.0709507 -0.12292529 0.0045912415 0.2679793 0.39153337 0.22629763 -0.1290027
0.17343266 -0.20032233 0.83087885 -0.54257876 0.34962812 -0.17898025 -0.11179404 -0.05923943

encoder.embed.weight f4 [64, 6]
00000000: b52c cc3c 7986 233c 72a1 f03c 85e2 1d3c
00000010: 67b0 f539 dc50 0fbb 3526 053d 04bb 52bc
00000020: 63cb 1b3c 6b2a 6a3c cebe b1bb 9409 90bc
00000030: 24ac 0d3e 1b1f 0cbe f090 58bd 6d30 f53d
00000040: 81f5 fabd f405 1dbd a13f 85be 4d8d f83e
00000050: f587 273f f153 c1bd e9ff 7f3d 6667 1c3f
00000060: 6ccf cd3e e065 383e 4324 e23e 64d9 46bf
00000070: daad 2cbf 19d6 ba3f 932a 13bc c7d3 83bc
00000080: 1b87 d43b a53d 83bc 336b 90bc 9a99 8cbc
00000090: c6bf 1bbf ec59 f1bf 80ff 36c0 528b adbf
000000a0: 0224 853f a89a b63e bba1 923b f1ac 833b
000000b0: e035 983c d48d 5b3b 56ef 61bc ae1e 50bb
000000c0: 75e7 51bd 752e aa3c d75e 7a3d a5b3 113e
000000d0: c0d2 84bc a7b5 043e bcb0 90bb c3b6 ffba
000000e0: 48ff 4b3c d1df c3bc c692 d0bc 4385 483c
000000f0: d268 b6bc ef54 68bb 62cc e43a e12c f0bc
00000100: 2582 cebc 2db2 063c 0c95 143f bc85 343e
00000110: 21ee 473f bfdb 17bf 49bb ad3f 79ed 1dc0
00000120: 16ec 1b3e b741 753d 5cfb 5c3d 8eb9 21be
00000130: 0f43 c2bc d6c2 2f3e dcac 4bbc 880d 753b
00000140: cc6a 953c af3e a2bc 8bf3 b0b9 b047 a1bb
00000150: aa5c 4fbc ac8a dabc 39ed 0b3c 093c e93c
00000160: e240 b8bb 34ac 6abc 3d55 853b 2c07 73bb
00000170: 1918 a53b 8692 9d3c e8fd d43a bdfa 6d3c
00000180: 07da b2bb df26 333b d3fa ddbb f3f6 a5bb
00000190: 3f35 95bc 2cf8 573b 8eb5 67bc bbd7 11bc
000001a0: 3f6b 823c 768b a8bc 3281 d1bc 9e0c 163c
000001b0: 234d 4abe 31c1 f03d eb5e c9be 7d47 813e
000001c0: 823d c13c 7105 a9be 17ad 703b 3fe1 0fbc
000001d0: d758 1c3b 22c1 a23c 2e73 4abc 8f9e 1abc
000001e0: 203b b1bc 5e4a 62bb 3db2 a33b be26 acbc
000001f0: 2b91 b4bc 3a1b b83b a511 a1bc cf67 89bd
00000200: e1b8 2d3a 3b37 813e 7adf c2bd fd14 073e
00000210: 0379 c0bc 2b66 f5b9 c5d5 363c 0ecc c8bc
00000220: 5268 debc 51dc 7b3b 3abf 243c 2cef 033c
00000230: e1f8 953b cd71 74bb ed0a 1d3b 6dd2 dbbb
00000240: 65bf a5bc 92d5 1cbc 6628 d33b c2c5 cfbc
00000250: d4ef bdbc 080b a13b 9243 2abc fcae adbb
00000260: 2496 2b3b 8d46 7fbc fede 31bb dc86 e3bb
00000270: 02de 8e3a 0cf7 063b b92c 37bc 04bd bdbc
00000280: 848f 62bb eded e03a d990 58bd 5862 71bd
00000290: 2777 15bc 03cc 883c 692a c0bb 72af f6bc
000002a0: 54ac d3ba 3a29 e7bb 0ad8 5bba f700 68bc
000002b0: ff42 f0bb aa62 9c3c 1b3d 663d 50d2 ce3c
000002c0: d1f3 343c 9513 943c 6f02 8abc 8750 733d
000002d0: d485 7e3b a5b1 f43c 30bb 863b 742a b73c
000002e0: 658b 34bc 51a8 0fbd b411 fc3a f6da 46bc
000002f0: 685d e6bb 3db3 7fbc 0c14 c3bb b202 c2bb
00000300: a25f 06be e00c 443d c192 8ebe 7041 553e
00000310: 26ed 003e 7562 8cbe 0214 57bc 0677 283b
00000320: fa55 363c 0d54 49bc cfeb afbc 2214 413c
00000330: 803f 66bc a309 0bbc 62d6 5d3c 5689 c8bc
00000340: dc6e c7bc 858e 353c ae21 aebb 7178 19bc
00000350: 71a6 d7bb efe4 d6bc f517 ff3b 5168 b73b
00000360: 6cdf 35bd 0209 cdbc 19ce 85bb d722 873d
00000370: b9d4 c2bc 68b5 a23c 02ae 8bbc b27e 19bc
00000380: 5c90 393c 94ad e8bc 6c78 cebc 7f86 343c
00000390: cf23 23bc 077b b9bb b97a 573c 6e55 99bc
000003a0: 5b69 c9bc c2e7 093c 8df3 62be 2656 a63e
000003b0: 3fef d33e cf40 afbd 97ff a83e e665 72bd
000003c0: 6a1a 8b3c 45c3 d33b baea 883b 6bf6 393c
000003d0: 98bd 62bc 5cd7 523c 7323 97bd 1aa6 ca3f
000003e0: a55c 02bf a98c 423d a880 2e40 ae27 253f
000003f0: 7fb6 153c 1eff a1ba fa2a b43b 83f3 57bc
0.024923662 0.009980791 0.029373858 0.009636526 0.00046861471 -0.0021868264 0.03250714 -0.012861971
0.00950894 0.01429234 -0.005424357 -0.017582692 0.13835198 -0.13683741 -0.0528726 0.11972127
-0.122538574 -0.038335755 -0.26025108 0.48545304 0.6544183 -0.09439839 0.062499914 0.61095273
0.40197313 0.18007612 0.4416829 -0.7767546 -0.67452776 1.4596587 -0.008982318 -0.016092194
0.0064858324 -0.016020605 -0.017629242 -0.017163087 -0.608395 -1.8855567 -2.8593445 -1.3558142
1.0401614 0.35664868 0.004474846 0.004018419 0.018580377 0.0033501284 -0.013789972 -0.0031756568
-0.051246125 0.020774106 0.061125603 0.14228685 -0.016213775 0.1295992 -0.0044155996 -0.0019509423
0.0124510005 -0.023910435 -0.025460612 0.012238803 -0.02226678 -0.0035451015 0.001745593 -0.029318275
-0.025208542 0.008221191 0.5803993 0.1762914 0.7809773 -0.5931968 1.357278 -2.4676192
0.15226778 0.059877124 0.053950652 -0.1579344 -0.023713617 0.17164168 -0.01243135 0.0037392098
0.018239401 -0.01980528 -0.0003375079 -0.004921876 -0.01265637 -0.026677452 0.008540445 0.02847101
-0.005622969 -0.014323283 0.004068999 -0.0037083132 0.005038273 0.019234907 0.0016249986 0.014525113
-0.00545812 0.0027336401 -0.0067742853 -0.005064839 -0.018213866 0.0032954318 -0.014142407 -0.008901532
0.01592028 -0.020574313 -0.0255743 0.009158282 -0.19755988 0.11755598 -0.3933023 0.25249854
0.0235889 -0.33011964 0.0036724263 -0.00878173 0.0023856664 0.019867484 -0.012356563 -0.009437217
-0.021634638 -0.003452919 0.004995613 -0.021014567 -0.022041878 0.00561848 -0.019661734 -0.06709253
0.00066269754 0.2523745 -0.09515281 0.131916 -0.023495203 -0.00046806163 0.011159365 -0.024511363
-0.027149353 0.003843088 0.010055358 0.0080526285 0.004576788 -0.0037299276 0.002396281 -0.0067084343
-0.020232866 -0.0095724035 0.006444025 -0.025362853 -0.023185648 0.004914645 -0.010392087 -0.005300401
0.002618202 -0.015580785 -0.002714097 -0.0069435667 0.0010899904 0.0020594029 -0.011180096 -0.023161419
-0.0034570405 0.0017160751 -0.052872512 -0.05893168 -0.009122646 0.016698843 -0.0058644307 -0.030112956
-0.001614938 -0.007054475 -0.00083863793 -0.014160386 -0.0073322053 0.019090015 0.05621062 0.02524677
0.0110444585 0.018075744 -0.016846864 0.05940297 0.0038837092 0.029869864 0.00411167 0.02235911
-0.011019562 -0.03507263 0.001923135 -0.012137165 -0.007030178 -0.015606699 -0.0059533175 -0.0059207315
-0.13122419 0.04786384 -0.2784634 0.20825744 0.12590465 -0.27418867 -0.013127329 0.002570571
0.011128897 -0.012288106 -0.021474747 0.011784585 -0.0140532255 -0.008486184 0.013539882 -0.02447955
-0.024344854 0.011081343 -0.0053140735 -0.009367094 -0.0065811207 -0.02623221 0.0077848383 0.0055971523
-0.044402525 -0.02502871 -0.0040834066 0.06598442 -0.023783075 0.019861892 -0.017050747 -0.009368585
0.011325922 -0.028403081 -0.025203906 0.0110183945 -0.009957268 -0.005660418 0.013151818 -0.018717494
-0.02458637 0.008417072 -0.2216322 0.324876 0.41393468 -0.08557283 0.330075 -0.05917921
0.016980369 0.006462487 0.004178372 0.0113502545 -0.013839148 0.0128687285 -0.07379808 1.583194
-0.50922614 0.047497425 2.7266026 0.6451367 0.009137749 -0.0012359356 0.0054982873 -0.013180616

encoder.embed.bias f4 [64]
00000000: 2e4a c23d fa0e f73e 8106 2fbe 81e6 073e
00000010: d9a9 703e e997 c03d fa56 95bd 7f45 bd3e
00000020: d702 343e ced2 9f3e 591f a5be bbce aabe
00000030: 569d 76bd ce94 b8bd 202b 94bd 958e 833d
00000040: e9e3 883e a66a 323e d1f7 203e 8b03 85be
00000050: dc75 d93d 6682 533e 0b76 eabd c255 15bc
00000060: f348 99be a1cd 9e3c ea09 44be c12e 923e
00000070: 90a9 dd3c 701f 953e a0b1 513d 528a 94bd
00000080: bd88 94be e628 9abd 8162 023e e3a1 42be
00000090: 91bb 963e d756 d43d 263c cb3d 4f94 4dbe
000000a0: 2ac1 01be 5565 8e3e 0cc1 323e 992b c03e
000000b0: 8b63 debd 88d1 c93d b631 2bbe 961e 18be
000000c0: 4c89 00bd fffa a9bd 3e85 c83d 481d 19bd
000000d0: edbf a7bc 69c7 85be 7b8e 41be a671 953d
000000e0: 16e0 16be 8faa 10be b272 f33c e6f9 373c
000000f0: 047b c4be 9781 173e 0baf b73d f234 033d
0.09486805 0.48253614 -0.17092325 0.13271524 0.23502292 0.094039746 -0.0729198 0.36967084
0.17579208 0.3121552 -0.3225048 -0.33360848 -0.06020864 -0.09012757 -0.07234788 0.0642368
0.26736382 0.17423496 0.15719534 -0.25979266 0.10618183 0.20655212 -0.11448296 -0.009114685
-0.29938468 0.01938516 -0.19144407 0.28551295 0.027058393 0.29125547 0.051194787 -0.07252945
-0.29010573 -0.07527332 0.12732889 -0.19007067 0.29439977 0.10368126 0.09923582 -0.20076106
-0.12671342 0.27811685 0.17456454 0.37533262 -0.1085883 0.09854418 -0.16718182 -0.14855418
-0.031380937 -0.08299827 0.09791039 -0.03738144 -0.02047726 -0.261287 -0.18902008 0.07297067
-0.1473392 -0.14127563 0.029717777 0.011229014 -0.38375103 0.14795528 0.08968934 0.032032914

encoder.layers.0.self_attn.in_proj_weight f4 [192, 64]
00000000: 827e 813c 1780 113d d33d d43e ad67 43bd
00000010: 0989 143e 2908 33bb b3a3 9bbc cbec 83ba
00000020: f04d 47be 57c8 a03b dc3a 6bbc aadf ca3d
00000030: df2e 1dbe 222b e8bc 4de5 88bd 8910 e63d
00000040: 678a 96bc 0dd2 97ba 0212 f13d 0f78 0dbb
00000050: 0164 0abc 7cd4 ab3e 139b 14bd 3b98 973a
00000060: a414 403a fe53 1dbc 59f6 6ebc cda0 aabe
00000070: b353 08bd 3bcc 33be 7fce 98bd 199c ef3b
00000080: 382b c9bd 073b 57bc 3845 1cbc e746 0c3d
00000090: a8bc 7bbe 1bf2 e93a afbf 27bc 35f6 253e
000000a0: 4f4d 0c3e 1f9f 71bc 1042 ff3c 4ec7 233d
000000b0: 8a1f 6a3c ea64 1cbd 3041 a1bd 7707 2c3d
000000c0: 827f 9abd cf16 813c 7ed8 3fbc b168 3e3c
000000d0: d074 f23d 5a78 75be f6d6 02bd 9f5d 3c3c
000000e0: 15c2 a73c 78d6 023d 96b9 903e 309a 87bd
000000f0: 1f72 50bc 6aa9 aebc 07d2 4abc 351a 053c
00000100: c9e7 863c c6a8 623d 79fe f1bd 1a90 19be
00000110: 4dc5 5abc 4227 233d f7c3 66bd a059 843a
00000120: f376 30bd 9ce4 093d d5be cbbc b509 0ebe
00000130: cae5 56bd 5836 14bd df5b a6be f73b 6a3c
00000140: 7c6f 9b3d d6af ad3b 845b a83d bd04 4c3d
00000150: c07c 0cbd 9b0d 53be eff6 9cbc 3609 413c
00000160: f75a fcbb d557 f83b 3a68 bdbd 9b33 76be
00000170: 8f62 ac3c a70a 7bbe 5c10 dd3e 64e0 493d
00000180: 9ac9 02bc b56d 62bc 9527 fa38 7a1c d9bc
00000190: 2a94 9d3d 13f6 ae3b 644a ceb9 8faa cb3d
000001a0: 7ddc 883e 360c 3c3d 7234 4a3d 4a95 ac3b
000001b0: d468 bcbc 915d b2bd 0421 2ebf a5ed 993e
000001c0: d0f5 8f3d f532 23bd a660 d73c 93e9 d73a
000001d0: d7b3 a73d 8f94 1abe 7ba5 b73c 6ec4 17bd
000001e0: 650c e4bc be5c f53e b72c 7cbd 5500 613d
000001f0: 9be7 06bd 8b9b 24bc e1da 5c3b 60d8 7f3d
00000200: 911a 98bc 3a74 853d a661 21bd 98ef cb3d
00000210: a840 543d ab3a 853d 3751 823c c264 4abc
00000220: 09e2 6ebd 8c6f 843c eb7b 823c 6ecb 833d
00000230: e926 433d 6114 94bb ddfd a4bd 6182 efbc
00000240: 0d5c 133d aeb1 853d 17c0 013d c003 273d
00000250: 9f4e 523c d5af 73bd e3b7 c23c 1af5 2dbc
00000260: 2ce3 eb3c dd6c 473c 3940 1dbe 5f89 7c3d
00000270: 12c0 593c b286 f73d d51a 69bd 3db5 ce3c
00000280: a1ab 9abc d3b6 263c 90e0 1d3d 2d79 3b3b
00000290: 2ade af3c 501c ed3b cc71 883d f391 0dbd
000002a0: aab9 b1bb cd95 3cbd 9eb9 163b b7e1 2a3c
000002b0: b1db ce3c f06c 853c 242b dbbd b507 2a3c
000002c0: 8192 48bd da02 77bd 1f35 113d a4ed 9e3c
000002d0: 58b2 14bd 399d 8abd 4d2f 9fbc abed 6c3b
000002e0: bd39 713d 2f2c ba3d 95e4 26bd df6f 0ebd
000002f0: af2d 8a3d 5083 173d e5f6 d93c 58cf cf3d
00000300: 4087 32be c4a8 cbbd 1e55 223d 4f04 793b
00000310: 40d1 093a e5bf 723d b1bc e03c 4b08 633d
00000320: 267b 49bd 7f3f 7abb 3287 b23a 0b79 bd3c
00000330: 9dfa 94ba c021 483d 763e 5bbc e98b 9fbc
00000340: 5015 243d 5103 a53c 6520 34bb fae0 c5bc
00000350: 5e2b ec3b f55f afbc cdde bd3d cf67 e4bc
00000360: e26b 983c 8a93 2bbd 2179 7a3c 38c9 463c
00000370: e4ed 993c 671d fcbc 1cc2 a7bb 7e9c 1bbd
00000380: 780a 34bc 1c3e cb3c 7b8c bc3c 219e cdbc
00000390: 001d 553d a32a f33b a28e 233c 15d0 073d
000003a0: aab8 a3bc 9869 f2bc 99f6 7cbd adf9 1bbe
000003b0: 680a 74bb 4ef5 4b3b f475 623d 765d 90bd
000003c0: c2ba 18bd 3bac a3bd c863 7b3b ea05 16bd
000003d0: f19e ecba 4beb 283d 211a 6f3b 6f7e 813b
000003e0: 4031 e4bc 66c1 4a3c 43bc 15bd e688 26bd
000003f0: fd6c a03d aab6 2b3d e03a f83b 6569 3c3d
0.015807394 0.035522547 0.41453418 -0.047706295 0.145054 -0.0027318096 -0.018998956 -0.0010065077
-0.19463325 0.004906695 -0.014357295 0.09905942 -0.15349911 -0.02834088 -0.06684361 0.112336226
-0.018376542 -0.0011582986 0.11771013 -0.0021586453 -0.008446694 0.3356055 -0.036280703 0.0011565754
0.00073272944 -0.009602545 -0.014585101 -0.33325806 -0.033282947 -0.17558376 -0.07461261 0.0073123095
-0.098226964 -0.013136632 -0.009537987 0.034247305 -0.24583685 0.0017848642 -0.010238572 0.16207202
0.13701366 -0.01474741 0.03115943 0.039984994 0.014289746 -0.038182177 -0.07873762 0.041999307
-0.075438514 0.015757946 -0.011709331 0.01162164 0.118386865 -0.23971692 -0.031943284 0.01149693
0.020478288 0.031942815 0.2826659 -0.06621206 -0.012722521 -0.021321017 -0.012379176 0.008123924
0.016467946 0.055336736 -0.11816115 -0.14996377 -0.013352704 0.03983236 -0.05633923 0.0010097511
-0.04308219 0.033665285 -0.02487127 -0.1387089 -0.052465238 -0.03618464 -0.32491967 0.014296523
0.07589623 0.0053005023 0.0822058 0.049809206 -0.03429866 -0.20610659 -0.019160716 0.011781981
-0.0077012735 0.00757883 -0.09248395 -0.24043123 0.02104309 -0.24515782 0.43176544 0.04928626
-0.007982636 -0.0138201015 0.00011928302 -0.026502836 0.07694276 0.005339393 -0.00039346807 0.09944641
0.2673072 0.045910083 0.049366422 0.00526682 -0.022999205 -0.087092526 -0.6801913 0.3006412
0.07029307 -0.03984352 0.026291203 0.0016472809 0.081885986 -0.15095733 0.022417774 -0.037052564
-0.027837941 0.4792232 -0.06156608 0.054931957 -0.03293572 -0.01004685 0.0033699798 0.06246221
-0.018567355 0.06516309 -0.039399765 0.09957808 0.051819474 0.06505331 0.015907867 -0.012353124
-0.058321033 0.016166471 0.01592823 0.064352855 0.04764453 -0.004519031 -0.08056233 -0.029236974
0.03597646 0.0652803 0.03167733 0.04077506 0.012836128 -0.05949386 0.023769325 -0.010617519
0.028794847 0.012171951 -0.1535653 0.061654445 0.013290422 0.12086238 -0.056910355 0.025232906
-0.018880667 0.010175425 0.038544238 0.0028606162 0.02146824 0.007236041 0.0666233 -0.034563016
-0.005423744 -0.0460413 0.002299882 0.010429791 0.025251241 0.016287297 -0.10701588 0.010377814
-0.048967842 -0.060305454 0.03545105 0.019400425 -0.036302894 -0.06768269 -0.019431734 0.0036152403
0.058892954 0.090904586 -0.040745337 -0.034774657 0.06746995 0.036990464 0.026606986 0.101469696
-0.17434406 -0.09944299 0.039631955 0.0037996953 0.0005257316 0.059265036 0.027433725 0.05542783
-0.04918971 -0.003818482 0.0013620614 0.023129007 -0.0011366192 0.04886031 -0.013381591 -0.019475894
0.040059388 0.020143183 -0.002748513 -0.024155129 0.007207318 -0.02140806 0.092710115 -0.027881531
0.01860613 -0.04188875 0.015287668 0.012132935 0.018790193 -0.030775739 -0.005119575 -0.03799104
-0.010988824 0.02480989 0.023016205 -0.025099816 0.05202961 0.007420854 0.009982737 0.033157427
-0.019985516 -0.029591367 -0.06175861 -0.15231963 -0.0037237648 0.0031121555 0.05528827 -0.07049076
-0.03728748 -0.07991835 0.0038359035 -0.036626734 -0.0018052739 0.041240018 0.003648408 0.0039518396
-0.027855515 0.012375211 -0.036556493 -0.0406579 0.07833288 0.04192225 0.007575378 0.04599895

encoder.layers.0.self_attn.in_proj_bias f4 [192]
00000000: 985a 3ebf 9025 9b3c 3017 4bbc 0e7e 99ba
00000010: 9db5 47bb b762 6f3a f0c1 c6bc 8922 a6bb
00000020: a570 ba3c 07fc 2d3f 913a b33c 18a5 5b3f
00000030: 2b2e 04bc bfa2 2c3e ee7b bfbd 2831 0f3d
00000040: 12e3 4cc0 fddd 48bc 73ea 50bd a6e8 4f3c
00000050: 07a1 69bd 9e2c e1bc b9cc 813c fad9 53bc
00000060: 4ee9 79bc 30e9 c33c 1b1f fe3c 6d85 863d
00000070: f8fb 13bd 6186 203a ee31 18bd 9d04 1c3d
00000080: 4a85 16bd 7921 55bc fd3f cdbd 186e 643c
00000090: 86ef 1ac0 f528 c13d eca8 06be fcb2 00bd
000000a0: d04f 6d3d 7fac c13c 94f0 f6b9 a05f 1b3d
000000b0: 2a22 6dbc 4676 e8bd 2a47 97bd 5ab7 17bd
000000c0: c08d ebbc 8fd6 373c 1bf0 0bb9 af1f 883c
000000d0: 16d9 ea3c d3bb 333d 87b9 513e 7fc1 61bc
000000e0: 5a96 1f3b eedf 12bc fb61 073d 0f5e cfbc
000000f0: f669 423c 6dd7 e23c 40c5 4fc0 a3e9 d63c
00000100: c4fd 88bb 32b6 de3b 7014 06bb e32d 9a39
00000110: 8837 92b9 120d f7b9 3bd6 893b c658 833a
00000120: 82a1 0bba 6bbf a9bb ef34 d1bb 67d6 88bc
00000130: 1a8f 853a 4034 2e3c ae9d 32bb f2ce a53b
00000140: 3c18 c23c 87f6 6e3a f115 d63a 9e63 8bba
00000150: 967b 16b9 6670 32bb ebe0 07ba ce48 063b
00000160: 6454 e337 18b3 f0b9 d035 5f3a f750 2b3b
00000170: 840a 39ba 6eb9 21ba 4c4d 7eba d16a 8f39
00000180: eac0 6eb9 d2e5 b03b cc1b 163b da42 9bb9
00000190: d0e4 10bd 2715 a0bb 83f7 a53b 1749 b438
000001a0: c1b3 c2bb 0302 abbb 6495 dcba e2d6 533a
000001b0: 6a9e 22bb 009a 9e3a 8539 26ba 8efd 693a
000001c0: baca 343a 1824 953a 4db3 07bb 5a48 cd3a
000001d0: 3685 55bb 3bdb 4abb cf7a 24bc d93e fa39
000001e0: bb4d 823b c2aa c53a a842 bcba 0900 f3ba
000001f0: 2fba 103b a06a 303b a9b1 f5bc 6b5f 01bb
00000200: e011 333a 6901 7a3d 72ac 0f3c b44c e2bb
00000210: 870e a6bb 54e3 a83d 91d4 213c bdd0 1f3d
00000220: 3473 a93b 5687 94bc cb57 36bc e97c ecbb
00000230: 8367 d6bb f298 c5bb 2152 893c a67a 81ba
00000240: cfd1 cebc 4d32 2f3c fc73 923c b4ae 3d3c
00000250: 197f 583b 3843 c33c 1e78 85bd 451b ba3c
00000260: 09d6 18ba 633b d93a a0fd 40bc 53b9 303f
00000270: 5fdf 8d3b 71a2 abbc 823e d138 70f3 96bc
00000280: 85de 30bc 8c09 713c 2ba6 d2ba fc62 22bc
00000290: 899f 0cba 83e4 c63b cb90 2cbc e872 ae3d
000002a0: affd 3b3e c81d 2b3a 529e bc3b 0e7c a8bc
000002b0: 3ef0 75bc 1640 ec3b a2c5 d3bc f59a fe3d
000002c0: afd8 cf3c ecfb 38bc 92fc ae3d 3753 54bc
000002d0: 6422 263c 0397 19bb 82d8 1b3c 9f44 ccbc
000002e0: e073 b13b d48d 61bb 9d9f 893b 303a 4239
000002f0: d228 01bf 6c28 683e 0b61 123b 9daa f5be
-0.74356985 0.01893881 -0.012395665 -0.0011710541 -0.003047324 0.0009131836 -0.024262398 -0.005070035
0.022758791 0.6796269 0.021878513 0.8579879 -0.008067648 0.16858958 -0.093498096 0.03495899
-3.2013593 -0.012259957 -0.05100484 0.012689745 -0.057038333 -0.027487095 0.01584469 -0.012930388
-0.015253378 0.023914903 0.031020692 0.06568418 -0.036128968 0.00061235396 -0.03715699 0.038090337
-0.036748208 -0.013008469 -0.100219704 0.013942264 -2.4208694 0.0943164 -0.13150376 -0.031420693
0.057937443 0.023641823 -0.0004710002 0.037932992 -0.014473477 -0.11350684 -0.0738662 -0.037040092
-0.028754115 0.011220588 -0.00013345519 0.01661667 0.028667968 0.043880295 0.2048093 -0.013779043
0.002435109 -0.008964522 0.033052426 -0.025313405 0.011866083 0.027690614 -3.2464142 0.026234454
-0.004180642 0.0067966217 -0.002045896 0.00029407357 -0.00027888664 -0.0004712125 0.0042064465 0.0010020963
-0.0005326496 -0.0051802895 -0.006384484 -0.016703798 0.0010189742 0.010632575 -0.002725463 0.00506007
0.023693196 0.0009115715 0.0016333443 -0.0010634547 -0.00014351154 -0.002722764 -0.00051833567 0.0020490172
2.7099806e-05 -0.00045909802 0.00085147936 0.0026140788 -0.0007058757 -0.0006169294 -0.0009700849 0.0002735467
-0.00022769315 0.0053984905 0.0022904752 -0.00029613712 -0.035374463 -0.004885334 0.005064906 8.596683e-05
-0.0059418385 -0.0052187457 -0.001682919 0.0008081031 -0.002481366 0.0012100339 -0.00063409685 0.0008926027
0.00068966637 0.0011378555 -0.0020706237 0.0015661821 -0.003258062 -0.0030953425 -0.0100390455 0.0004773054
0.0039765514 0.0015080797 -0.0014363127 -0.0018539439 0.002208363 0.0026919022 -0.029991942 -0.0019740711
0.00068309717 0.0610365 0.0087691415 -0.0069061164 -0.0050676498 0.082464844 0.00987734 0.039017428
0.005171204 -0.01813094 -0.01112933 -0.007217039 -0.0065431013 -0.0060301954 0.016762795 -0.0009878471
-0.025246529 0.010693145 0.017877571 0.011577297 0.003303474 0.023835763 -0.06517051 0.022718081
-0.00058302336 0.0016573485 -0.011779219 0.6903278 0.0043296064 -0.020951482 9.9775396e-05 -0.018426627
-0.01079524 0.014711749 -0.001607125 -0.009911295 -0.0005364349 0.006069721 -0.010532568 0.085180104
0.18358491 0.000652757 0.005756178 -0.020566966 -0.0150108915 0.007209788 -0.025851075 0.124318995
0.025371877 -0.011290532 0.08544268 -0.012959293 0.010140035 -0.0023435957 0.009512069 -0.024935065
0.0054154247 -0.0034416812 0.0041999356 0.00018522958 -0.5045291 0.2267167 0.0022335674 -0.4798173

encoder.layers.0.self_attn.out_proj.weight f4 [64, 64]
00000000: 6ce4 dcbc 0e89 1b3f 4755 abbd 46e7 01bf
00000010: 6184 0e3e e141 e33e a97b 073c 9d4f 1fbb
00000020: fe29 3b3c ce29 dc39 d702 88bc ad75 33bd
00000030: 6bfd 39bf 1e75 2dbd 46b0 acbc a8eb 1bbd
00000040: f8f6 c7bc 18fa fcbc ac30 1d3f 9831 8f3c
00000050: b5b2 c33d ce86 04be b304 1bbf 3f0a 233d
00000060: 8467 b3b9 6334 9a3b a9a0 1bbe eae4 86be
00000070: 519c 3a3d 6a65 3d3d ac67 e3bd a993 99bd
00000080: 6374 81bd 774e 1dbc c2e7 8c3d 4c8a 12bd
00000090: 3277 ad3c 81b6 013e 2f1d b0bd dc45 85bf
000000a0: f695 3c3e 6436 353b 8467 0d3d 1d6c 3abf
000000b0: 93d7 3abe afd6 573d d2a3 18bf e100 e2be
000000c0: 328f 983d a542 06bd 3544 343d c2d1 29bd
000000d0: 015c 52bd 2f75 01bd fd16 49bd 9f96 2fbf
000000e0: 84c9 56bd 49f3 773d 46dc 8fbc 9857 a93c
000000f0: 8738 403f 1c64 b0bf 330c 7eba faca bfbe
00000100: 7893 0b3d cd5e 273f adf4 e53b 7f7b 53bd
00000110: a243 62bf 70a8 403e 5b2f a2bc ec1d 523e
00000120: 43d5 e0bc 77be 9b3b 4176 063d 23ed 513d
00000130: b64e 04bf f2e9 033c e9bd 153c e544 58bc
00000140: d892 3cbd 16ca 49bc 8c37 8cbe 09c1 5abd
00000150: b34c 2c3d 33e0 313f f021 85bf 4ba7 113d
00000160: 0638 56bd 02c5 f83c cdbe e13c 6081 a4be
00000170: cabf b9bc e234 503d adeb 063c c3ea 1d3d
00000180: 1450 10bd ca67 9b3a 7fc1 053b dcf5 1e3d
00000190: 08dc 94bc 5f79 cdbc c456 633c 6253 463f
000001a0: 9e71 2bbe 3cbd 67bc b74c 573d 02ba b03e
000001b0: 5af4 483f 18e2 7b3c 6622 b0be 1dc1 b33e
000001c0: fa37 103f 8d9f f5bb b223 6c3f 1792 713d
000001d0: 103f 223d 9bfd 66bc ca0f 86bd bb7b 1e3d
000001e0: 5cb2 993c 9257 c7bc d87e 673d 3559 a0bc
000001f0: 7998 56bf 5b70 8abf ea07 50bc 60e8 063f
00000200: dfde 12bd f43a c63e e400 223c 505a b43e
00000210: b35b 823e e738 b0be e041 423c d447 0e3d
00000220: e49d 713c 159b f6bc 02b6 a6bc 73ba b5bb
00000230: 9e73 e43e 7060 aa3b 33bc 973c 6a0b a33b
00000240: ad0b 11bd 27c5 52ba 542a f9bc 419c 97bc
00000250: 8628 0d3b 5b20 773d 3704 b9bd d93f 96bb
00000260: 9998 d23c 603d 073d 76c1 d3bb 60c9 223e
00000270: 3064 90bb f78b 173c bbd2 c1bb 49e4 ffbb
00000280: a0f9 813b 7cba cb3c 9e77 79bc f8b4 85ba
00000290: a0ce 833c 5577 33bc 8ba7 513c 7f82 2e3e
000002a0: 9b26 143f deb3 123c 47d4 9bbc ec60 553e
000002b0: 516a cf3d aaf5 7d3b 69db 8ebd 7e42 423e
000002c0: 7aee 5dbd d06f 6cbd 3e79 3d3e a577 17ba
000002d0: 7c33 cb3c 9bc0 a9ba e328 afbc 6091 143d
000002e0: 2343 a23c de99 56bb e9d9 033c dc26 823c
000002f0: 7be9 143f 6b30 97be 39c2 883b 6053 5fbe
00000300: 61ce 483b 71d9 26bf 0982 06bd 4065 c73d
00000310: eaca 8fbc cdfb b8be 9e65 0ebc 9c56 b2be
00000320: e918 d7bc f067 d93c 11a5 7d3c 6c8e 0bba
00000330: 7d21 73be 220d d939 2fc9 78bc 0e33 983b
00000340: 0908 53bc 7950 443d 50a6 b33d ff50 beba
00000350: 3ac7 863c 6dc6 c93e d87a 08be ff0e 08bd
00000360: cc48 ba3b 2b68 d9bc 5f9a 543c 34bd 14be
00000370: 983a 5cbc cd17 1b3d 91bc 9d3c 048f 923c
00000380: 1eee 0f3c 3f04 5d3b a0a1 2b3c c7ff e53c
00000390: 4597 b8bc dcc6 a1bc 12d7 213c 51a8 19be
000003a0: 5ac3 bb3d 8734 f7ba 53cd 51bc 601b 9fbe
000003b0: 3c52 703e 3235 4dbc 3e79 44bd 1d2c 3bbf
000003c0: 6f96 3b3e ce22 08bd 2b6f b7bd 47be 8238
000003d0: 8983 813c 8489 9bbc c7bc 31bd 74db 3abe
000003e0: fe1a 2d3b ac0c 23bc d41b 093d adb6 cfbc
000003f0: cb66 773d a8f0 093f 0784 d3bc 68f2 9e3e
-0.026964389 0.60756004 -0.08365875 -0.5074352 0.13917686 0.443862 0.008269229 -0.0024308928
0.011423586 0.00041992817 -0.016602917 -0.043813396 -0.7265231 -0.04234802 -0.021080147 -0.038066536
-0.024409756 -0.030880973 0.6140239 0.017479703 0.0955557 -0.12942049 -0.60554045 0.039804693
-0.00034218666 0.004705952 -0.15198006 -0.26346523 0.04555923 0.046239294 -0.11103758 -0.07498867
-0.06321027 -0.009601227 0.06880142 -0.03577642 0.021175 0.12667276 -0.08599316 -1.0411944
0.1841658 0.0027650828 0.03452255 -0.7282122 -0.18246298 0.052694973 -0.5962497 -0.44141296
0.07449187 -0.0327784 0.04401036 -0.041459806 -0.051357273 -0.031605896 -0.04909419 -0.68589205
-0.052438274 0.06053475 -0.01756109 0.02067165 0.75086254 -1.3780551 -0.0009691149 -0.37459546
0.034076184 0.6537903 0.007017693 -0.051631447 -0.8838445 0.18814254 -0.019797971 0.20519227
-0.027445441 0.00475293 0.03282762 0.05125154 -0.51682603 0.008051382 0.009139516 -0.0132000195
-0.04603848 -0.012316247 -0.2738613 -0.05340675 0.042065334 0.69482726 -1.0400982 0.035559934
-0.052299522 0.030367378 0.027556801 -0.32129955 -0.02267446 0.050831683 0.0082349 0.038553964
-0.03523262 0.0011856493 0.0020409522 0.03880869 -0.018171325 -0.025082288 0.013875667 0.7747098
-0.1674256 -0.014144238 0.052563395 0.34516913 0.7849785 0.015373729 -0.34401244 0.3510827
0.56335413 -0.0074958266 0.92241967 0.058977213 0.039610922 -0.01409855 -0.0654598 0.038692217
0.018761806 -0.024333749 0.056517452 -0.019573787 -0.83826405 -1.0815538 -0.012697199 0.52698326
-0.035857078 0.38716853 0.009887908 0.35225153 0.25460586 -0.34418413 0.011856526 0.03473647
0.014747117 -0.030103246 -0.02035046 -0.005545908 0.4461946 0.0051994845 0.018522358 0.004975726
-0.035411526 -0.0008040242 -0.030415691 -0.018507125 0.0021539046 0.06033359 -0.09034007 -0.004585248
0.02570753 0.033017516 -0.0064622713 0.15897131 -0.0044064745 0.009249679 -0.0059150136 -0.007809196
0.003966525 0.024869196 -0.015226273 -0.0010201028 0.016089737 -0.010953744 0.012796293 0.17041968
0.5787141 0.0089540165 -0.01902212 0.20837754 0.101277 0.0038751164 -0.06975443 0.18970677
-0.054182507 -0.05772382 0.18503281 -0.00057780213 0.024804823 -0.0012951078 -0.021381801 0.036271453
0.019807404 -0.003274552 0.008047559 0.01588767 0.5816876 -0.29529127 0.004173544 -0.21809149
0.003064059 -0.6517554 -0.032838855 0.09736109 -0.017552812 -0.3612961 -0.00869122 -0.34831703
-0.026256995 0.02653882 0.015481249 -0.0005323652 -0.23743244 0.0004139925 -0.015184685 0.004644758
-0.012880334 0.047928307 0.08771956 -0.0014519988 0.01645242 0.394092 -0.13328111 -0.033217426
0.0056849476 -0.026538929 0.012976258 -0.145253 -0.013441704 0.037864495 0.019254955 0.01789046
0.008784799 0.0033724455 0.010475546 0.028076066 -0.022533068 -0.019748144 0.009877937 -0.15005614
0.0916812 -0.0018860259 -0.012805301 -0.31075573 0.2346887 -0.01252489 -0.047967188 -0.73114187
0.18319105 -0.033236317 -0.089567505 6.234325e-05 0.015809791 -0.018986471 -0.043392923 -0.18247777
0.0026413794 -0.009951752 0.033473805 -0.025355661 0.060400765 0.5388284 -0.025819791 0.31044316

encoder.layers.0.self_attn.out_proj.bias f4 [64]
00000000: fcfb 2fc0 c416 bcbe 33c8 82be 3d4a 933e
00000010: 0cfe b4bd 4001 2340 ba1d 5cbe 8bd4 923d
00000020: 9c0d 0ec0 4352 c23e bb05 b1bd 4d1e 14be
00000030: 81b5 2740 96cc ad3f 848d 073e 19fe 26c0
00000040: a5e5 38bd 06c8 87be d326 1fbf 7233 00be
00000050: 9f49 05bf 4f0e dfbe b8f5 bc3f 3fb3 9e3e
00000060: 3608 1cbf 4d14 e1be 419a 8d3e 6813 e5bd
00000070: 5466 8ebe 375f b4be c583 ecbe b834 aabf
00000080: c498 e13d 3b10 323f 349a 8abe 67fd 83bf
00000090: 4cec f3bd 4592 dcbe d9ad 583f bf4c 813d
000000a0: b43d 7fbe 2085 f93d 1346 55c0 3b53 12bd
000000b0: 64f7 c43e 8507 9dbe bf86 843f b802 713f
000000c0: 552d 2e3d 8259 97bf 5a12 39be 654b 1ec0
000000d0: 63d4 2c3f 8a3e 23bc 15df b7be 7c1f 07c0
000000e0: 7231 b1be 54c0 043f 9a65 c33d 516f e63e
000000f0: c214 9940 09c5 343f 8c64 e2bd f11f 133f
-2.749755 -0.3673612 -0.25543365 0.28767577 -0.08837518 2.5469513 -0.21495715 0.071694456
-2.2195807 0.37953386 -0.08643671 -0.14464684 2.6204531 1.357806 0.13237578 -2.609259
-0.04514088 -0.26519793 -0.62168616 -0.12519625 -0.5206546 -0.43565604 1.4762487 0.3099613
-0.6095003 -0.439608 0.2765675 -0.11185342 -0.27812445 -0.35228893 -0.46194282 -1.3297338
0.11015466 0.69556016 -0.27070773 -1.0311707 -0.119103044 -0.43080345 0.8464027 0.06313466
-0.24925882 0.12183595 -3.332402 -0.035723906 0.38469994 -0.306698 1.0353621 0.94144773
0.0425237 -1.1824191 -0.18073407 -2.4733517 0.67511576 -0.009963641 -0.35912386 -2.1112967
-0.34608036 0.5185597 0.09540863 0.45006803 4.783784 0.7061315 -0.11054334 0.57470614

encoder.layers.0.ff.0.weight f4 [128, 64]
00000000: fa25 c4bf 3b8a e7bd 9aa1 123f 114f 80bf
00000010: f085 02bc 40f7 fa3f adf7 503f 4824 ff3f
00000020: 1285 973f eada 02be ba06 7dbd db74 c03d
00000030: bcaf cabf 5c33 c23f 2d8e d0be 6a92 903f
00000040: 4b06 96bf c6df 8bbc 77c2 36be c949 77bf
00000050: 41a2 793d 93bf 113f d730 fa3f c9e6 a33f
00000060: 64ec a73d ee5b bcbf ba21 a43f bde3 f4be
00000070: b7a1 4abd e12e 9d3f 1fbb 9d3e 8c67 aebe
00000080: 2e2c 2b3c 961a 443e c37a 1f3e 512b 93bd
00000090: 95ca b93e 4b29 2cbd b030 c93e 05c2 42bf
000000a0: 3a67 0f3f 44e6 48bf 1cee 95bf 988e 1bbf
000000b0: 7950 81bf 0c47 513e ea56 7f3e 7b50 38be
000000c0: 96e3 8cbe 7887 a13f 0934 993c 828b 51be
000000d0: 0669 2b3f 2da5 88be 0ddc c2be 2fcb ba3d
000000e0: 4961 82bf 7b8a 92bf 6260 3f3e 8fa7 923f
000000f0: 34b6 f13f 4f54 f0be 8a8e 563d f41b 9d3e
00000100: 7c03 783f bacd f83c ae7d 4c3f b8e0 84bf
00000110: 4131 f9be e7ca 28bf fb2a 83be c58f 7e3e
00000120: 0684 3640 7c71 00be 9805 00bd e099 9f3e
00000130: 2e70 59c0 0060 24bf 91d7 1dbf ea42 1740
00000140: b03b 863f 1b18 6abd 819c 603f e7a2 e6be
00000150: e907 adbd b3ab 6d3f 1e02 ca3e 669f 243f
00000160: 5175 033d 861b be3e c88e 0bbf 48d0 d3bd
00000170: 220e ef3f d35e fd3f 17bd 343f 43e4 183e
00000180: 69fb a53e bad6 b5bd c3b0 e83d 1e18 9fbe
00000190: ddac 86be 1768 743d 7653 7abf 6e28 dbbe
000001a0: 70b2 b23f af0a 0cbd 9a88 083f 03ef 9cbf
000001b0: b092 afbd 6e8e 703f b36e dc3c 782d 60bf
000001c0: 8af2 2cbf 6358 b03f af0f d73b 8e07 64bd
000001d0: 245d 153e 23dc 973e 5a2d bfbe aa8f 0d3e
000001e0: ecce ecbf e3b9 af3d 158a 57be 791c dabe
000001f0: 63a8 12bf 7a48 92bf 2201 493d 0b89 f5be
00000200: 154f f03e 739e f53e 4692 a03f 687c 023e
00000210: ca08 eabf 982c fabe d038 373e b60a e13e
00000220: 29a4 adbd 71cb d6bb 142f 113e befc 383e
00000230: 3944 0b3f 3fe9 693e c0a6 c93f 23bd bf3f
00000240: 84be fdbe 1a21 a63d bd8b 613e 219c 0a3e
00000250: ebd0 523c 737d 44bf 0e14 193d a2c2 60bf
00000260: 927b 8fbd 26fe 803e 8b82 b3be 96f7 41c0
00000270: 8bcd 3cbe 52b5 513e eaee 4d40 06e6 253d
00000280: 7b58 483f bdbe 75bc 86cc 913c 1eae 0d3f
00000290: 4ddf c23f ff9e bfbd b231 3fbd 8fbc 42c0
000002a0: e080 a73e 538f bbbe 450a 803e f0ab 233e
000002b0: 8e3f 28bf 4be7 8f3f 8f9c 82bf cb77 79bf
000002c0: e86f d3be f282 243f dde6 253d b3e1 83bc
000002d0: 56d6 14c0 135b a53f ee55 233e cba5 abbd
000002e0: f2c2 e73e 2032 6fbf 58ac 1440 50b3 50bf
000002f0: be4d 15be b6b4 1e3f 4d61 86bd 8258 d8bd
00000300: 97e0 1cc0 537c 363f 5a8f d73f 4e3f f4bf
00000310: 3119 11bd f558 8fbe 95a9 873f 619d c63c
00000320: a48c 853f 905b 26bd 577c b5bd 5111 883d
00000330: 8e70 92bf cc44 103f f256 8d3f f8e8 86be
00000340: 65f9 ea3f d0ee 03bc b9e6 30bf 512e 4e3f
00000350: 4bf0 dabd 1daa c43f 504e 083e 815a 393f
00000360: 2fac 1bbd 9b4c 983e a85c 0dbf ae2f b33f
00000370: 5a27 c63e a638 1e3d 9672 d5be 7b66 a0bd
00000380: 5fce 87bd 4a57 7f3c b500 5cba 66c3 24bf
00000390: 32e1 c7be 7e82 e03b fe57 0d3e 75ba aebf
000003a0: 8eed a3be 1714 93bf 6c84 743c 9f62 c63e
000003b0: 525f 90bf aba4 533f bb28 aebf 73c4 b0bb
000003c0: 24f1 d1be b6f7 14bf 164a 67bd 47aa 41be
000003d0: 4a61 743f e3de 77be f60f ffbe 6089 a23d
000003e0: d207 983f 85bb 813e f3f9 263e e2fa b83f
000003f0: 3bbd 123e fbfe 39be f09c db3d f08d d73e
-1.532409 -0.11305662 0.57277834 -1.0024129 -0.0079665035 1.9606705 0.81627923 1.9932947
1.1837485 -0.12778822 -0.061773993 0.093972884 -1.583488 1.5171924 -0.40733472 1.1294682
-1.172067 -0.017074477 -0.1784762 -0.9659696 0.060945753 0.56932944 1.9546155 1.2804805
0.08199385 -1.4715555 1.2822793 -0.4783 -0.04947063 1.2279931 0.30806825 -0.34063375
0.010447545 0.19150767 0.15574174 -0.07185996 0.3628737 -0.042031568 0.39294958 -0.760773
0.56016886 -0.7847636 -1.171329 -0.60764456 -1.0102683 0.20437258 0.24935499 -0.17999451
-0.27517384 1.2619467 0.01870157 -0.20463374 0.6695713 -0.2668852 -0.3805851 0.091207854
-1.0185939 -1.1448511 0.18689111 1.1457385 1.8883729 -0.46939322 0.05238203 0.3068539
0.96880317 0.030371536 0.7987927 -1.0381079 -0.4867039 -0.65934604 -0.2561873 0.24859531
2.851808 -0.12543291 -0.031255335 0.31172085 -3.397472 -0.64208984 -0.61657053 2.363459
1.0486965 -0.057151895 0.87738806 -0.4504616 -0.08448774 0.9284012 0.3945474 0.6430572
0.032094304 0.37130374 -0.5451474 -0.10342461 1.8676188 1.9794563 0.7060103 0.14930825
0.32418373 -0.088788465 0.113618396 -0.31073087 -0.2630376 0.05966958 -0.977836 -0.42804283
1.3960705 -0.034189876 0.5333344 -1.226044 -0.085729 0.9396733 0.026908254 -0.8756938
-0.67557585 1.3776973 0.006563149 -0.055671267 0.14586312 0.29660138 -0.37339288 0.13824335
-1.8500648 0.08580377 -0.21048768 -0.42599848 -0.5728819 -1.1428368 0.049073346 -0.47956118
0.46935335 0.4797245 1.2544639 0.1274277 -1.8283932 -0.48862147 0.17892766 0.43953484
-0.08478577 -0.006555014 0.14178115 0.18065163 0.54400975 0.22842883 1.5754013 1.4979595
-0.49559414 0.08111782 0.22025962 0.13536121 0.012867193 -0.7675392 0.03737264 -0.87796986
-0.07005991 0.251939 -0.35060534 -3.0307364 -0.18437783 0.20479324 3.2177072 0.04050257
0.7826001 -0.014999089 0.01779772 0.55343807 1.5224396 -0.09356498 -0.046678253 -3.0427587
0.3271551 -0.36632785 0.25007835 0.15983558 -0.65721977 1.124246 -1.0204028 -0.97448415
-0.41296315 0.64262307 0.04050337 -0.016098833 -2.325582 1.2918419 0.15950748 -0.08381232
0.4526592 -0.9343586 2.323019 -0.8152361 -0.14580438 0.61994493 -0.065615274 -0.105637565
-2.4512079 0.71283454 1.6840622 -1.9081819 -0.035424415 -0.27997556 1.0598627 0.024244966
1.0433545 -0.040614665 -0.088616066 0.06643928 -1.1440599 0.56354976 1.1042159 -0.26349616
1.8357359 -0.008052543 -0.69102055 0.80539423 -0.106903635 1.5364414 0.13311124 0.72403723
-0.038006004 0.29745945 -0.5521951 1.3998926 0.38701898 0.038628243 -0.41688985 -0.078320466
-0.06631159 0.015584776 -0.00083924393 -0.64360654 -0.39038998 0.0068514934 0.13803098 -1.3650652
-0.32017177 -1.1490506 0.01492415 0.38747117 -1.127909 0.8267314 -1.360618 -0.0053945123
-0.41004288 -0.58190477 -0.05646714 -0.18912612 0.9546095 -0.24206118 -0.49816865 0.079363585
1.1877387 0.2533838 0.16306286 1.4451563 0.14329998 -0.18163674 0.10723293 0.42100477

encoder.layers.0.ff.0.bias f4 [128]
00000000: 4273 54c0 8c11 c2bf c3d6 82be cf61 babf
00000010: 2f54 53c0 bfb7 4d3f 2a1b 47be bbd9 77bf
00000020: 86cb f5bf 5272 9fbf b9a2 6cbf 5de9 04c0
00000030: 7509 37bf ae0c debf 6439 bf3f 1ba9 b2bf
00000040: 1048 a23e ae7d e8bf 1370 93bf caf5 623c
00000050: d41d c4bd 666d 11c0 0370 12c0 cac6 bbbf
00000060: 667e e4bd 442d 7e3f 03bd 5fbf 5712 d7bf
00000070: dc54 d9bf 2d83 c3be 8fba 24c0 fa76 8bc0
00000080: 841e 1abf 2bb8 24c0 3129 62bf 20f5 2ec0
00000090: a927 4ec0 70a0 2fbe 3993 a4be 1555 49bf
000000a0: bd63 abbf ac6c aabf 9d32 15bf 29dc 1cbf
000000b0: c4e6 11bf c347 0fc0 2f23 5abf 7df3 c3bf
000000c0: e2c1 16c0 1fff 16c0 331b 5fbf f041 e1bf
000000d0: dee8 7fbf 5f1c e9bf 43ef ce3e 3241 58be
000000e0: 6395 9cbf 3076 04c0 0f11 fcbf d8cd ad3e
000000f0: 2026 9b3f 61ef b9be 4ff1 65be f591 58c0
00000100: 466a b2bf d804 e1bf 8b06 dfbf 8457 d2bf
00000110: 822f 18bf 0534 c3bd e5b1 31bf ddf4 51bf
00000120: 6573 eabe 5623 283e 64df 1ac0 01e4 e1bf
00000130: 01a8 acbf 0c6e 13c0 8a2c cabe b9d7 95be
00000140: e982 6dbf 4d18 9ebf 149c 26c0 a93e bbbf
00000150: 7a1a 37bf 689e cfbf fcf6 9e3e 0fea d2be
00000160: 6c2e 41be 09c6 c1bf 4398 a6ba 336b 32c0
00000170: 9ef3 42bf 4180 60be bf8a fdbc 6902 813e
00000180: e4b6 38c0 4423 7dbe 7691 a8bf 09bc 27bd
00000190: 9352 e1bf 96dc 1c3e 5d81 62bf d236 85bf
000001a0: 87ff 73be 06dd 94be 798f 69bd b1d9 333d
000001b0: 2438 b8bd b9cd 05bf 9acd f2be bb35 d3bf
000001c0: e1bf d3bf e83b 48be bb8c ccbf c200 acbf
000001d0: 0e3c 7fbf 6abd 3d3f 7783 b4bf 1cfd 3e3e
000001e0: 65d5 29bf e5f5 97bf 34bc 56c0 b1dc a3bf
000001f0: 1d62 efbe 1cb5 1ec0 85d8 00c0 482d c8bf
-3.3195348 -1.5161605 -0.25554475 -1.4561099 -3.3020132 0.803585 -0.19443956 -0.96816605
-1.9202735 -1.2456763 -0.92435795 -2.0767434 -0.71498805 -1.734762 1.4939389 -1.3957857
0.31695604 -1.8163354 -1.1518577 0.013852546 -0.09576002 -2.2723022 -2.2880867 -1.4670041
-0.11156921 0.9928782 -0.87397784 -1.6802472 -1.6979022 -0.38186017 -2.5738866 -4.3582735
-0.60202813 -2.5737407 -0.88344103 -2.7337112 -3.2211707 -0.17151046 -0.32143572 -0.7864545
-1.3389813 -1.3314414 -0.58280355 -0.6127344 -0.56992745 -2.238755 -0.85209936 -1.5308682
-2.3555837 -2.3593214 -0.8715088 -1.7598248 -0.999647 -1.8211783 0.40416917 -0.2111862
-1.2233089 -2.0697136 -1.9692706 0.3394611 1.212101 -0.36315444 -0.22455333 -3.3839085
-1.3938682 -1.7579603 -1.7423872 -1.6432958 -0.5944749 -0.09531406 -0.6941207 -0.82014257
-0.45791164 0.1641973 -2.4198847 -1.7647706 -1.3488771 -2.3035917 -0.39487106 -0.29266146
-0.9277788 -1.2351166 -2.6032763 -1.4628497 -0.71524775 -1.6220217 0.3104781 -0.41194198
-0.18865365 -1.513856 -0.0012710172 -2.787793 -0.7615298 -0.21923925 -0.030949948 0.2519715
-2.8861628 -0.24720484 -1.3169391 -0.04095081 -1.7603325 0.15318522 -0.8847864 -1.0407355
-0.23827945 -0.29074878 -0.05702159 0.04390878 -0.08995083 -0.5226703 -0.47422487 -1.6500772
-1.6542932 -0.19554102 -1.5980448 -1.3437731 -0.9970101 0.7411715 -1.410262 0.18651241
-0.6634124 -1.1871916 -3.355237 -1.2801725 -0.46754542 -2.479804 -2.0132153 -1.5638819

encoder.layers.0.ff.2.weight f4 [64, 128]
00000000: eff1 76bb 739c 063f 221d 763e cf81 e83f
00000010: 0fca 61bd 4ebb 273f 2330 e13f be96 963f
00000020: 9443 c13d 0003 b8be 6208 b9be 5d87 9f3f
00000030: 60b2 efbd 2c90 a5be f9c8 3dbf 2382 fcbf
00000040: 8c80 263f ee60 3e3f a7ad 213f 79a5 253f
00000050: f3c8 6d3f 8592 1cbc 6124 e13e 3c12 e5bf
00000060: e1c4 0cbe 6851 3a3e 5b57 593f 3672 f63f
00000070: 1f75 8f3e cd7b 533f 6937 643e 1a56 b6bf
00000080: c592 cdbf 5ae5 833e a6cb b9bd 327e 8ebf
00000090: 061b af3e 3e21 93bf 79e8 b6be 90a5 80bf
000000a0: e081 ce3f b8d9 a6bc 924c e33d 36cf a33f
000000b0: 1358 17be 7b67 aebe 70f2 90bf aa1c 413f
000000c0: 2a32 ef3e ded1 a03e 9d08 b1bd 9fdc 2f3f
000000d0: 4598 5a3e 31bf d53c 5450 06c0 251a e83d
000000e0: c92d c63e b9af 50bf 5572 ecbe 165e df3e
000000f0: 7ce0 45bf 0e27 9f3f e11f 393e eea6 f63e
00000100: 8ed3 023f b0f9 4e3f d8aa 6dbf bb15 bebd
00000110: 4581 6cbf 57f6 5cbd 75b0 a53f fe76 84bf
00000120: 55ea c8be ae90 343e c71d cb3f 0e3d 04be
00000130: 91b8 fcbd 39b2 89bf 81e4 02bf de42 6d3e
00000140: 0a68 d7bd 96a8 a83f 6f54 c43e 15f4 35bd
00000150: 6dce 2f3f 0b7a 5a3f 1904 263f 7457 8a3f
00000160: 60f8 3f3d bb5b 2940 4235 a6bf f073 b63d
00000170: 4e46 dbbe ea14 08c0 6114 ee3e d744 7a3f
00000180: 3966 6c3e b2ff c8bd 3e50 cebe 68ae c1bf
00000190: bd48 6cbe 7118 02be eaf9 5d3d ff57 ad3e
000001a0: 0fc9 253f b444 963f 855e 253f 0f4d 673e
000001b0: f629 34bf 129f 873e dbc4 023f 9971 613e
000001c0: 0b05 babe 950a b6bf f04f d23d e9cd db3e
000001d0: e509 20bf 9a81 923c d187 c4be 63a3 ac3e
000001e0: 1814 ca3f 6496 843f 8c53 d5bf 87fe b43e
000001f0: 2a2b cbbf 74f6 903d 2fc1 d63a 5e41 8dbe
00000200: c52e e7be 3d1f 00bf c146 0d3f 34f6 dd3f
00000210: 2214 e4bf 5465 69bf 5000 8a3c 9efa 4e3f
00000220: bea7 ca3e 3cd1 cb3f d0ae 6c3f 8f03 24bf
00000230: 8683 19bf fe02 15bf 898f 843e f9f4 c73d
00000240: c6ab 463f dfb2 733e 31ea d13e 4daf e5be
00000250: 1fe9 3c3f 353e b23e dab7 263f c5a1 95bf
00000260: dbe2 a23e 791d 57bd bfc4 b93f b5cc 163f
00000270: 0920 ce3e f6dd 103e 85de 633e 5409 8e3f
00000280: 561b b7bf 7729 11bf d096 b9be c67f 86be
00000290: e952 0a3f 567c adbe 7472 dcbf 38dc 9cbe
000002a0: 5247 a13f e9bf 17bf 7a2e 24bd 678b b93e
000002b0: 212c 073f 1808 9a3e 5532 25bd 23eb a63f
000002c0: 3422 213f a9fe d8be 739d 66bf 7d6d 943f
000002d0: 3f83 a0bf 2f1e a8be 6001 c6bf 8b19 10bf
000002e0: dbed fabe 28a0 d03e 61fe f13e f1e6 abbf
000002f0: e904 3cbf 544b abbf f89c 9a3e c954 603f
00000300: f081 d53e fd24 0340 3bf0 92bd 8eae 7dbf
00000310: bb63 e83f a22f 713e 25c4 babf e6b3 a2be
00000320: d24e 2040 83a3 88bf 69c2 753f 3878 3bbf
00000330: 4426 9fbe a824 edbd 41e0 64be 14bc debd
00000340: 4c57 b13d 7b5a 153f 1dbc ac3e 6356 4c3f
00000350: d3fe c23d 3266 5bbf 2976 513e 0beb a93f
00000360: 02ce 183f 21e3 563f 2bf1 a33e 85da c23d
00000370: 246a 6e3e 2566 9abf dd44 7bbf b833 1e3f
00000380: 20a6 10bf 8c36 123e 112a 48be 58dc 9e3f
00000390: d6fd 9b3f 7050 0b40 3e51 913f 4a85 4640
000003a0: b567 1b3f fa30 9dbe e068 05c0 7699 e43e
000003b0: 6573 c93e b24a ed3e 23d2 1bc0 72d4 28bf
000003c0: b360 67bf 3203 15bf 3561 f2bf 4f24 1bbf
000003d0: b8be 153f 9083 e93d be06 463f 658b 9e3f
000003e0: ba3c b43e d885 5fbe 7d49 aebf dc0e fb3f
000003f0: f930 b8be 6de5 afbf 4263 923f 0d3d 683f
-0.0037680825 0.5258247 0.24034551 1.8164614 -0.05512434 0.6552018 1.7592815 1.1764753
0.09436718 -0.3593979 -0.36139208 1.2463185 -0.11703944 -0.32336557 -0.74134785 -1.9727215
0.65039897 0.7436665 0.631556 0.64705616 0.9288475 -0.009556417 0.43973067 -1.789619
-0.13746978 0.18195117 0.8489892 1.9253604 0.28019044 0.8261078 0.22286762 -1.4245026
-1.6060416 0.2576092 -0.09072046 -1.1132262 0.34200305 -1.149452 -0.35724238 -1.0050526
1.6133385 -0.020367488 0.11098589 1.2797611 -0.14779691 -0.34063324 -1.1323986 0.7543436
0.4671796 0.31410116 -0.08644221 0.68696016 0.21347149 0.026092144 -2.0986528 0.11333112
0.38706806 -0.8151813 -0.46180978 0.4362647 -0.7729566 1.2433794 0.18078567 0.48174232
0.51104057 0.8084974 -0.9283881 -0.092814885 -0.9238475 -0.053945865 1.2944475 -1.0348814
-0.3924128 0.17633316 1.5868462 -0.12913916 -0.12339891 -1.0757514 -0.5112992 0.23170039
-0.10517891 1.3176448 0.38345668 -0.044422228 0.68674356 0.8534247 0.6485 1.0807939
0.04686773 2.6462238 -1.2985003 0.08908832 -0.42827076 -2.1262765 0.46499923 0.9776129
0.2308587 -0.09814395 -0.40295595 -1.513135 -0.23074622 -0.12704636 0.054193415 0.33856198
0.64759916 1.1739717 0.6459735 0.2258799 -0.7037653 0.2648855 0.5108163 0.2201599
-0.36331972 -1.4221979 0.10269153 0.42930534 -0.625151 0.017884064 -0.3838487 0.33718404
1.5787382 1.0358396 -1.6666121 0.3535044 -1.5872548 0.07078257 0.0016384477 -0.27588934
-0.4515287 -0.50047666 0.55186087 1.734076 -1.7818644 -0.9117024 0.016845852 0.8085116
0.39581102 1.5923228 0.9245424 -0.6406793 -0.59966314 -0.5820769 0.2589076 0.09763522
0.77605855 0.23798703 0.40998986 -0.44860306 0.73793215 0.34813085 0.65124285 -1.1689993
0.31813702 -0.05251834 1.4513167 0.5890611 0.40258816 0.14147171 0.22252853 1.1096597
-1.4305217 -0.56703895 -0.36247873 -0.26269358 0.5403276 -0.33883923 -1.7222428 -0.30636764
1.259989 -0.59277207 -0.040083386 0.36239168 0.5280171 0.300843 -0.040331203 1.3040508
0.62942815 -0.4238179 -0.90084 1.1595913 -1.2540053 -0.32835528 -1.546917 -0.56288975
-0.49009594 0.4074719 0.47264388 -1.3429853 -0.7344499 -1.3382363 0.30197883 0.8762937
0.41700697 2.0491326 -0.071747266 -0.99094474 1.8155435 0.23553327 -1.4591109 -0.31777877
2.5048108 -1.06749 0.9599977 -0.73230314 -0.31083882 -0.11579257 -0.22351171 -0.10875717
0.08659229 0.5834119 0.3373727 0.79819316 0.0952126 -0.8570281 0.20455231 1.3274854
0.5968934 0.8394032 0.32019934 0.095143355 0.23282677 -1.2062422 -0.9815195 0.61797667
-0.56503487 0.1427862 -0.19547297 1.2410994 1.218684 2.1767845 1.1352918 3.1018853
0.6070512 -0.3070143 -2.084526 0.4464833 0.39345852 0.4634605 -2.4347007 -0.65949166
-0.90381926 -0.58208 -1.8935915 -0.6060228 0.5849414 0.11402047 0.7735404 1.238629
0.3520258 -0.21828401 -1.3616177 1.961391 -0.35974863 -1.374189 1.1436541 0.90718156

encoder.layers.0.ff.2.bias f4 [64]
00000000: b648 c0bf 9d11 993d bc4c 4cc0 0577 a540
00000010: af66 cdbe cdfc c540 07d4 50c0 5bd4 17c0
00000020: 0905 17c1 3134 79bf 5613 0bbf 80b1 85be
00000030: 382b ab41 6f0f cc3f 3f43 0dc0 604b 6dc1
00000040: 7b77 ef3e 972f 703d 89ac cdbf 5589 c940
00000050: d2cc 683f 9df7 bfbf 2864 1640 7a36 8d3f
00000060: 1e47 71be 0306 59c0 b61e 36bf 4bf2 0ac0
00000070: 5a85 46bf 11dd e0c0 7117 843f 26ca 99c0
00000080: 3281 dbbe efb8 0f40 ec91 a9bf 2691 5bc0
00000090: 2631 fa3f 25ac 0ac0 787b 2b40 9730 45bf
000000a0: 35ac b1be c755 dfbe e597 d1c0 2cce 7ebe
000000b0: 05b1 ce40 08f4 6dbf d8bf b940 bc7b 4840
000000c0: 4e2b 9f40 4e3a a8c0 758c d93e ec97 40bf
000000d0: 2a17 8a3e 5586 af3f 9aad 07c0 4ad9 853e
000000e0: c26f 3e3d 6cbd 2740 2a6b 5a40 c0f8 9340
000000f0: 2e1e 0940 3870 5240 c0f3 3c40 c488 a93e
-1.502219 0.074740626 -3.1921835 5.1707788 -0.40117404 6.1871095 -3.2629411 -2.3723361
-9.438729 -0.9734526 -0.5432638 -0.26111984 21.396103 1.594221 -2.2072294 -14.830902
0.46770844 0.058639135 -1.6068279 6.298014 0.9093753 -1.499744 2.349863 1.103225
-0.23562285 -3.390992 -0.7114061 -2.1710384 -0.7754723 -7.0269856 1.0319654 -4.8059263
-0.42872006 2.2456625 -1.3247657 -3.4307342 1.9546249 -2.1667569 2.679411 -0.7702727
-0.34701696 -0.4362013 -6.549792 -0.24883336 6.459109 -0.9295049 5.8046684 3.1325521
4.974036 -5.2571173 0.42489973 -0.75231814 0.26970798 1.371287 -2.1199708 0.2614234
0.0464933 2.6209364 3.4127908 4.624115 2.142467 3.2880993 2.9523773 0.33112156
