checkpoints/epicon_comp/HMEC/best_model.pt (torch, 578018 bytes, 54 tensors)

encoder.pos f4 [1, 15, 64]
00000000: be1d 96bd db46 03bf 71f1 95bf 6152 46bf
00000010: c916 1e3f 071d bbbd c4f5 c6be e563 e1be
00000020: c206 bdbe 036f a9be a20f 983e f7f4 dd3e
00000030: c2df 043e 4050 b23d a140 2c3e 3ffa 10bd
00000040: 76d5 91be d50d 51be 064f 2b3f aff2 813e
00000050: 6ac9 0cbe 23b8 01bf 788c d03d 9e14 0ebd
00000060: e0b0 8d3e 7443 c8bc 6829 363e 3701 203e
00000070: a739 92bd cc86 003e f532 2abf 9cd8 933d
00000080: 1316 68bf 2e09 663d 9737 27be a90b 543e
00000090: 2413 bdbf 84b9 05be 7036 09be 45f0 d43e
000000a0: e46b ad3e 6116 06be 6b98 38be 9029 bdbe
000000b0: 4ea5 1ebe 45bd 81be 50b0 313e 2896 a83e
000000c0: f28c 87be 887d ba3d f2a3 08be 4867 013d
000000d0: 2f4e 7b3f 5829 1c3f f0eb 34be 6f73 a9bd
000000e0: 019d 103e a188 153d c23e 943f 6dc8 acbd
000000f0: 6cbf c03e 6c3b 16be 50ac f4bd e147 40bd
00000100: 32ad 9ebd f370 debe 6563 dfbe 5ba1 5fbe
00000110: fbcc c03e bfb4 69bd f605 7e3d 8e6a 99be
00000120: 3373 17bf fc6e abbe bea8 993e 5905 063f
00000130: 28a2 74bf ea60 ae3d ae27 163d 8e24 8b3c
00000140: 5450 89be 5761 4dbe c8f2 cfbf cfae 843e
00000150: 8110 06be a022 98be 7041 ea3d 0dae 5dbc
00000160: 965c 903e 262c 123b ec2a 283e cc7e 5fbe
00000170: 5f25 e0bc 41cf 4ebf 90b9 3dbf 0c27 a03d
00000180: 421f aabf e48b 4b3d a74a 1cbe 703b 0a3e
00000190: ca59 30be 7fc1 04be cc69 0fbe d1bb 883f
000001a0: 41db 9a3e 9cdb 913c 4427 33be 50a3 c8be
000001b0: 1958 8a3e 89d0 b13e 256b 983e 73c1 b33e
000001c0: 153e a1bd fac3 543d 2f03 dbbd 3577 243d
000001d0: 4184 38bf 6e73 c63d 1f17 82be 73b3 a6bd
000001e0: 4115 043e ead7 053f 682a 903f da5d 1cbe
000001f0: 4e33 c83e 8135 1dbe 9fad ddbd 697c 12bd
00000200: bc11 d4bd e65f 02bf 88fd 79bf 70c1 f23e
00000210: 0749 2a3f 6c1e f6bd 8501 143e 6004 cbbe
00000220: 7df1 7abe cabc a3be ed28 9d3e d3aa 343f
00000230: 7fbe dfbe 4f78 743d 30a8 ec3e 1ec6 c8bc
00000240: 76b2 8dbe 2f14 45be c1db 42bf c138 8d3e
00000250: 78e5 03be 2139 10be 0dbf c83d 4a6e 00bb
00000260: d409 983e 17ed d5bc 9688 2e3e 29c3 efbe
00000270: 6f61 863c 482b 12bf 2a0a 4c3f 2804 793d
00000280: 9f74 62bf 2a1a 873d c70b 1abe e689 323e
00000290: 3d02 b3bd efde f8bd 774f 07be d058 553d
000002a0: 89f8 e3be a34e 203e 174b 42be a9b8 bbbe
000002b0: dfbb 983e 4552 6c3f bd47 89bd a498 c0bd
000002c0: 9895 0d3e d125 e63d b4af eabd d676 c93c
000002d0: ffa1 8d3f 6c45 c13f ef18 fcbc b4ba b6bd
000002e0: dea1 0c3e 70ea 963e 49a8 a73c 4135 223e
000002f0: f9fc d33e fa1c 31be 6d76 dbbd 7e02 57bd
00000300: 8ac9 fabd 842a 03bf 1acb 873f 705f 283f
00000310: bbe8 69bf 87dc bbbd 5bc8 d03e dd92 dbbe
00000320: 49f4 09bf bf69 9fbe 9a05 8e3e d206 103f
00000330: 1909 033f ba15 b63d 1e5f 863e 842c b2bd
00000340: b06b 88be 95f3 54be 177a 29bf 70ec 813e
00000350: a536 24be 8f86 9d3d f552 b53d ecbf 00bd
00000360: d5f1 893e 2e40 c8bc 1373 2a3e 3d18 d7bf
00000370: ec6d 87bd 3285 cd3d 394e 6d3f caf3 a83d
00000380: 8234 afbf b5b3 5d3d 8a11 1fbe 2060 143e
00000390: d9bd 17be ce6f 09be 765c 13be e3ed 733e
000003a0: de71 713e eea8 7fbe 74b0 3cbe 09b9 b4be
000003b0: 9e96 f9bd 4113 423f acbe 3c3e f4fb 9f3d
000003c0: 4415 83be a81a 8d3d 0b8b f9bd a95c c43b
000003d0: 6944 873e e0cd ca3e a153 6c3e 645c 00be
000003e0: 1e1d 313e e542 4bbe 3e21 523f 4484 0abf
000003f0: 270e b13e 4747 41be 1c10 efbd 9365 4ebd
-0.073298916 -0.5127999 -1.1714307 -0.7746945 0.6175352 -0.09136396 -0.3885938 -0.44021526
-0.36919218 -0.33092508 0.29699427 0.43350956 0.12975982 0.08706713 0.16821529 -0.035394903
-0.2848317 -0.20415433 0.66917455 0.25380465 -0.13748708 -0.50671595 0.10183042 -0.03468763
0.27674007 -0.024446227 0.17789233 0.15625463 -0.071399026 0.12551421 -0.66484004 0.07219049
-0.9065868 0.0561611 -0.163298 0.20707573 -1.4771466 -0.1305905 -0.13399673 0.4158956
0.33871377 -0.13094474 -0.18026893 -0.36945772 -0.15492746 -0.25339714 0.17352414 0.3292706
-0.2647472 0.091059744 -0.1334379 0.031592637 0.98166174 0.61000586 -0.17668128 -0.0827397
0.14122392 0.036507253 1.1581652 -0.08436666 0.37646043 -0.14671105 -0.119469285 -0.04694355
-0.07747878 -0.43445548 -0.4363052 -0.21838896 0.37656388 -0.05705714 0.062017404 -0.29964107
-0.59160155 -0.33483112 0.30011553 0.5235191 -0.9555993 0.08514579 0.036658935 0.016985204
-0.26819098 -0.20056663 -1.6245966 0.25914618 -0.13092233 -0.29713917 0.114382625 -0.0135302665
0.28195637 0.0022304147 0.16422623 -0.21825713 -0.02736157 -0.80784994 -0.7411127 0.078199476
-1.3290789 0.049693957 -0.15262853 0.13499236 -0.17221752 -0.12964438 -0.14005202 1.0682317
0.30245402 0.017804913 -0.17495447 -0.39187098 0.27020338 0.34729412 0.29769245 0.35108528
-0.07873169 0.05194471 -0.106939666 0.040152747 -0.72076803 0.09689985 -0.25408265 -0.08139696
0.12898733 0.52282584 1.1262941 -0.15270177 0.39101642 -0.15352441 -0.10824131 -0.035763178
-0.10354945 -0.5092758 -0.97652483 0.47413206 0.6651768 -0.12017521 0.14453705 -0.39651775
-0.24506183 -0.31979972 0.30695286 0.7057316 -0.43700024 0.059685048 0.46222067 -0.024508532
-0.27675217 -0.1924598 -0.7611657 0.27582362 -0.12880504 -0.14084293 0.09802065 -0.0019596987
0.29694998 -0.02611403 0.17044291 -0.46828583 0.016403882 -0.5709729 0.7970301 0.06079498
-0.884592 0.06596787 -0.15043555 0.17435417 -0.08740661 -0.12151896 -0.13213907 0.05208665
-0.44525555 0.15654998 -0.18973957 -0.36664322 0.29830834 0.92313033 -0.06703136 -0.09404114
0.13826597 0.11237682 -0.11459294 0.024592798 1.1065062 1.5099311 -0.030773608 -0.089223295
0.13733622 0.29475737 0.020465987 0.15840627 0.4140394 -0.1729621 -0.10715947 -0.05249261
-0.12245472 -0.5123675 1.0608857 0.65770626 -0.91370744 -0.09172922 0.4077786 -0.42885485
-0.53888375 -0.31135365 0.2773865 0.56260407 0.51185757 0.08890863 0.26244444 -0.08699897
-0.2664466 -0.20796044 -0.6620192 0.253757 -0.1603647 0.07691681 0.088537134 -0.03143303
0.26942316 -0.024444666 0.1664546 -1.6804272 -0.06612763 0.100351706 0.92697483 0.08249624
-1.3687899 0.05412646 -0.15534034 0.14489794 -0.14818515 -0.13421556 -0.1439074 0.23821215
0.23578593 -0.24966785 -0.18426687 -0.3529742 -0.12186931 0.7581063 0.1843211 0.07811728
-0.25602162 0.0688985 -0.121847235 0.0059924913 0.2641938 0.39610195 0.23078777 -0.12535244
0.17296264 -0.19849737 0.82081974 -0.5410807 0.3458111 -0.18874846 -0.116729945 -0.050389837

encoder.embed.weight f4 [64, 6]
00000000: ba47 8b3c 0e77 aa3b 1f89 b23c d089 73bb
00000010: 906c 8dba 6da7 f5bb 64c3 183d b122 6dbc
00000020: ff05 973b 1982 c03b db89 12bb a58e d6bc
00000030: e94b 123e 0060 1abe 4564 31bd 0293 ed3d
00000040: 2985 05be f52f 29bd f3c5 82be e978 fa3e
00000050: 9314 283f d4e7 a3bd 7e26 8a3d 4e0b 1c3f
00000060: be6e c83e 5574 403e 1a39 e23e c364 45bf
00000070: 9355 2bbf 16b1 ba3f 3eb6 163b e437 16bc
00000080: 4b9e 053d 5836 643b 1b8d 88bb 326c a5bb
00000090: c17d 1ebf 632b f1bf 7326 37c0 6abf afbf
000000a0: 22c3 833f b5c6 b73e 35b2 523c 8b6a b53b
000000b0: bd04 cd3c d432 d03b 9149 2e3b e355 47bc
000000c0: 1744 55bd 731f 7c3c 5366 713d caf2 073e
000000d0: 4e0a b6bc 79a2 043e 83fe 04bc 72af afba
000000e0: 4c6a efba 4f19 afbc 82cf 8abc 7abd 37bc
000000f0: cb5f bfbc dfef 67bc 3cbe c13b 5587 e6bc
00000100: 28d0 ccbc 8186 a9ba f566 163f 4073 363e
00000110: 8762 453f b1b4 14bf e74b ae3f 8aab 1dc0
00000120: 026f 143e 8eff 913d 12b0 583d 9009 16be
00000130: adbd 81bc 323a 2e3e e09c afbc fe3d dd3a
00000140: b8d3 3d3c da25 9ebc c62d 37bb 64ad 20bc
00000150: 73c5 73bc 2f91 c4bc e2c9 4c3c 7499 fb3c
00000160: 8dc5 e8bb d19a c5bc 009f 883b 6f5a 1abc
00000170: cff5 0c3c 89d8 b53b dacf 8fbb 347c 303c
00000180: 0817 74bc ddb7 2d3b 1b90 91bc d82b 53bc
00000190: f6a1 f8bc 1a8f 05bc 5fb4 7cbc 0f6c 29bc
000001a0: a9d2 cdb6 f7b0 b3bc 32a0 a5bc 167e 26bc
000001b0: de58 50be c90f f53d d3d6 c6be 2449 723e
000001c0: d245 ba3c 77d6 a8be 27b4 873b 08d7 24bc
000001d0: b3c3 aabb 49b1 f13b 31dc 83bb 9178 84bc
000001e0: bdfe a9bc 4f6c 9bbb f239 6b3c e533 66bc
000001f0: cdac b0bc dcf5 453b 53c7 cebc a558 81bd
00000200: 3667 7c3b e26d 793e 9c39 c9bd af8d 043e
00000210: 11a3 acbc f751 57b9 975d 6a3c a0dd aebc
00000220: ed91 a4bc 2202 633b e155 4b3c ea26 653c
00000230: f108 aa3b 1921 8c3b bf3f fa3b d258 1fbc
00000240: 4e37 bbbc 548e 2dbc 4cba 543c 0103 a7bc
00000250: 0c50 b8bc dc52 12bc ed8d 9dbc 1797 e8bb
00000260: 4ece e93b 1c8f 40bc 100e ab3a 578d 90bc
00000270: 2316 243c b789 de3b af7a f5ba 3717 3abc
00000280: 03f5 163c 0a4c c63b a48f 5fbd 57dc 75bd
00000290: 7e2f b7bc 3ced 9b3b df63 d3bb 87d8 18bd
000002a0: c887 8abc b220 8d3a 6247 59bc 07d6 72bc
000002b0: 336c b8bc 78f9 273b bf0d 6a3d 654f 923c
000002c0: 28f3 893b 3347 043c 5df3 93bc 8be5 5e3d
000002d0: 118a 0a3c 99c8 a73c 3fb9 68b9 3a19 ce3c
000002e0: 4792 2fbc 330a 29bd 19b1 5f3b e712 4dba
000002f0: 3e53 45bb e93f 2dbb 90d1 b23b 632b 93bc
00000300: 4081 0dbe a960 5e3d 5110 8bbe 6906 4c3e
00000310: 84bb 013e c19e 8bbe a8ef 82bc e872 11bc
00000320: 7b9a 8fbb 661d 96bc 2ab1 aabc 627a 0dbc
00000330: 85d2 82bc 8e26 4abc a04f ddb9 6615 ccbc
00000340: ee30 a5bc 6f6c edbb f41e 3e3a e97d 83bc
00000350: 8f05 4fbc 5ce9 6ebc 8a7c f13b 08b4 74bb
00000360: 7466 f1bc 72a6 bcbc 738c 2d3c 4ca3 a13d
00000370: 90d5 bfbc 8f85 b53c a3fe b9bc 4acf 65bc
00000380: bc79 083c 719f d7bc 9694 bebc a05a f2bb
00000390: e6e7 ab3a a089 72ba 1d34 b13c 26c5 85bb
000003a0: 3b56 53bc a45f a73b 2e85 6cbe d9fa aa3e
000003b0: 261f d03e 24fc b5bd 4b26 a73e a0e1 46bd
000003c0: cb91 603c 77af e4b8 4092 813c 66fd 0b3c
000003d0: 8ab7 88bc 3b0b e53b c6db 94bd 899f cc3f
000003e0: 403c 02bf db1f 443d 745d 2e40 7bc8 273f
000003f0: e56e 843a 4292 70ba e401 42ba e196 5bbc
0.017001975 0.0052021807 0.0217939 -0.0037161 -0.00107898 -0.0074967653 0.037295714 -0.014473603
0.004608869 0.005874884 -0.002236 -0.026191065 0.1428677 -0.15075684 -0.043308515 0.11600305
-0.13039078 -0.0413055 -0.25541648 0.48920372 0.65656394 -0.08003202 0.06745623 0.6095475
0.3914699 0.18794377 0.4418419 -0.77106875 -0.6692745 1.4585292 0.0022996808 -0.009168599
0.032621663 0.003482243 -0.0041672117 -0.0050482983 -0.61910635 -1.8841366 -2.8617218 -1.373029
1.0293925 0.3589379 0.012859871 0.0055363826 0.025026673 0.0063537154 0.0026594142 -0.012166473
-0.05206689 0.015388357 0.058935475 0.1327621 -0.02222171 0.12952603 -0.008117321 -0.0013403727
-0.0018265932 -0.021374373 -0.01694465 -0.011214608 -0.023361107 -0.014156311 0.0059125703 -0.028140703
-0.0250016 -0.0012933762 0.5875085 0.17817402 0.77103466 -0.58088213 1.3616914 -2.463595
0.14495471 0.07128821 0.05290229 -0.14652085 -0.015837515 0.17014387 -0.021437109 0.0016879437
0.011586122 -0.019305158 -0.0027950867 -0.009806965 -0.0148786185 -0.02399501 0.0124993045 0.03071282
-0.007103628 -0.024121674 0.004169345 -0.009420975 0.008603527 0.0055494946 -0.0043887915 0.0107718
-0.014898069 0.0026507296 -0.01776891 -0.012888871 -0.030350666 -0.008151794 -0.015423863 -0.010340705
-6.134e-06 -0.02193497 -0.020217989 -0.010161897 -0.203464 0.119659014 -0.38835773 0.23660713
0.022738371 -0.32976124 0.004141349 -0.010061033 -0.0052113174 0.0073758704 -0.0040240516 -0.016170772
-0.020751351 -0.004743136 0.014357077 -0.014050459 -0.021566773 0.0030206358 -0.02524153 -0.06315736
0.0038513667 0.24358323 -0.09825441 0.12944673 -0.02107385 -0.00020534532 0.01430454 -0.021345913
-0.020089114 0.0034638722 0.012410612 0.013986329 0.005189054 0.0042764065 0.0076369937 -0.009725766
-0.02285352 -0.010593016 0.01298387 -0.020387175 -0.022499107 -0.008930888 -0.019232715 -0.0070980894
0.007135189 -0.01175287 0.0013050456 -0.017645521 0.010015043 0.006791319 -0.0018728579 -0.011358074
0.009213689 0.006051545 -0.054580346 -0.060024586 -0.022361513 0.004758505 -0.0064511145 -0.03731587
-0.016910449 0.001076719 -0.013261648 -0.014821536 -0.02251253 0.0025630873 0.057142016 0.017860124
0.0042098947 0.008073616 -0.01806038 0.054418128 0.008455769 0.020481395 -0.00022194254 0.025158513
-0.010716028 -0.041269492 0.0034132658 -0.0007822946 -0.003010943 -0.0026435798 0.0054571107 -0.017965024
-0.13818836 0.0542914 -0.27160886 0.1992432 0.12669188 -0.27269557 -0.015983418 -0.008877493
-0.004382429 -0.018324565 -0.020836432 -0.008635135 -0.015969524 -0.012338294 -0.0004221173 -0.024912547
-0.020164933 -0.0072455923 0.0007252537 -0.01605125 -0.012635603 -0.014582004 0.0073695825 -0.0037338752
-0.029467799 -0.023028586 0.010592568 0.078924745 -0.023417264 0.022158412 -0.022704428 -0.014026472
0.008329805 -0.026321145 -0.02326421 -0.0073960572 0.0013115376 -0.0009252075 0.021631295 -0.00408234
-0.012898977 0.005107837 -0.23097679 0.33394507 0.40648764 -0.08885983 0.32646403 -0.048555017
0.013706635 -0.0001090457 0.015816808 0.008544302 -0.01668908 0.006989864 -0.07268481 1.5986186
-0.50873184 0.047881942 2.724454 0.65540284 0.001010385 -0.00091770675 -0.00074007944 -0.013402672

encoder.embed.bias f4 [64]
00000000: 141d c03d dcd0 fb3e d410 31be 2612 033e
00000010: 9d13 723e 9704 c33d b34a 94bd 02f8 c23e
00000020: dc71 363e 9185 ab3e ed13 a5be d420 aabe
00000030: 96a4 77bd caad 96bd d6a3 82bd 875a 8a3d
00000040: d31b 8b3e e100 453e 64b2 293e d7a4 83be
00000050: 0191 e23d 21c9 633e b78d e1bd 3cc6 96bb
00000060: a964 94be 8462 0d3d 858e 3fbe fa2f 943e
00000070: 60cc 293d 81e2 943e cda5 353d 5198 79bd
00000080: 3a9a 8ebe 9199 67bd eb7a 143e a247 3abe
00000090: 6ba5 943e b884 ee3d b3fe e13d e6f3 56be
000000a0: 239a f6bd c973 873e ef9f 3c3e 5064 c13e
000000b0: d857 e1bd dbe2 a63d 62e9 29be 24c2 17be
000000c0: c81f 0bbd 292d aabd 97cf e53d 599d 09bd
000000d0: 7c27 09bd 52dd 85be 487f 34be 91b7 953d
000000e0: 22f2 0dbe 9122 0dbe 625c b83c 0774 a13c
000000f0: b300 c5be cd75 1b3e 4b88 d43d 928a 1b3d
0.09380546 0.49182785 -0.17291576 0.12799892 0.23640294 0.0952236 -0.0724081 0.3807984
0.17816871 0.3350034 -0.32241765 -0.3322817 -0.060459696 -0.073573664 -0.063789055 0.06755548
0.27169666 0.19238617 0.16571957 -0.257117 0.110628136 0.22244693 -0.11013358 -0.004601268
-0.28983048 0.03451778 -0.1870671 0.28942853 0.041454673 0.2907906 0.044347573 -0.060936276
-0.2785204 -0.056542937 0.14500014 -0.18191388 0.29032454 0.11646408 0.11034908 -0.20991477
-0.12041118 0.26455525 0.18420385 0.37771845 -0.11003083 0.08148738 -0.16592935 -0.14820153
-0.033965856 -0.08309395 0.11221235 -0.033597324 -0.03348492 -0.26145416 -0.17626679 0.07310403
-0.13861898 -0.13782717 0.022504989 0.019708646 -0.38477096 0.15181656 0.10377558 0.037973948

encoder.layers.0.self_attn.in_proj_weight f4 [192, 64]
00000000: 6359 133c fb74 793c da07 cf3e 7df1 08bd
00000010: dcb6 213e 7c26 98bb 38ef 95bc 95d2 6cbc
00000020: 9b7f 51be afc4 503c 872e 14bb caaf b03d
00000030: 12b6 2fbe 2226 2bbc 8a0c 80bd 2df6 e83d
00000040: 72fa 36bc 880b ee3b 6703 dc3d 8cdb 61bc
00000050: 5ed2 e43b 9bb2 b23e 6235 adbc eb6b cabb
00000060: 782a 443c 78ac 7d3b 2871 94bc 1b51 a7be
00000070: 0052 adbc 6e5d 27be f27f 8abd 97c1 0cbc
00000080: f270 dabd 5620 71bb 02fe dab9 1bca 1f3d
00000090: 24da 77be f9f6 543c eabd 973b 700c 303e
000000a0: e8f0 f53d 3a8c abbc 97f2 ec3c 126f ea3c
000000b0: e35d cc3c e953 05bd d0bb aebd c9c9 153d
000000c0: 9259 9fbd bb59 fc3c e7a9 14bb 0380 c43c
000000d0: 27bb e03d e724 68be f27d 88bc 5c46 db3c
000000e0: 79a3 633c e00b ed3c c981 8f3e f0c1 97bd
000000f0: 4d33 cebb 24ca a8bc 7d37 51bb 5d62 54ba
00000100: cc78 103c e2ec 4e3d bd19 e8bd 21ca 1bbe
00000110: cc2a 7abc 6b14 2a3d 0907 44bd 87c2 b5bb
00000120: 5446 4bbd bf86 043d 7dd1 e1bc bd43 10be
00000130: 832a 44bd b9f5 46bd a4ef a7be d686 583c
00000140: 62c3 963d aa75 273b a1ba c03d b676 503d
00000150: 4d90 22bd 1968 4abe ab0f c0bc 25d1 d13b
00000160: a848 36bc 6b2d ec3b 7277 b7bd cef7 81be
00000170: de61 833c b6c2 7cbe 06e3 e33e aeb5 6a3d
00000180: edda 23bb e2f2 88bc 9d06 1cbb 98f8 bfbc
00000190: a173 a03d 1968 943a 6fd3 49bb f0c3 c23d
000001a0: de56 873e 37ca 503d 0fdd 2d3d b406 5e3b
000001b0: d1f0 b3bc 4383 b1bd 3722 2fbf cc55 9a3e
000001c0: fba2 8d3d 861f 1dbd e353 c73c ef13 38bb
000001d0: 55f2 a13d 11d2 1abe 4a3a 893c 227b 39bd
000001e0: aa7a b7bc 0503 f63e 7974 8fbd 7d84 5c3d
000001f0: bec1 13bd 385d e8bb c06a 043b 629f 823d
00000200: 1f55 8bbc e500 803d ca63 5cbd 19cc d63d
00000210: 3907 833d 6006 8a3d b733 233c 9edc bdbc
00000220: afcc 3dbd ab11 3c3c 86b6 673c 5212 703d
00000230: c457 503d fabf 18bc 33f7 8cbd d8a6 a1bc
00000240: f20f 0b3d 285f 813d ede7 eb3c 1e4b 0e3d
00000250: 02ed 5c3c 9d8c 66bd 6ed3 b23c f655 e6bb
00000260: df62 e03c 55b3 183b 5619 1ebe 2af0 893d
00000270: f860 143c 0f5f e03d 0a54 69bd 0449 383c
00000280: 3069 86bc 7022 fd3b 9940 153d 4e0d 323a
00000290: 6f5c a33c d178 bc3b d19a 8f3d 7d0e 25bd
000002a0: 9903 c23b d323 3cbd c087 a0bb 95cd 233c
000002b0: 6c94 d63c 382b 813c feb8 e1bd 40fb 9d3c
000002c0: ee9e 51bd ce15 2ebd 5e3e 043d acce b23c
000002d0: 60c9 1cbd 6e21 72bd 8df3 cdbc e152 cf3b
000002e0: aab0 083d 0a5f c03d 5c33 00bd 64ba 2bbd
000002f0: a2d0 633d 00c7 c13c 417a c13c 7b44 b13d
00000300: 2353 2ebe f3f7 bcbd 74c8 583d a3af 95ba
00000310: eec8 b1bb 2f55 3f3d d235 033d d48a 4d3d
00000320: f2eb 12bd edef fabb c37d 92bb 98b2 e53c
00000330: d552 893c ea1f 0b3d 9153 e3bc 0378 88bc
00000340: 71c8 0b3d 87fe 813c eae0 41bb 4b9f d2bc
00000350: de98 8bba 993e e5bc 83db ab3d 1702 ebbc
00000360: a794 343c f199 55bd ae18 663c 182b b93b
00000370: f2fc 213c 07f5 f6bc 2f72 baba 74e2 2cbd
00000380: 1cd6 cabb d387 a53c e60e 983c 5ad3 9cbc
00000390: cfc3 603d c720 563a 92d2 223b 04f9 eb3c
000003a0: fe26 8dbc 774a cebc c1ce 82bd da09 18be
000003b0: 265a 3abc 33cf 33bb d6f1 3d3d 8df1 a8bd
000003c0: c4c4 13bd c1d7 8bbd 3476 26ba e683 48bd
000003d0: 9b6a 703c 38b1 153d 66b3 79bb 1cde f7bb
000003e0: 58e4 e2bc 1621 c53b 90b1 38bd 6645 13bd
000003f0: 8b4b 7b3d 72e5 2a3d d55f 5f3b 189e 1e3d
0.008993479 0.015225644 0.40435678 -0.033433426 0.15792412 -0.0046432596 -0.018302545 -0.014454504
-0.20458834 0.0127422055 -0.002261074 0.08627279 -0.17159298 -0.010446103 -0.06252392 0.11375079
-0.011168109 0.007264558 0.107428364 -0.013785254 0.0069830855 0.3490189 -0.021143619 -0.0061774156
0.011973016 0.0038707536 -0.018120363 -0.32679066 -0.021157265 -0.16344234 -0.06762685 -0.008591077
-0.10666074 -0.0036792955 -0.0004176945 0.039011102 -0.24204308 0.012998336 0.004630794 0.17192245
0.1200884 -0.020940889 0.02892427 0.028617416 0.024947112 -0.032550726 -0.08531916 0.03656939
-0.07780756 0.030804506 -0.0022684278 0.023986822 0.109731965 -0.22670327 -0.016661618 0.026766948
0.013893955 0.028936327 0.28028706 -0.074100375 -0.0062927366 -0.0206042 -0.0031923943 -0.00081018155
0.008817863 0.050518878 -0.11333034 -0.15213825 -0.015268993 0.04152338 -0.04785827 -0.005546871
-0.049627617 0.032355066 -0.027565712 -0.1408834 -0.047892105 -0.048574183 -0.3280002 0.013215741
0.07361485 0.002555231 0.09410597 0.05089446 -0.039688397 -0.19766273 -0.023444971 0.006403106
-0.011125721 0.0072075627 -0.08958329 -0.25384372 0.016037878 -0.24683651 0.44509143 0.05730217
-0.0025002316 -0.016717378 -0.0023807653 -0.023433968 0.078345545 0.0011322527 -0.003079619 0.09510028
0.26433462 0.050974097 0.042447146 0.0033878507 -0.021965416 -0.08667614 -0.6841158 0.30143583
0.06915852 -0.03836014 0.024331992 -0.0028088053 0.07907549 -0.15119196 0.016751427 -0.045283444
-0.022397358 0.4804918 -0.07004637 0.05383729 -0.03607344 -0.0070911907 0.002020523 0.06378056
-0.017008362 0.062501706 -0.053806104 0.10488147 0.06397862 0.06739497 0.00996106 -0.023176488
-0.04633778 0.011478822 0.014142638 0.05861122 0.05086495 -0.0093231145 -0.06883087 -0.019732878
0.033950754 0.06316978 0.028797114 0.034739606 0.013484241 -0.056286443 0.021829333 -0.0070292903
0.027390895 0.002330025 -0.15439352 0.06735261 0.009056322 0.10955631 -0.05696491 0.011247877
-0.01640758 0.0077250525 0.03643856 0.00067921437 0.019941537 0.005751707 0.07011951 -0.04029702
0.005920839 -0.045932602 -0.004898995 0.009997745 0.02619382 0.015767679 -0.110216126 0.019284844
-0.051176958 -0.042501263 0.03228604 0.021827064 -0.038277984 -0.059113912 -0.025140548 0.0063270186
0.033371605 0.09393127 -0.03129898 -0.041925803 0.05561889 0.02365446 0.023617866 0.0865564
-0.17023902 -0.0922698 0.052925542 -0.0011420142 -0.005425564 0.046712097 0.03203375 0.050181225
-0.035869546 -0.007657996 -0.0044705584 0.028039262 0.01676313 0.033965982 -0.027749809 -0.016658789
0.034126703 0.015868438 -0.0029583522 -0.025710722 -0.0010650416 -0.02798395 0.08391478 -0.02868752
0.01102177 -0.052148763 0.01404397 0.005650889 0.009886967 -0.030146135 -0.0014224703 -0.04220815
-0.0061900746 0.020206368 0.018561792 -0.019143749 0.054874238 0.00081683364 0.0024844748 0.028805263
-0.017230507 -0.025181992 -0.063870914 -0.14847508 -0.011374032 -0.0027436733 0.04637321 -0.08249197
-0.036076322 -0.06828261 -0.0006350011 -0.048953913 0.014673854 0.036545962 -0.0038101315 -0.0075643193
-0.027696773 0.006015907 -0.04509121 -0.035954855 0.06135134 0.041722722 0.003408422 0.03872499

encoder.layers.0.self_attn.in_proj_bias f4 [192]
00000000: 7bf4 3ebf f181 583c 6db6 63bc a80f 43bc
00000010: c424 84bb 91f4 a2bb 3262 b0bc 2b45 8a3a
00000020: 7894 b53c 9b9b 2e3f 5329 ea3c ac3f 5a3f
00000030: 7d44 e0bb 5aec 2b3e 90b9 d7bd 82fa 703c
00000040: 5eb1 4cc0 6ddd 52bc f4ce 61bd 07bb a83c
00000050: 1ef2 71bd 9a1e 17bd 2fd2 213c fbb9 d8bb
00000060: e427 92bc bf3f 993c b212 cb3c 650b 963d
00000070: 0957 3fbd b50b 123b cffd 2dbd d702 1e3d
00000080: cc3e ebbc d8f9 9b37 6f67 ccbd b5b1 833b
00000090: 0f07 1bc0 7f2a cf3d b2e0 0bbe 55a4 83bc
000000a0: d6f7 5f3d 95ce 0d3d 3605 21b9 4f50 ef3c
000000b0: 0b57 afbc 19f9 e9bd b92b 8ebd 4f68 5abd
000000c0: 6a0d acbc 6bc3 9b3c 67aa bdbb e9ac 643c
000000d0: 3a9d 0a3d 7f33 ea3c b6c7 3d3e ae6c 42bc
000000e0: 679a 653b 1272 15bb faa9 d73c f2f0 d1bc
000000f0: 4710 733b 8649 a73c 7e98 4fc0 c92b a03c
00000100: ad5c 86bb d356 de3b bbc5 05bb c939 9339
00000110: c217 90b9 80dc fab9 b6bc 893b ad8d 823a
00000120: b60b 0aba fc0e b1bb 101d d2bb 9e71 89bc
00000130: c864 853a 50bb 2d3c b294 34bb c04a a63b
00000140: bee1 bf3c e4ff 5b3a 9f57 d33a 5e62 8bba
00000150: c002 80b9 e2c8 28bb bfe0 0cba 0d9d 063b
00000160: a753 1db8 1e9f d7b9 b95a 663a 0ab6 283b
00000170: 3f8d 39ba 9fce 24ba 8a5b 86ba 1889 8739
00000180: 07c3 63b9 dda5 af3b 5ceb 143b 06d8 a4b9
00000190: 206d 10bd 053f 9fbb 1d61 a53b b390 e438
000001a0: 93e3 c1bb e23c aabb 20b3 dbba c270 603a
000001b0: d688 22bb 8956 9d3a 03c7 2bba d226 683a
000001c0: 7d3e 353a cb65 953a 5abf 07bb 8c1b cd3a
000001d0: 0d77 55bb 45fa 4abb 42e8 24bc 8b0a f839
000001e0: b834 823b 40b6 c53a b387 bcba a590 f2ba
000001f0: 824c 103b f6e7 303b 7487 f5bc 6a41 01bb
00000200: 37bd 0e3c 1edb 6f3d 2f7b 7cbc d0ca fbbb
00000210: c841 adba d054 af3d 7917 a13b a51a 1e3d
00000220: 7cb1 fcbb 1d87 e53a d39a 0cbb e43f ddbb
00000230: b98c faba 2da3 53bb 8862 a5bb 86ad 4ebb
00000240: 907e 03bd 3003 643c b09e 893c da3d 8f3c
00000250: d574 daba bd3a a43b 6672 76bd 9016 e13c
00000260: e0b5 afbb 36b3 da3b 7056 203b f093 303f
00000270: 77f8 bd3b 9056 acbc d3bf 7aba ce72 b8bc
00000280: 3d71 14bc 6da4 ab3c 022e febb 7e87 dcbb
00000290: 0373 dbbb 2799 a33b 1081 31bc 9dc6 b73d
000002a0: 1332 3c3e 4e16 a8ba 8411 a13b f82e e0bc
000002b0: 5111 81bb 78cc 8fba 610e 07bd 96d3 fc3d
000002c0: fef2 793c aa18 1cbb d5aa bc3d b486 10ba
000002d0: 27e0 bc38 2960 763b 67d5 ba3b 9a16 8cbc
000002e0: 7b94 4bbc 4725 dcbb 26e8 873c a793 f83b
000002f0: c639 01bf 6e5f 683e 521b 9dbc c8ef f5be
-0.745918 0.013214574 -0.013898474 -0.011905588 -0.004032703 -0.0049730022 -0.021531198 0.0010549178
0.022165522 0.68206185 0.028584158 0.85253406 -0.006844102 0.1678938 -0.1053344 0.014708163
-3.1983256 -0.012870175 -0.055129007 0.020596994 -0.05906879 -0.03689442 0.009876772 -0.0066139675
-0.017841287 0.018707154 0.024789188 0.07326392 -0.046713863 0.002228481 -0.04247838 0.038576927
-0.028716467 1.8593782e-05 -0.09980666 0.004018987 -2.4223058 0.10115527 -0.13659933 -0.01606957
0.054679714 0.03462084 -0.00015356098 0.029213099 -0.02140381 -0.11424465 -0.06941933 -0.053322133
-0.02100249 0.019014081 -0.005788136 0.013957241 0.03384135 0.028589008 0.18533215 -0.011866732
0.0035034658 -0.0022803587 0.026326168 -0.025627587 0.003708856 0.0204208 -3.2436824 0.019552128
-0.0041004033 0.0067852526 -0.0020412046 0.00028081078 -0.0002748352 -0.00047848 0.0042034043 0.0009960436
-0.00052660273 -0.0054033976 -0.006412156 -0.01677781 0.001017713 0.010603741 -0.002755445 0.005074829
0.023423072 0.00083923177 0.0016124136 -0.0010634174 -0.0002441611 -0.00257545 -0.0005374066 0.0020540387
-3.7509624e-05 -0.00041126547 0.00087873224 0.002574327 -0.0007078237 -0.00062868925 -0.001025067 0.0002585135
-0.0002172106 0.0053603486 0.0022723293 -0.00031441468 -0.03526032 -0.0048598074 0.005046977 0.000108988395
-0.0059170215 -0.005195246 -0.0016761757 0.0008561724 -0.00248008 0.0012003939 -0.00065527874 0.00088558823
0.00069139135 0.0011398135 -0.002071342 0.0015648468 -0.003257218 -0.0030971926 -0.01006514 0.000473101
0.0039735697 0.0015084222 -0.0014383703 -0.0018506242 0.0022018258 0.0026993728 -0.029971816 -0.0019722828
0.0087121045 0.058558576 -0.015410229 -0.0076840892 -0.0013218457 0.085610986 0.0049161282 0.03859963
-0.0077115875 0.001751158 -0.0021454587 -0.006752001 -0.0019115425 -0.0032293305 -0.005047146 -0.0031536533
-0.03210312 0.013916776 0.0167993 0.017485548 -0.0016666899 0.005011885 -0.060167693 0.027476579
-0.0053622574 0.0066741956 0.0024465583 0.68975735 0.0057974416 -0.02103737 -0.0009565327 -0.02251568
-0.009060201 0.020952428 -0.0077569494 -0.006730019 -0.00669706 0.0049926224 -0.010833994 0.08973429
0.18378477 -0.001282403 0.004915418 -0.027366146 -0.003938832 -0.0010970971 -0.032972697 0.12345044
0.015255688 -0.0023818412 0.09212271 -0.00055132364 9.00629e-05 0.0037593937 0.005701709 -0.017100621
-0.012425537 -0.006718311 0.01659019 0.007585961 -0.5047878 0.22692654 -0.019178066 -0.480345

encoder.layers.0.self_attn.out_proj.weight f4 [64, 64]
00000000: f33f 9fbc 9c2b 1d3f df19 a7bd c340 03bf
00000010: 9595 1a3e 3619 e43e 970c bd3a 88db 6fbb
00000020: 2f6d 013c 04e9 52ba 53e8 9dbb f836 0cbd
00000030: b9b8 38bf 5122 e9bc 8077 cebc 9400 eebc
00000040: 0b85 93bc 3f7b 13bd 0790 1f3f f616 563c
00000050: 8573 d53d 8311 00be 3069 19bf 86a5 023d
00000060: 3568 1c3c d04d 203c 8afe 15be 927a 89be
00000070: 5436 143d bdb9 3e3d e668 cebd 19ba 8bbd
00000080: 6344 80bd 698d a0bc 108e 883d 5452 3dbd
00000090: 0e2a 553c 282c e43d 03d5 a4bd 3a13 86bf
000000a0: 29da 3e3e 3913 a4ba 6f55 ef3c a37f 38bf
000000b0: 85ae 4abe 2c70 2b3d dc0c 17bf 2d54 e2be
000000c0: b507 853d ad47 33bd 8544 1e3d 421a 12bd
000000d0: afef 20bd c561 e4bc 641e 5ebd 0ad2 30bf
000000e0: 6663 52bd 55ab 753d c017 15bc 76ea 973c
000000f0: a309 443f 8a7d b0bf 25db c2bb 1c7d bebe
00000100: e328 f13c 3aa3 243f b3d8 033c f143 35bd
00000110: 8ad0 5fbf 8359 453e 66d8 3cbc 3c94 523e
00000120: 386d b3bc c578 6bbb 9a0d e03c e18a 523d
00000130: dddb 03bf b3f4 473b 09e2 8e3c 7b77 97bc
00000140: 3ea2 62bd 5089 79bb 65a1 91be 2c33 2cbd
00000150: b75a 143d 1a6d 303f 84ed 85bf 4a2a 263d
00000160: c0f3 75bd 8d41 ca3c d606 d43c e47d a2be
00000170: 9451 18bc d4cd 2d3d d836 1739 61a4 003d
00000180: e69f b7bc b3ae 183c edd3 8fbb d0ee e73c
00000190: e4d3 9ebb 4632 c1bc ff92 273c 7471 493f
000001a0: ac18 32be 2399 d8ba c1d5 5d3d 9b4a b03e
000001b0: d452 443f e37f d53c 317e a9be 984d b83e
000001c0: fd66 0c3f f58c 873b d72a 6e3f 3566 6e3d
000001d0: c6c1 003d c031 8ebc 68d7 83bd 0e74 2f3d
000001e0: 94e8 7b3c f989 fbbb dc3d 593d 78a0 87bc
000001f0: 465e 57bf 7e5e 8bbf bce6 1cbc 9924 073f
00000200: 41b6 fcbc 2c29 c23e 58c5 c7ba 45e0 b33e
00000210: 3c1b 883e f15f afbe af1f 063c d48f 313d
00000220: 7d10 143c 1a8d 9bbc fbfe 84bc 7c52 b13b
00000230: c3f2 db3e 4f90 d73b fffd 023c 3444 413c
00000240: d05f 42bd b832 9e3c 948a 2abd 8a7b f4ba
00000250: d043 4e3c bae7 813d 77f8 babd dd7f b73a
00000260: bdb9 463b c85c 013d e39c b53b cba4 2a3e
00000270: bfd4 0a3c 4684 c33c a3e4 85bc 11d0 3dbc
00000280: 2ddc 943b 2cae cd3c 59ee 38bc 7d81 53bc
00000290: 115f 6b3c b2d7 2cbc c2c5 fb3b bcbb 2c3e
000002a0: 39b0 123f 1a01 553c 1700 5abc 6377 4b3e
000002b0: 8771 ca3d dbbd 813b aa23 a0bd 92a4 413e
000002c0: 56f0 7abd 0d1c 47bd ac77 3e3e a06f 783b
000002d0: 27ed 6a3c 1564 e83b a23a 87bc 250a 223d
000002e0: dc8f 173c d326 a03c 2175 fc3a a28c 973c
000002f0: 83d5 123f f39c 8fbe 88e2 cabb 404a 58be
00000300: b4e3 28ba 2b2f 2bbf 229c f6bb d6fc c63d
00000310: 961d 07bd fea5 b9be 2978 c7bb b358 b6be
00000320: 4e5e 94bc 9265 003c ba47 483c fe76 853b
00000330: c9ec 6dbe 0c5c 343b cbe9 003b 789b 5e3c
00000340: c7bf 65bc 853f 503d 13db ce3d 9dcd 003c
00000350: 0fed a93c d9bd c63e 7db9 10be 3bb7 01bd
00000360: 7f22 04bc f1aa 01bd 9c77 7638 9946 11be
00000370: ebb7 76bc 59ce 213d b1fd 9d3c 23b6 913c
00000380: 72a7 683c 313c 5fba 9adf 143c 149b aa3c
00000390: cd73 b9bb 0e57 99bc 8eae 873c d9e6 0dbe
000003a0: 1293 be3d c33e 5dbb 44ac 83bc d861 a0be
000003b0: ae63 733e 0bfd ce3b 36de 1abd 644b 3abf
000003c0: deb0 493e 575a 36bd 01fb b1bd b559 5dbb
000003d0: bd2f ce3c 2c3d babc 5f3b 47bd 1857 34be
000003e0: fdd5 1d3c 4a42 b2bc 11f9 013d 904b 15bd
000003f0: 1b0b 443d 40a5 0b3f 4fc7 90bc 5d2f 9c3e
-0.019439673 0.6139467 -0.081592314 -0.51270694 0.15096124 0.44550484 0.0014423308 -0.0036599357
0.007899567 -0.00080455863 -0.004818955 -0.03423211 -0.72156864 -0.028458746 -0.025203466 -0.02905301
-0.018007776 -0.03600621 0.62329143 0.013066998 0.10422424 -0.1250668 -0.5992613 0.031896137
0.009546329 0.009784177 -0.1464788 -0.26851326 0.036184624 0.046563853 -0.100786015 -0.06822605
-0.06263044 -0.01959868 0.06667721 -0.046221092 0.013010515 0.11141235 -0.08048441 -1.0474617
0.18637909 -0.0012517936 0.029215543 -0.7206976 -0.19793136 0.041855022 -0.59003997 -0.44204846
0.064956106 -0.043769527 0.038639564 -0.035669573 -0.03929108 -0.027878651 -0.0542282 -0.69070494
-0.051364325 0.059977848 -0.009099901 0.018544417 0.76577204 -1.3788311 -0.005946534 -0.37204826
0.029438442 0.64311564 0.008047271 -0.044254247 -0.8742758 0.19272427 -0.011526203 0.2056436
-0.021902665 -0.0035930139 0.027350236 0.051401976 -0.5150736 0.0030510842 0.017441766 -0.01848959
-0.055330507 -0.003807623 -0.28443447 -0.04204099 0.036219325 0.68916476 -1.0463109 0.040567674
-0.06004691 0.02468946 0.025882166 -0.31736672 -0.0092967935 0.04243262 0.00014420913 0.031406764
-0.022415113 0.009318995 -0.004389277 0.028312117 -0.0048470367 -0.023583543 0.010227918 0.7868874
-0.17392224 -0.001652513 0.05415893 0.3443192 0.76688886 0.026061958 -0.3310409 0.359967
0.5484465 0.0041366764 0.9303412 0.05820294 0.031434797 -0.017357707 -0.0643757 0.042835288
0.015375275 -0.0076763597 0.05303751 -0.01655601 -0.84128225 -1.0888212 -0.009576496 0.5279022
-0.030848624 0.37922037 -0.0015241308 0.35132042 0.26583278 -0.34252885 0.008186265 0.043350056
0.009037134 -0.01898818 -0.016234865 0.005411444 0.4295865 0.006578482 0.007995128 0.011796046
-0.047454655 0.019311294 -0.041636065 -0.001865254 0.01258941 0.063430265 -0.09129422 0.0013999898
0.003032311 0.031582624 0.005542384 0.16664426 0.008473574 0.023866784 -0.016344374 -0.011585251
0.0045428486 0.025107466 -0.011287295 -0.01290929 0.014365927 -0.010549473 0.0076834867 0.1686849
0.57300144 0.013000751 -0.0133056855 0.19869761 0.09884935 0.0039594 -0.078193024 0.18910435
-0.06126436 -0.048610736 0.18600339 0.003790833 0.014338768 0.007092009 -0.01650745 0.039560456
0.009250607 0.019549763 0.0019260981 0.018499676 0.57357043 -0.2804943 -0.0061915554 -0.21122074
-0.0006442622 -0.6686885 -0.0075259367 0.097161934 -0.0329872 -0.36259454 -0.0060873223 -0.35614547
-0.018111374 0.007836716 0.012224132 0.004073023 -0.23234858 0.0027520685 0.0019670601 0.013586871
-0.014022774 0.050841827 0.10100379 0.007861522 0.020742921 0.38816717 -0.14133258 -0.031668883
-0.008064865 -0.031657163 5.8762365e-05 -0.14187087 -0.015058498 0.03950343 0.019286009 0.017787045
0.014200078 -0.0008515744 0.009086514 0.0208259 -0.0056595565 -0.018718269 0.016562726 -0.13857593
0.09305395 -0.0033759333 -0.016073354 -0.3132465 0.23768494 0.006316786 -0.037809573 -0.72771287
0.19696376 -0.04451975 -0.08690453 -0.0033775393 0.025169248 -0.022734247 -0.048640605 -0.17611349
0.009633538 -0.021760125 0.03173167 -0.036449015 0.047862154 0.54549026 -0.017673163 0.30504885

encoder.layers.0.self_attn.out_proj.bias f4 [64]
00000000: 320e 30c0 ba55 b9be 7024 85be 71a9 923e
00000010: 8b42 b8bd 0430 2340 dee9 5ebe aaaf 9a3d
00000020: 96de 0dc0 ddfb c43e dc85 aabd d6bb 12be
00000030: 53bc 2740 63d9 ae3f 1879 0b3e 9386 26c0
00000040: 9300 58bd 30ba 85be 25e3 1dbf 3f66 f2bd
00000050: c3aa 04bf ff5b d8be 968d bd3f 15fd 9d3e
00000060: b9e3 1bbf 053d debe ddee 8e3e 712c dfbd
00000070: e04e 8ebe 6fbe b5be 02b1 eebe 5515 aabf
00000080: 9e2e eb3d 7db1 323f 6ab5 88be 2ff8 82bf
00000090: c34c fbbd 2125 dabe 47c6 593f 6f0e 7b3d
000000a0: 129e 76be e983 db3d fb2b 55c0 04c4 41bd
000000b0: fa5c c63e 5ec9 a3be 540a 843f c9f1 703f
000000c0: d04d 2f3d 1f32 97bf 2399 33be dd67 1ec0
000000d0: 0f73 2a3f 3415 3f3a 90d5 b4be f153 07c0
000000e0: 99a8 afbe a5fe 033f 853e c43d 8e86 e83e
000000f0: 9128 9940 d9bc 353f 1bff d9bd ecc0 113f
-2.7508664 -0.36198217 -0.26004362 0.286449 -0.08997067 2.5498056 -0.21768901 0.075530365
-2.2167106 0.38473406 -0.08326313 -0.14329466 2.6208694 1.3660091 0.13620412 -2.6019638
-0.052734923 -0.26118612 -0.6167472 -0.11835908 -0.5182306 -0.42257687 1.4808834 0.3085715
-0.6089435 -0.4340593 0.27916613 -0.108971484 -0.27794552 -0.35496852 -0.4661942 -1.328776
0.11483501 0.69802076 -0.26700908 -1.023199 -0.122705005 -0.42606452 0.8506817 0.06129306
-0.24083737 0.10718519 -3.3308094 -0.047306076 0.3874281 -0.31989568 1.0315652 0.94118935
0.042798817 -1.1812171 -0.17538886 -2.4750893 0.66581815 0.0007289231 -0.35319185 -2.1144984
-0.34308317 0.5156043 0.09582237 0.45415157 4.786202 0.70991284 -0.10644361 0.56935

encoder.layers.0.ff.0.weight f4 [128, 64]
00000000: 7c86 c3bf b93e d8bd e030 103f dd53 7bbf
00000010: 59a9 82bc 3771 fc3f b691 533f f254 ff3f
00000020: 83bc 963f 965c e1bd 40db 71bd b2f6 c23d
00000030: 59c2 cabf 1a88 c23f c5c7 d1be fd7a 8c3f
00000040: 0143 99bf 7d58 d5bc 9905 2fbe 0400 75bf
00000050: 2e26 883d b2a0 0e3f f706 fa3f 27b7 a13f
00000060: d404 af3d ede1 bcbf 7007 a83f c694 f1be
00000070: 8ca2 61bd 6a14 9c3f ee4e a03e 5547 adbe
00000080: 31df dfbb f7ce 463e c1e3 213e 087a 99bd
00000090: 4fd4 bf3e bb66 ffbc 7f30 c73e e5e4 3abf
000000a0: 9efe 0f3f 6e9c 4abf e41d 95bf 50dc 21bf
000000b0: 0d77 80bf 74e7 553e 832d 853e 5031 3fbe
000000c0: 218c 95be c50c 9f3f 3916 7f3c a82a 6dbe
000000d0: 93f0 2f3f 419b 8abe c110 d0be f39a ad3d
000000e0: 0333 83bf b811 92bf 34e1 543e 5d16 933f
000000f0: 5b4c ef3f e488 efbe 2137 9a3d 69dc 9d3e
00000100: d7f9 773f d3dd 5b3d de2f 4c3f 45e7 85bf
00000110: 03dd f2be d5f8 23bf 8bd0 83be 30b4 823e
00000120: 8278 3640 d529 0cbe 8c20 1ebd 5562 953e
00000130: 167f 59c0 a906 25bf 9e98 1dbf b3a5 1740
00000140: e134 843f 6b37 47bd b0e2 5f3f 209b e6be
00000150: ecae c1bd 860e 6d3f d699 cd3e 4244 283f
00000160: 2319 d33c 16ff bb3e 780a 0bbf 6a35 f3bd
00000170: 9c5e f03f 15ce fe3f 0065 323f 0a86 123e
00000180: 7631 a93e 782f a8bd 1224 d53d caf2 96be
00000190: 5503 83be 98b8 613d 323a 76bf ccf5 e0be
000001a0: 0c46 b23f edf4 74bd f409 063f 05ce 9cbf
000001b0: 8667 8bbd 924a 713f 606d 0e3d 56c1 5cbf
000001c0: f790 2abf a070 b13f 770b 703c dadc 1bbd
000001d0: c6a4 203e ea00 923e 031c babe f246 133e
000001e0: 75a2 f0bf ba04 9b3d 72a3 5dbe 71d6 d9be
000001f0: 5532 0ebf 8771 92bf 8a04 ff3c 0076 efbe
00000200: 0e22 f43e 9fee f03e 19e2 9e3f b476 f43d
00000210: a617 ebbf 43fd f9be d9e8 3d3e c2f0 e53e
00000220: b70b bdbd 4693 b5bb 9647 043e bc5b 403e
00000230: 15f1 0c3f bc07 643e 2c50 c83f bc74 bf3f
00000240: 3424 01bf 5409 943d 2eab 683e 7c41 093e
00000250: e96d 543c fa84 44bf ac38 203d 40af 5ebf
00000260: 2ee0 71bd 5f89 813e 18c0 b1be 87de 41c0
00000270: 0349 36be 1c09 4d3e 1508 4e40 04f3 593d
00000280: 63d7 4a3f 2ca6 3abc a6d7 b83c 6edf 0c3f
00000290: f89f c33f bfca afbd 7b39 34bd 712b 43c0
000002a0: eb9f ab3e 4065 bfbe c3ec 803e f96b 1c3e
000002b0: 088c 27bf 9bce 8e3f 9727 81bf cd46 7abf
000002c0: 6498 cdbe 28db 263f 7aad f03c c2e3 0bbd
000002d0: 3200 15c0 ae93 a43f 3d99 1b3e a6a8 b3bd
000002e0: d92d e73e f85b 70bf 733f 1440 d3cf 4ebf
000002f0: 4b25 13be 9f99 1f3f 2212 4bbd eb55 d6bd
00000300: 6ae4 1dc0 6bee 393f dd3c d93f 5b6e f2bf
00000310: 8650 bfbc 3412 88be 23a0 873f 2fd9 043c
00000320: 5acd 883f 7bf0 55bd fedb b1bd e092 7a3d
00000330: 5655 95bf 24c6 103f de22 903f 858f 7bbe
00000340: 81fe ea3f 04de 1fbb 7067 31bf 9322 503f
00000350: 43c1 f9bd f743 c43f aa0f 063e a61e 3b3f
00000360: 2a48 34bd 1256 8a3e ea3c 0dbf 2d08 b03f
00000370: 6fcd cf3e 298d 6b3d 1ed4 debe 0e95 dcbd
00000380: 735d 6fbd a364 003d 8f51 5ebc b310 22bf
00000390: 0cfc c4be 6772 78bc 7423 213e edb4 afbf
000003a0: bd5a aabe 1b3f 90bf a8aa 1cbc e5c3 cb3e
000003b0: 276c 92bf cf89 523f 749c afbf 6158 243c
000003c0: 8534 cdbe 4550 11bf a417 2ebd 5f0d 34be
000003d0: 858c 703f 5064 54be 6f71 fbbe 3c39 c33d
000003e0: bb6d 973f ef7e 823e 645c 333e 3708 b73f
000003f0: f843 243e b295 3bbe edcb b43d 73d0 db3e
-1.5275416 -0.105588384 0.5632458 -0.9817484 -0.015949892 1.972205 0.8264421 1.9947798
1.1776279 -0.110039875 -0.059046984 0.0951971 -1.584056 1.5197785 -0.40972725 1.0975033
-1.1973573 -0.026043171 -0.17091979 -0.9570315 0.06647907 0.5571395 1.9533376 1.2634019
0.08545843 -1.4756447 1.312727 -0.47183818 -0.055086657 1.219373 0.3131022 -0.33843485
-0.0068320264 0.19414888 0.15809537 -0.07493979 0.37466666 -0.031176915 0.38904187 -0.73005515
0.5624789 -0.7914494 -1.1649747 -0.63226795 -1.0036331 0.20889074 0.26011285 -0.18671155
-0.29208472 1.2425772 0.015569263 -0.23160803 0.6872646 -0.27071574 -0.40637782 0.0847682
-1.0249943 -1.1411657 0.20789033 1.14912 1.8695177 -0.46784127 0.07530046 0.30832222
0.968656 0.053678345 0.7976054 -1.0461203 -0.47434244 -0.6405156 -0.25745043 0.25528097
2.8511052 -0.13687833 -0.038605258 0.29176584 -3.3983817 -0.6446329 -0.61561 2.3694885
1.0328637 -0.048636835 0.8745527 -0.45040226 -0.09457192 0.92600286 0.4015643 0.65729153
0.025768822 0.36718053 -0.5431285 -0.11875422 1.8778872 1.9906641 0.69685364 0.14308944
0.33045548 -0.08212179 0.104072705 -0.29482108 -0.2558848 0.055107683 -0.9618255 -0.43937528
1.3927627 -0.059803892 0.5235894 -1.2250372 -0.06806855 0.9425441 0.034772277 -0.8623251
-0.6662745 1.3862495 0.014651171 -0.038052417 0.15687856 0.28516322 -0.36349496 0.14382532
-1.8799578 0.07569261 -0.2164438 -0.42546418 -0.5554555 -1.1440896 0.031130094 -0.46769714
0.47682232 0.47057053 1.241275 0.11936703 -1.8366592 -0.48826036 0.18545856 0.44910246
-0.0923075 -0.005541238 0.12917933 0.18784994 0.5505536 0.22268575 1.5649467 1.49575
-0.50445867 0.07228342 0.2272155 0.13403887 0.012965658 -0.76765406 0.039116547 -0.8698616
-0.059051685 0.25300118 -0.34716868 -3.029207 -0.1780129 0.20023006 3.2192433 0.053210273
0.79234904 -0.0113921575 0.022563767 0.55028427 1.5283194 -0.085835926 -0.04400013 -3.0495265
0.33520445 -0.37381935 0.25180635 0.15275563 -0.65448046 1.1156801 -1.0090207 -0.97764283
-0.40155327 0.65178156 0.029379595 -0.034152754 -2.328137 1.2857568 0.15195175 -0.087724015
0.45152166 -0.93890333 2.3163726 -0.80785865 -0.14369695 0.6234378 -0.04957784 -0.10465606
-2.4670663 0.7262942 1.6971699 -1.8939928 -0.023353826 -0.26576388 1.0595745 0.008108421
1.0687668 -0.052231293 -0.08684538 0.061175227 -1.1666667 0.5655234 1.1260641 -0.24566467
1.8358918 -0.0024393806 -0.6929846 0.81302756 -0.12195065 1.5333241 0.13091913 0.7309364
-0.044014134 0.2701879 -0.5517107 1.3752495 0.4058642 0.057507668 -0.43521208 -0.107706174
-0.05843873 0.031345975 -0.01356925 -0.6330673 -0.38473547 -0.015163994 0.1573618 -1.3727089
-0.33272353 -1.1269258 -0.009562172 0.39797893 -1.1439255 0.8224153 -1.3719621 0.010030837
-0.40079132 -0.56763107 -0.042503014 -0.17583226 0.93964416 -0.20741391 -0.4910998 0.09532401
1.1830362 0.25487468 0.17515713 1.4299382 0.16041553 -0.18318823 0.08827958 0.42932472

encoder.layers.0.ff.0.bias f4 [128]
00000000: b6f4 53c0 7d6e c3bf a01d 82be 4b9d bcbf
00000010: b42c 54c0 1790 513f 2a18 3dbe b1a9 77bf
00000020: daf8 f3bf 981c 9fbf 26e7 6bbf 1c14 04c0
00000030: db80 37bf 3a2e dcbf 2043 bd3f 766e b2bf
00000040: a958 a43e 5f39 e8bf 6ad4 91bf ff3a 983c
00000050: ac05 bebd 15fd 11c0 39e1 11c0 7bba babf
00000060: 600a e3bd 3b61 803f 08f2 60bf a221 d7bf
00000070: 5674 d9bf 15b3 c5be 0d57 24c0 7a27 8bc0
00000080: 0e35 1abf 5f51 24c0 01bb 60bf f883 2fc0
00000090: 0888 4ec0 93c6 34be 2a21 a3be dfae 46bf
000000a0: 6eaf acbf b0bd a9bf 9d32 15bf a061 1dbf
000000b0: af95 11bf 49e0 0ec0 3eb0 56bf 21b5 c4bf
000000c0: 59c1 16c0 a66a 16c0 d7f2 5bbf 79b5 e1bf
000000d0: 1d86 80bf c051 eabf aed5 ce3e 49bc 5abe
000000e0: decf 9ebf e1d0 04c0 f229 fdbf 2606 ae3e
000000f0: 9719 9b3f 2b3c b7be b090 70be 5cdb 58c0
00000100: 2606 b3bf 4f7b e1bf 2dd5 ddbf 80f4 d2bf
00000110: 6473 17bf 4707 eabd e91b 33bf 46c6 52bf
00000120: 0f8e e8be 2145 1d3e df04 1bc0 f389 e3bf
00000130: 40bb acbf e2b2 13c0 5c68 c5be 3fd9 8ebe
00000140: 6231 6dbf 69d8 9cbf 2c1a 26c0 9664 bbbf
00000150: 5d5a 34bf e9c3 cebf 5ce9 993e be81 d0be
00000160: 6460 45be 944a c2bf 4608 2cbc 9647 31c0
00000170: 4b45 43bf db77 5abe d97f 11bd 9489 803e
00000180: 2c80 3bc0 a445 78be 086f a8bf 4832 1fbd
00000190: 54b5 e1bf 3cd0 193e 9685 62bf 618b 85bf
000001a0: 128f 79be 5b9a 95be 7a04 56bd e9dd 343d
000001b0: 81bd b7bd 8600 05bf b7d3 f1be cc71 d3bf
000001c0: 28d0 d2bf f0e2 33be fcb7 ccbf 6825 aebf
000001d0: 88a6 79bf c934 3f3f af29 b5bf 12da 483e
000001e0: ce9f 2abf 1813 98bf 8027 57c0 54c9 a2bf
000001f0: a59a efbe 04c5 1ec0 58ee 00c0 012a c8bf
-3.311811 -1.5268093 -0.25413227 -1.4735502 -3.3152285 0.8186049 -0.18466249 -0.96743304
-1.9060318 -1.2430601 -0.9214958 -2.0637274 -0.7168099 -1.7201607 1.478611 -1.393996
0.32098892 -1.8142508 -1.1392949 0.018582819 -0.092784256 -2.281072 -2.2793715 -1.4588159
-0.11085963 1.0029672 -0.8786931 -1.6807139 -1.6988628 -0.3861319 -2.5678132 -4.348569
-0.60237205 -2.5674665 -0.87785345 -2.7424297 -3.2270527 -0.17653875 -0.3186124 -0.7761058
-1.3491037 -1.3261013 -0.58280355 -0.6147709 -0.56869024 -2.2324393 -0.83862674 -1.5367776
-2.355551 -2.3502593 -0.8591742 -1.7633506 -1.0040928 -1.8306198 0.403974 -0.21360888
-1.2407186 -2.075249 -1.9778426 0.33989066 1.2117184 -0.35788092 -0.23492694 -3.3883886
-1.3986251 -1.7615756 -1.7330681 -1.6480865 -0.5916045 -0.11427169 -0.6996446 -0.8233379
-0.45420882 0.15358402 -2.4221723 -1.7776474 -1.3494644 -2.3077931 -0.38556182 -0.2790012
-0.9265348 -1.2253543 -2.5953474 -1.4640071 -0.70450383 -1.6153537 0.30060852 -0.40723985
-0.19275051 -1.517901 -0.010500019 -2.7699943 -0.7627761 -0.21334784 -0.035522316 0.25104964
-2.929698 -0.24245316 -1.3158884 -0.03886631 -1.7633462 0.15020841 -0.88485086 -1.043316
-0.24370983 -0.29219326 -0.052250363 0.044156943 -0.08971692 -0.51953924 -0.47231838 -1.6519103
-1.6469774 -0.17567039 -1.5993648 -1.3605165 -0.9751973 0.7468992 -1.4153346 0.19614437
-0.6665009 -1.1880827 -3.361786 -1.271769 -0.46797672 -2.4807749 -2.0145473 -1.5637819

encoder.layers.0.ff.2.weight f4 [64, 128]
00000000: f0fb 43bc 6f68 083f ea68 773e 0085 e43f
00000010: de31 89bd 27e7 273f ff00 e13f adda 963f
00000020: bb49 b13d e97b b5be 7702 b5be 437b a03f
00000030: cc6d f0bd 0e1c a7be f685 3cbf a553 fbbf
00000040: a88f 253f d130 403f a812 203f 813c 273f
00000050: fd05 6f3f 5d35 91bc e824 de3e c910 e5bf
00000060: 0d73 0abe a1de 363e 13d2 593f f65d f63f
00000070: 5bd2 933e 43d9 533f 6fae 5a3e 059a b4bf
00000080: ceac ccbf f5ff 823e 88ad cfbd c798 8ebf
00000090: 1b1c ac3e 275b 92bf 5535 b6be 7b1d 80bf
000000a0: 38e6 cc3f 4876 83bc 924c e33d 5163 a33f
000000b0: ab30 12be 68a9 aebe 900f 91bf 1dff 3d3f
000000c0: f97d ef3e cad3 a13e 8dee c6bd 45ce 303f
000000d0: e26f 5b3e 7a5a 7d3c 0a5d 06c0 d24a eb3d
000000e0: f488 c83e d4fe 50bf ce94 f3be 4fdc de3e
000000f0: 4c0c 48bf 0a94 9f3f 01a1 2c3e 3543 f73e
00000100: 6e7d 003f a61d 523f ccca 6ebf 065a d2bd
00000110: 116d 6ebf 3de6 3cbd 68a3 a53f 9af1 84bf
00000120: 11f2 cabe 8cd4 343e 989d ca3f 8f64 f3bd
00000130: af69 01be f813 8abf fb02 02bf f62c 6c3e
00000140: 60a7 c0bd 5e83 a73f a876 ca3e 8dc0 33bd
00000150: ae03 303f 7c85 5d3f ecd2 253f f201 8b3f
00000160: 09c8 373d 08d8 2940 c6ea a5bf 467a 953d
00000170: c1a8 e0be ab66 08c0 0d42 ed3e fe6f 7b3f
00000180: bec1 763e 6c97 d7bd eed3 cdbe b4f3 c1bf
00000190: 57d8 74be 5547 f9bd 82bd 653d cd61 ac3e
000001a0: 5bdc 233f d174 963f e4d1 233f 09cc 673e
000001b0: a502 35bf 9961 8a3e cf24 033f a78a 6f3e
000001c0: 1ded b8be 7b64 b7bf b0d0 c53d 90f2 d53e
000001d0: 934b 22bf d28a 683c 16bf c0be 4ee2 b03e
000001e0: 9aef c93f d9aa 833f e4c1 d5bf 9b84 b43e
000001f0: 432b cabf d77f 6a3d 9983 04ba 7244 88be
00000200: 4148 eabe 4224 f9be fa3e 0c3f b42b dc3f
00000210: 9d61 e6bf dddf 68bf 0506 683c bbb3 503f
00000220: bb5e c83e c124 cc3f ad28 6b3f e247 24bf
00000230: 4636 18bf 291e 13bf 8435 813e 4d90 cf3d
00000240: 4918 483f b928 723e cd93 d03e 4429 e6be
00000250: ad93 3a3f d938 b23e 1de6 253f a54d 96bf
00000260: 7343 a33e f312 4abd 7c2c ba3f f339 183f
00000270: 72dd cf3e d586 0f3e 1fe0 723e 6494 8e3f
00000280: 68b7 b6bf 2637 12bf 424d bfbe 2e54 8dbe
00000290: fe88 073f c13c afbe f80a dcbf c07f a9be
000002a0: ee04 a03f 2c55 18bf 7a2e 24bd f30e bb3e
000002b0: 5394 083f 9d8d 963e d318 4ebd 0c9f a43f
000002c0: 0d73 203f 4911 d5be 0d8d 68bf 63f1 943f
000002d0: 5a9e 9fbf 63b3 a9be c137 c5bf a133 10bf
000002e0: e778 f8be 65b3 ca3e 8df8 eb3e c4c1 abbf
000002f0: 880f 3cbf b669 abbf 5516 923e fbaa 613f
00000300: 51aa d53e 0a34 0340 8258 7fbd 77a2 7fbf
00000310: ed70 e93f c2b8 793e 17eb babf bcc0 a2be
00000320: 0f6e 2040 faff 87bf fe6d 763f 3f8b 3abf
00000330: e414 a3be c296 ebbd 8d71 69be e272 dfbd
00000340: d0b0 ce3d 314c 163f f1b2 a73e 972b 4a3f
00000350: 133a d23d a840 5abf ebc7 4a3e e570 aa3f
00000360: 57ed 173f 51ee 573f 3387 a83e a4c4 b03d
00000370: 9c52 6f3e 60ef 99bf 0aa5 7abf 46e7 1d3f
00000380: e68f 0cbf 3828 0f3e 9957 45be d18f 9e3f
00000390: f849 9b3f 9e2d 0b40 15dc 913f 50b6 4640
000003a0: 9299 1b3f cca7 9cbe e66e 05c0 f2c9 e63e
000003b0: 2feb ca3e 3916 ee3e c891 1bc0 a2e2 25bf
000003c0: 6bcc 66bf 405f 17bf 5b65 f2bf d25d 1dbf
000003d0: d74f 163f 83af ee3d 7d42 473f ff68 9f3f
000003e0: af86 b03e ef33 58be 0715 aebf 2cc2 fb3f
000003f0: 8f19 b6be 502d b0bf dc34 903f 6d41 683f
-0.011961922 0.53284353 0.24161115 1.7853088 -0.066989645 0.65587085 1.7578429 1.1785485
0.08656641 -0.35446098 -0.35353443 1.2537616 -0.11739692 -0.32638592 -0.7364191 -1.9634901
0.6467233 0.7507449 0.6252847 0.65326697 0.9336851 -0.01772564 0.43387532 -1.7895747
-0.13520451 0.17858364 0.8508617 1.9247425 0.28871426 0.8275339 0.21355604 -1.4109503
-1.5990236 0.25585905 -0.1014052 -1.1140374 0.33615193 -1.1434067 -0.35587564 -1.0008997
1.6007757 -0.016047612 0.11098589 1.2764684 -0.14276378 -0.34113622 -1.1332874 0.74217397
0.46775797 0.31606895 -0.09713469 0.6906474 0.21429399 0.015463466 -2.0994287 0.1148888
0.39166987 -0.81638837 -0.47574466 0.43527457 -0.78143764 1.2467053 0.16858293 0.48293462
0.5019139 0.8207649 -0.93278193 -0.10271077 -0.9313517 -0.04611801 1.2940493 -1.0386231
-0.39637807 0.17659205 1.5829344 -0.118844144 -0.12637971 -1.0787344 -0.507858 0.23064026
-0.09406924 1.3086965 0.39543653 -0.043884803 0.68755615 0.86531806 0.64774966 1.0859969
0.044868503 2.6538105 -1.2962272 0.072987124 -0.4387875 -2.1312664 0.46339455 0.9821776
0.24097344 -0.10526928 -0.40200752 -1.5152497 -0.23910652 -0.12171809 0.05608893 0.33668366
0.6400811 1.17544 0.6399214 0.22636427 -0.7070716 0.27027586 0.5122804 0.23392735
-0.36118403 -1.4327539 0.096589446 0.41786623 -0.6339657 0.014193254 -0.37645787 0.34547657
1.5776246 1.0286514 -1.6699796 0.3525742 -1.5794452 0.057250824 -0.000505501 -0.2661472
-0.4575825 -0.48660475 0.54783595 1.7200837 -1.7998539 -0.9096659 0.014161591 0.81524247
0.39134774 1.5948716 0.9185894 -0.64172184 -0.59457815 -0.57467896 0.25236142 0.10134945
0.78162056 0.23648347 0.40737763 -0.44953358 0.72881585 0.34808996 0.6480425 -1.1742445
0.31887397 -0.049334478 1.4544826 0.59463423 0.40598637 0.14016278 0.23718308 1.1139035
-1.4274721 -0.571154 -0.3736363 -0.27603287 0.5294341 -0.3422604 -1.7190847 -0.33105278
1.2501504 -0.5950496 -0.040083386 0.36534843 0.53351325 0.29404917 -0.050316643 1.2861037
0.62675554 -0.4161475 -0.90840226 1.1636165 -1.24702 -0.33144674 -1.540764 -0.5632878
-0.4852974 0.39589992 0.46088067 -1.3418508 -0.734612 -1.3391635 0.28532663 0.8815152
0.41731504 2.0500512 -0.062340267 -0.99857277 1.8237587 0.24386886 -1.4602994 -0.3178767
2.5067174 -1.0624993 0.96261585 -0.7286872 -0.31851876 -0.11503364 -0.22797222 -0.10910584
0.10092318 0.5871001 0.3275371 0.7897276 0.10264983 -0.8525491 0.19802825 1.3315703
0.59346527 0.84348017 0.3291565 0.08631256 0.23371357 -1.2026176 -0.9790808 0.6168102
-0.5490707 0.13980186 -0.19271697 1.2387639 1.2131948 2.1746593 1.1395289 3.1048775
0.60781205 -0.3059677 -2.0848937 0.45075947 0.39632556 0.4650133 -2.4307728 -0.6479894
-0.9015567 -0.59129715 -1.8937181 -0.61471283 0.58715576 0.1165457 0.7783583 1.2453917
0.34477755 -0.21113561 -1.3600167 1.9668632 -0.35566375 -1.3763828 1.1266131 0.9072483

encoder.layers.0.ff.2.bias f4 [64]
00000000: 5eb1 c0bf 16d8 983d d566 4cc0 ff6b a540
00000010: 7200 d0be 15d6 c540 9713 51c0 fd22 18c0
00000020: a7ee 16c1 876a 79bf f4a2 0bbf 791a 84be
00000030: 1a37 ab41 1395 cb3f ca3d 0dc0 6664 6dc1
00000040: 1237 f03e 3e5e 743d 9d10 cdbf e87b c940
00000050: e21b 693f 1b11 c0bf b7ab 1640 8c2e 8d3f
00000060: c05b 75be 9330 59c0 2b1c 33bf a365 0ac0
00000070: a6d4 45bf 1132 e1c0 e877 833f c2c3 99c0
00000080: 1e80 dabe d109 1040 a563 a9bf f6cf 5bc0
00000090: f7d8 fa3f 217b 0bc0 1c9e 2b40 b542 45bf
000000a0: 5190 adbe a7bd debe d97d d1c0 7558 80be
000000b0: 9db5 ce40 7d62 6ebf fae4 b940 d2de 4840
000000c0: ecf6 9e40 7d43 a8c0 198d dc3e d09f 3fbf
000000d0: d7e8 843e a864 af3f 4f21 08c0 8479 853e
000000e0: 0437 643d f823 2840 3c9c 5a40 4654 9440
000000f0: 3182 0840 25d6 5140 a14d 3d40 1d56 a93e
-1.5054128 0.0746309 -3.1937764 5.169433 -0.4062534 6.182383 -3.2668207 -2.3771355
-9.433265 -0.9742817 -0.5454552 -0.25801447 21.401905 1.5904869 -2.2068963 -14.837011
0.46917015 0.05966019 -1.6020695 6.2963753 0.9105817 -1.500522 2.3542306 1.102983
-0.23960781 -3.3935897 -0.69964856 -2.1624534 -0.772776 -7.0373616 1.0270967 -4.805146
-0.4267587 2.2505991 -1.3233534 -3.434568 1.9597462 -2.1793902 2.6815252 -0.7705491
-0.33899167 -0.43504068 -6.5466123 -0.25067487 6.4596696 -0.9311903 5.8092012 3.1385999
4.967642 -5.2582383 0.430764 -0.7485323 0.25958893 1.3702593 -2.127033 0.26069272
0.05571653 2.6271954 3.4157858 4.6352873 2.1329463 3.2786953 2.957863 0.33073512
