checkpoints/epicon_state/best_model.pt (torch, 580514 bytes, 56 tensors)

encoder.pos f4 [1, 15, 64]
-0.077759884 -0.48800117 -1.1593007 -0.76554626 0.61079025 -0.071646705 -0.38474151 -0.45364687
-0.37814984 -0.35174933 0.28311655 0.43046367 0.12984057 0.08823811 0.17315556 -0.037202988
-0.28815445 -0.21366337 0.6534494 0.23952624 -0.14222953 -0.49498558 0.10714991 -0.024379984
0.2650823 -0.039283887 0.16077569 0.13185397 -0.06635592 0.13222657 -0.65317434 0.06472452
-0.9283842 0.030577322 -0.16897376 0.22232443 -1.4803382 -0.13891199 -0.13964719 0.4223929
0.34077466 -0.12769456 -0.18529905 -0.37035954 -0.15876791 -0.23409499 0.16177984 0.3260336
-0.2646358 0.07085087 -0.13014942 0.041946657 0.9996155 0.61020243 -0.17423695 -0.06674769
0.13215631 0.044554625 1.1557324 -0.07775901 0.39540532 -0.1521685 -0.121215716 -0.05121692
-0.08307852 -0.42473024 -0.4498399 -0.21454278 0.3820755 -0.054177452 0.0597421 -0.29430872
-0.597122 -0.33108315 0.3105601 0.5199988 -0.96567196 0.099229865 0.041867685 0.014887487
-0.26614854 -0.19817232 -1.6420612 0.24818024 -0.11632827 -0.29945454 0.1324806 0.009772285
0.28876728 0.0040284973 0.16704619 -0.21326831 -0.028593464 -0.81358373 -0.7575294 0.08724603
-1.3549885 0.04707114 -0.1450973 0.15086684 -0.17841959 -0.11907688 -0.124720305 1.0904014
0.29611757 0.014311921 -0.17904544 -0.38372493 0.2827614 0.36194572 0.2904087 0.3598506
-0.089098446 0.04727978 -0.08947339 0.048078083 -0.72043854 0.09666521 -0.2593767 -0.07176446
0.1359002 0.5359336 1.1531073 -0.15868746 0.39387333 -0.1510959 -0.09621164 -0.024503104
-0.123054065 -0.516416 -1.002117 0.49345422 0.6821911 -0.10895511 0.12400028 -0.3964254
-0.24738553 -0.3298673 0.30123746 0.7062687 -0.4463014 0.06792017 0.49258372 -0.026950024
-0.2800253 -0.20465939 -0.7727397 0.25857452 -0.12743936 -0.13292399 0.10882256 -0.0019034492
0.28929475 -0.0327118 0.17465457 -0.46628737 0.001986702 -0.56944907 0.8272924 0.056922708
-0.900042 0.04472116 -0.16159944 0.16500002 -0.07818116 -0.1246277 -0.13043053 0.047428768
-0.47519824 0.16006134 -0.20565781 -0.3675841 0.3002124 0.9495786 -0.08652122 -0.10787624
0.1279283 0.09947808 -0.115122855 0.02845888 1.1324241 1.5344495 -0.041996133 -0.08615392
0.13248292 0.30312285 0.020150712 0.15550467 0.4205054 -0.17646389 -0.11237122 -0.048831176
-0.12240518 -0.50684065 1.0676373 0.68626565 -0.9166902 -0.08179624 0.38281274 -0.42829075
-0.55740094 -0.29651332 0.29152235 0.5676559 0.5220602 0.111972064 0.26118737 -0.0965837
-0.26604846 -0.20091632 -0.6815423 0.25318167 -0.15145263 0.0953352 0.111099966 -0.029704431
0.2809065 -0.010026342 0.17173077 -1.6927387 -0.062095456 0.11866881 0.9481945 0.09899031
-1.3896176 0.052223895 -0.15251592 0.14135194 -0.1447064 -0.12631921 -0.11703909 0.2663374
0.23075877 -0.24273436 -0.1963134 -0.3407858 -0.12747048 0.780383 0.1785414 0.06263888
-0.27954945 0.06197225 -0.10359492 0.0077229147 0.2710826 0.36825404 0.22677389 -0.12522303
0.17750725 -0.20323962 0.83504087 -0.5395794 0.35466415 -0.17792115 -0.09855395 -0.04832334
00000000: 9340 9fbd 4adb f9be f763 94bf d7fa 43bf
00000010: c05c 1c3f 82bb 92bd d7fc c4be 6744 e8be
00000020: db9c c1be 7d18 b4be a7f4 903e bc65 dc3e
00000030: edf4 043e 2fb6 b43d b14f 313e 2962 18bd
00000040: fb88 93be 92ca 5abe 7648 273f 5e46 753e
00000050: 9ea4 11be c06e fdbe 6971 db3d 88b8 c7bc
00000060: deb8 873e 24e8 20bd 62a2 243e ba04 073e
00000070: 9de5 87bd 6766 073e 6f36 27bf 4a8e 843d
00000080: 96aa 6dbf 4b7d fa3c 7507 2dbe 04a9 633e
00000090: b97b bdbf f23e 0ebe acff 0ebe e243 d83e
000000a0: 047a ae3e 5dc2 02be 09bf 3dbe c49f bdbe
000000b0: 0e94 22be 99b6 6fbe 9da9 253e e0ed a63e
000000c0: 587e 87be 431a 913d e445 05be 42d0 2b3d
000000d0: cde6 7f3f 3a36 1c3f 2c6b 32be 03b3 88bd
000000e0: fc53 073e e97e 363d 0aef 933f 1e40 9fbd
000000f0: 9172 ca3e 0fd2 1bbe f23f f8bd d5c8 51bd
00000100: 1225 aabd 3e76 d9be 6a51 e6be 1ab1 5bbe
00000110: 669f c33e 2de9 5dbd 22b4 743d a2af 96be
00000120: fddc 18bf bb83 a9be bc01 9f3e a41e 053f
00000130: 4736 77bf 0739 cb3d 737d 2b3d a5ea 733c
00000140: 9f44 88be afed 4abe 102f d2bf f622 7e3e
00000150: 843d eebd 1b52 99be ffa8 073e ef1b 203c
00000160: 4ed9 933e 7c01 843b 280e 2b3e 0263 5abe
00000170: d73c eabc 0647 50bf 72ed 41bf 0cae b23d
00000180: 4370 adbf abcd 403d 6394 14be d67c 1a3e
00000190: a0b3 36be 94de f3bd 5c6d ffbd 4692 8b3f
000001a0: b99c 973e 8c7c 6a3c b057 37be 9877 c4be
000001b0: 1ac6 903e f350 b93e 73b0 943e 563e b83e
000001c0: 3f79 b6bd 71a8 413d d33d b7bd 86ed 443d
000001d0: a96e 38bf 69f8 c53d 06cd 84be 3ff9 92bd
000001e0: 6c29 0b3e f232 093f 0599 933f f77e 22be
000001f0: c4a9 c93e e2b8 1abe 9c0a c5bd bcba c8bc
00000200: c503 fcbd d733 04bf 5f45 80bf 08a6 fc3e
00000210: 13a4 2e3f db23 dfbd dcf3 fd3d 45f8 cabe
00000220: a252 7dbe 5ee4 a8be cc3b 9a3e 07ce 343f
00000230: 9e81 e4be bb19 8b3d ef33 fc3e 4cc6 dcbc
00000240: 7a5f 8fbe 3b92 51be 45d2 45bf e163 843e
00000250: 777f 02be 3a1d 08be 5dde de3d 287d f9ba
00000260: 711e 943e cffc 05bd a6d8 323e 38bd eebe
00000270: 5433 023b 6ac7 11bf 6fc9 533f c927 693d
00000280: 2769 66bf 892d 373d 537a 25be c4f5 283e
00000290: 721d a0bd cf3c ffbd 958f 05be ab44 423d
000002a0: 2f4d f3be 1fe7 233e f697 52be fc33 bcbe
000002b0: 71b5 993e 9517 733f 0a32 b1bd 38ee dcbd
000002c0: a3ff 023e 2abb cb3d 88c5 ebbd 9922 e93c
000002d0: 46f3 903f d768 c43f 2304 2cbd 7771 b0bd
000002e0: 9aa9 073e eb32 9b3e 1b13 a53c 9e3c 1f3e
000002f0: 7c4c d73e f3b2 34be e222 e6bd 3303 48bd
00000300: 91af fabd 4fc0 01bf 57a8 883f 1baf 2f3f
00000310: 35ac 6abf c984 a7bd 0800 c43e ed48 dbbe
00000320: d4b1 0ebf 98d0 97be 6b42 953e e651 113f
00000330: bda5 053f 9c51 e53d 5aba 853e adcd c5bd
00000340: 8137 88be 02bd 4dbe 8e79 2ebf 07a1 813e
00000350: 6616 1bbe 1a3f c33d 6188 e33d b556 f3bc
00000360: fad2 8f3e 8745 24bc 31da 2f3e a9ab d8bf
00000370: ce57 7ebd a208 f33d e0bc 723f 6fbb ca3d
00000380: fdde b1bf b9e8 553d 222d 1cbe 90be 103e
00000390: ea2d 14be d359 01be 31b2 efbd 605d 883e
000003a0: 074c 6c3e 5b8f 78be 6106 49be 7a7b aebe
000003b0: 9f87 02be 2ec7 473f 8fd3 363e d048 803d
000003c0: 1b21 8fbe 9dd6 7d3d 9329 d4bd 8110 fd3b
000003d0: 57cb 8a3e cb8b bc3e 6a37 683e 773a 00be
000003e0: 76c4 353e 0c1e 50be 3dc5 553f e021 0abf
000003f0: 8a96 b53e f630 36be a7d6 c9bd b2ee 45bd

encoder.embed.weight f4 [64, 6]
0.017118653 0.015819559 0.010769561 -0.0009526564 -0.013970271 0.0005983057 0.041543763 -0.0020058271
0.012574184 0.013345471 -0.0074234176 -0.0072315685 0.13473554 -0.14897212 -0.05504792 0.1124595
-0.12570086 -0.048684504 -0.25268707 0.4984069 0.6634945 -0.08130562 0.04624208 0.6129112
0.39922196 0.19009681 0.46204245 -0.7694056 -0.6706383 1.4518871 -0.0039619314 -0.0024029405
0.020918973 -0.0027238075 -0.014532192 -0.0013672517 -0.619113 -1.882779 -2.8434696 -1.3630435
1.0486777 0.36536723 0.0180696 0.017186703 0.021905063 0.021885041 -0.015362481 0.00074550556
-0.064422496 0.008464798 0.047941096 0.12939113 -0.011471867 0.11693202 0.010721005 0.015115209
0.0022624142 0.0009169931 -0.011531967 0.006887794 -0.0051245065 0.0036880097 0.006656238 -0.010798749
-0.009375077 0.0029422396 0.5760361 0.17521475 0.75977284 -0.5927978 1.3557642 -2.4540787
0.16425546 0.07321174 0.064622596 -0.13864182 -0.020715354 0.17768386 -0.018619163 -0.00028837167
0.0078003365 -0.018862408 0.007854721 -0.0013363084 -0.007759227 -0.011915413 0.013339508 0.034359053
-0.0016337018 -0.009003043 -0.010659768 -0.007095658 -0.001970312 0.0069250404 -0.0039074738 0.00787334
0.002480488 0.010185225 -0.0043874164 0.004262125 -0.017849533 -0.013203019 0.002369735 0.0065991986
0.0010631423 -0.005154725 -0.009648872 0.004346773 -0.19939907 0.104299 -0.40127102 0.24270584
0.0302517 -0.34607595 0.01847373 0.0022630394 -0.0017934982 0.02040105 -0.007446189 -0.00017559026
0.0012552465 0.007464485 0.014346417 0.0013360309 0.0025840206 -0.0031939999 -0.026603127 -0.06567737
0.0037839145 0.24949764 -0.097221896 0.14023656 -0.007970979 0.009653473 0.0077724406 -0.005193245
-0.015546459 0.0030489727 -0.0016452887 0.003968541 -0.008670243 -0.00038940043 0.0014963397 -0.024550993
-0.008334107 0.0028486985 0.0031807497 -0.010158276 -0.009884205 0.0020590827 -0.0024294062 0.004249438
0.014235463 0.0033495964 0.0107843615 -0.0015884701 0.011917742 0.008718065 0.0020468864 -0.000988055
0.0067153634 -0.0030483967 -0.050916195 -0.057827577 -0.02948192 0.008614398 0.0028809637 -0.045238197
0.0046590692 -0.0036685355 -0.0049380665 -0.001548497 -0.0049895416 -0.0021904053 0.06434609 0.0200813
0.026307521 0.02115238 -0.021306649 0.060537804 -0.00080464553 0.025935968 0.0021887796 0.018899592
-0.017944243 -0.042547364 -0.014575513 0.004984797 -0.0037565792 -0.012759493 -0.011921029 0.00628733
-0.13140519 0.042122792 -0.26779756 0.21727659 0.13454427 -0.2765576 0.020290542 0.006211437
0.011577353 0.010055424 -0.0026964855 -8.364043e-05 0.012850481 0.009620896 0.007681058 0.004423537
0.00046380886 0.00420712 0.009670761 -0.006906465 -0.00037663168 -0.00074247166 0.014419984 -0.0024100626
-0.036245607 -0.02095116 0.0013953134 0.07385133 -0.025113944 0.02404554 0.010251004 0.013476475
0.013070863 0.004700902 0.0044693854 0.0013537034 0.02551594 0.010119688 0.012408516 0.016607683
-0.004126127 0.00378271 -0.22865894 0.3179617 0.39933187 -0.09401237 0.32712543 -0.06322477
0.018689316 0.0074793505 0.004245023 0.010460255 -0.019387906 0.01758654 -0.06908756 1.5933346
-0.5058587 0.046186775 2.7245958 0.6413436 -0.01002493 0.009372168 -0.001915069 -0.018556412
00000000: 6b3c 8c3c 0598 813c d072 303c b0bb 79ba
00000010: 90e3 64bc 9ed7 1c3a cb29 2a3d 3274 03bb
00000020: f303 4e3c f6a6 5a3c 2440 f3bb cbf6 ecbb
00000030: 1df8 093e 268c 18be ee79 61bd 2b51 e63d
00000040: bab7 00be 6769 47bd 3360 81be 302f ff3e
00000050: c7da 293f 9083 a6bd 5668 3d3d c0e7 1c3f
00000060: d266 cc3e bda8 423e d490 ec3e c4f7 44bf
00000070: f4ae 2bbf 70d7 b93f 17d3 81bb a77a 1dbb
00000080: 445e ab3c e881 32bb 6e18 6ebc 5b35 b3ba
00000090: 317e 1ebf e7fe f0bf 68fb 35c0 3678 aebf
000000a0: 123b 863f 6a11 bb3e b306 943c 21cb 8c3c
000000b0: 3f72 b33c 4248 b33c eab2 7bbc 086e 433a
000000c0: f1ef 83bd f0af 0a3c e25d 443d 1c7f 043e
000000d0: 7ff4 3bbc 0e7a ef3d 27a7 2f3c c8a5 773c
000000e0: 0345 143b 5e62 703a 93f0 3cbc 01b3 e13b
000000f0: 7aeb a7bb 89b2 713b 921c da3b 3ced 30bc
00000100: ec99 19bc 97d2 403b 1a77 133f 7f6b 333e
00000110: 7980 423f 99c1 17bf ae89 ad3f a00f 1dc0
00000120: 9532 283e 09f0 953d da58 843d 1ff8 0dbe
00000130: 3fb3 a9bc c2f2 353e 3787 98bc 9730 97b9
00000140: f799 ff3b 5685 9abc 16b1 003c 1227 afba
00000150: 1d41 febb dd38 43bc f48d 5a3c 14bc 0c3d
00000160: f021 d6ba 8081 13bc 4fa6 2ebc b282 e8bb
00000170: 5a20 01bb 73eb e23b 440a 80bb 2eff 003c
00000180: af8f 223b eedf 263c 51c4 8fbb 4ca9 8b3b
00000190: 2f39 92bc 7a51 58bc 8e4d 1b3b 173e d83b
000001a0: 2359 8b3a f8e8 a8bb 4d16 1ebc 606f 8e3b
000001b0: 452f 4cbe b79a d53d 6573 cdbe e187 783e
000001c0: 6ad2 f73c de30 b1be 3856 973c 804f 143b
000001d0: d013 ebba 1a20 a73c 29ff f3bb a71e 38b9
000001e0: 1587 a43a a398 f43b 3c0d 6b3c c21d af3a
000001f0: ac58 293b 6d52 51bb cdee d9bc db81 86bd
00000200: 8dfb 773b 4f7c 7f3e 461c c7bd 2c9a 0f3e
00000210: b698 02bc 9a29 1e3c f5af fe3b 192c aabb
00000220: 93b6 7ebc 46d1 473b baa6 d7ba 890a 823b
00000230: a30d 0ebc 7128 ccb9 d420 c43a 2a1f c9bc
00000240: c78b 08bc 3bb1 3a3b 2074 503b e66e 26bc
00000250: 5cf1 21bc adf1 063b ac36 1fbb df3e 8b3b
00000260: dc3b 693c e784 5b3b e4b0 303c 3634 d0ba
00000270: a242 433c 37d6 0e3c 0e25 063b a081 81ba
00000280: 8d0c dc3b 9cc7 47bb 808d 50bd 9cdc 6cbd
00000290: 1184 f1bc 6723 0d3c 8dce 3c3b b04b 39bd
000002a0: 1bab 983b d06b 70bb 81cf a1bb f0f6 caba
000002b0: 4f7f a3bb e78c 0fbb e2c7 833d 8a81 a43c
000002c0: df82 d73c c247 ad3c 488b aebc 7df6 773d
000002d0: d9ee 52ba ab77 d43c a171 0f3b 51d3 9a3c
000002e0: ceff 92bc 2546 2ebd 22ce 6ebc 8257 a33b
000002f0: f130 76bb 310d 51bc 6b50 43bc f205 ce3b
00000300: 158f 06be f388 2c3d c31c 89be c17d 5e3e
00000310: f9c5 093e f598 8dbe 5a38 a63c 4f89 cb3b
00000320: f0ae 3d3c 81bf 243c 85b7 30bb 1d68 afb8
00000330: d38a 523c f6a0 1d3c 62b1 fb3b 51f3 903b
00000340: 5f2b f339 e1db 893b 1d72 1e3c a14f e2bb
00000350: a676 c5b9 6ea2 42ba cc41 6c3c 24f2 1dbb
00000360: 4676 14bd c4a1 abbc f3e2 b63a 5e3f 973d
00000370: c2bb cdbc 27fb c43c d4f3 273c 6fcc 5c3c
00000380: 2c27 563c 060a 9a3b ec73 923b c06e b13a
00000390: ce06 d13c 0ccd 253c 174d 4b3c d60c 883c
000003a0: 7634 87bb 58e7 773b 9225 6abe e0cb a23e
000003b0: 3a75 cc3e 8f89 c0bd fc7c a73e fd7b 81bd
000003c0: 561a 993c 5715 f53b d519 8b3b 7d61 2b3c
000003d0: 63d3 9ebc a611 903c c77d 8dbd 63f2 cb3f
000003e0: f57f 01bf 582e 3d3d c75f 2e40 182f 243f
000003f0: 9b3f 24bc b98d 193c 0d03 fbba 9e03 98bc

encoder.embed.bias f4 [64]
0.10522959 0.48200688 -0.16823745 0.14528275 0.2383453 0.105769195 -0.0915736 0.39433634
0.18845727 0.33597505 -0.3194043 -0.34258968 -0.06684066 -0.07269961 -0.06530637 0.079968005
0.28342512 0.1808694 0.17240568 -0.26856917 0.10494766 0.24048522 -0.084052324 0.01794227
-0.29826736 0.0151330745 -0.18800405 0.28570104 0.059208076 0.2959415 0.06518984 -0.05685076
-0.27737698 -0.07426348 0.13735236 -0.18005843 0.28301483 0.104599126 0.12242597 -0.20263109
-0.110419415 0.26797694 0.16471721 0.38145828 -0.12037384 0.10671239 -0.15221585 -0.16068082
-0.04808949 -0.082588986 0.12762685 -0.03881691 -0.037480075 -0.2588677 -0.19917302 0.07051539
-0.14417186 -0.14163074 0.030545142 0.009840766 -0.37043592 0.15046312 0.11406038 0.035076033
00000000: 9c82 d73d 9bc9 f63e 7046 2cbe 00c5 143e
00000010: ca10 743e 859d d83d f18a bbbd 74e6 c93e
00000020: f1fa 403e ec04 ac3e f688 a3be ea67 afbe
00000030: c2e3 88bd 88e3 94bd 59bf 85bd 44c6 a33d
00000040: 191d 913e d435 393e 1d8b 303e e681 89be
00000050: ccee d63d c241 763e a023 acbd abfb 923c
00000060: 80b6 98be b7f0 773c 2284 40be 6847 923e
00000070: 2b84 723d a585 973e 4082 853d 58dc 68bd
00000080: 5b04 8ebe 7417 98bd 19a6 0c3e 3d61 38be
00000090: 52e7 903e 1138 d63d 78ba fa3d 867e 4fbe
000000a0: 9323 e2bd 4634 893e a1ab 283e 804e c33e
000000b0: 8f86 f6bd 078c da3d 79de 1bbe 8389 24be
000000c0: 7cf9 44bd 6a24 a9bd 9db0 023e 7bfe 1ebd
000000d0: b584 19bd 4f8a 84be 03f4 4bbe 5f6a 903d
000000e0: caa1 13be a607 11be ce39 fa3c 2a3b 213c
000000f0: c7a9 bdbe 0113 1a3e 7d98 e93d e3ab 0f3d

encoder.layers.0.self_attn.in_proj_weight f4 [192, 64]
0.0061401436 0.01461749 0.41526544 -0.04581841 0.13890424 -0.019583676 0.0020344406 -0.025383107
-0.20613272 0.002986209 -0.016379243 0.104342826 -0.15915413 -0.0104845455 -0.07667132 0.097080745
-0.028651685 -0.0037714026 0.118294105 -0.021918336 -0.01316747 0.33361557 -0.03859879 -0.009424047
-0.0014994062 -0.007714524 -7.625356e-05 -0.33195198 -0.028525872 -0.16578445 -0.07245308 0.0069576786
-0.10603125 -0.02528581 -0.012088486 0.054089513 -0.2374779 -0.0012192925 -0.023690457 0.1816312
0.11411422 -0.00024698087 0.034955148 0.042160902 0.015840821 -0.04914101 -0.07788654 0.027377643
-0.07163018 0.023233742 -0.013489868 0.012300883 0.109479696 -0.24839815 -0.021279672 0.010419515
0.025547681 0.02944368 0.26740357 -0.07050194 0.0009727705 -0.0112312 -0.012088714 0.006059802
0.018808931 0.047272045 -0.116314426 -0.14714575 -0.00586677 0.044040136 -0.05702398 0.0050895554
-0.058442794 0.03585889 -0.019909566 -0.15088817 -0.057734307 -0.047470644 -0.3168041 0.02078546
0.0848944 0.010253014 0.09352208 0.05160414 -0.02880333 -0.19114284 -0.011447832 0.011343592
-0.0024005133 -0.0025842127 -0.09902384 -0.25000998 0.025145829 -0.24497567 0.4427867 0.049426626
-0.0043595186 -0.008047399 0.0037602696 -0.02837948 0.076432176 0.008970479 0.007979589 0.08581481
0.2726274 0.037185125 0.042067155 -0.0043468866 -0.016406735 -0.076054566 -0.6804445 0.3130822
0.07130678 -0.04285869 0.029018166 0.0062709283 0.068546936 -0.14218861 0.023848888 -0.031217404
-0.033120625 0.48102593 -0.06368474 0.05318654 -0.031817388 -0.011228743 0.0072177164 0.06221619
-0.012542638 0.07581535 -0.03921481 0.10542901 0.05471793 0.065087155 0.0071842065 -0.01688005
-0.055457108 0.010321077 0.010853112 0.059929572 0.06104142 -0.020222688 -0.07454155 -0.023145078
0.030339584 0.061413232 0.026290236 0.044526912 0.011860287 -0.045910094 0.018753925 -0.0085367905
0.023811582 0.006614699 -0.15173614 0.046336178 -0.0011833272 0.1268124 -0.04765677 0.016232235
-0.00904457 0.014772335 0.03990264 0.0039713685 0.020399082 0.006828247 0.075184844 -0.040765475
0.010423148 -0.044416662 -0.008822353 0.017887961 0.021627631 0.02046322 -0.11969728 0.021728162
-0.05526719 -0.054262694 0.031669583 0.012249661 -0.03825658 -0.06047078 -0.03182953 0.000148705
0.055403814 0.07816006 -0.03469963 -0.039113298 0.06459375 0.020609703 0.020331021 0.09921448
-0.15551038 -0.08499213 0.04181251 0.010457943 0.006309517 0.062470943 0.00895657 0.059681054
-0.034922346 -0.012303116 -0.0047880453 0.020245204 0.005193132 0.035594475 -0.013558025 -0.0069232746
0.030524593 0.016324172 -0.019787487 -0.021245116 0.0019499318 -0.009511445 0.087248705 -0.029188301
0.012926705 -0.058104146 0.0036405069 0.009380017 0.0004697226 -0.022608804 -0.0030541983 -0.049735434
-0.02042094 0.020725088 0.015050585 -0.02880395 0.053553045 -0.0009228881 0.0071938536 0.028878175
-0.0077839624 -0.035834573 -0.06816838 -0.14671287 -0.017891338 0.015852366 0.03428747 -0.05802231
-0.04284492 -0.0685147 -0.006505097 -0.0433044 0.0048768297 0.05132456 -0.006998148 0.0011191369
-0.043328565 0.016014757 -0.034923844 -0.035300016 0.06507119 0.035367098 0.00044962246 0.034008905
00000000: 4233 c93b 327e 6f3c ac9d d43e 16ac 3bbd
00000010: ea3c 0e3e f26d a0bc 4054 053b 3cf0 cfbc
00000020: 7514 53be 46b4 433b c32d 86bc b1b1 d53d
00000030: 4df9 22be 5fc7 2bbc da05 9dbd 45d2 c63d
00000040: f0b6 eabc a329 77bb 2e44 f23d 158e b3bc
00000050: 5fbc 57bc a9cf aa3e c419 1ebd 5167 1abc
00000060: b987 c4ba 1eca fcbb 51ea 9fb8 9cf5 a9be
00000070: 17af e9bc 66c3 29be 4862 94bd 3dfd e33b
00000080: e926 d9bd 3024 cfbc c90e 46bc f78c 5d3d
00000090: 682d 73be abd0 9fba 7d12 c2bc 87fd 393e
000000a0: b7b4 e93d 367d 81b9 212d 0f3d e9b0 2c3d
000000b0: 9cc4 813c 1548 49bd fa82 9fbd 1447 e03c
000000c0: d8b2 92bd b054 be3c 9b04 5dbc a589 493c
000000d0: e436 e03d 165c 7ebe b552 aebc 9db6 2a3c
000000e0: 5f49 d13c df33 f13c 1fe9 883e 5263 90bd
000000f0: 8601 7f3a 1103 38bc be0f 46bc 4e91 c63b
00000100: 3015 9a3c 55a0 413d 4236 eebd 60ad 16be
00000110: 093e c0bb 6e63 343d fa91 69bd 49c6 a63b
00000120: b661 6fbd c5e0 123d 6319 a3bc 6e82 1abe
00000130: cf7a 6cbd 9470 42bd 2634 a2be 4546 aa3c
00000140: 1ddd ad3d 42fc 273c 8188 bf3d dd5e 533d
00000150: f6f4 ebbc f3ba 43be b08f 3bbc 79da 393c
00000160: ee51 1dbb e55b 29bb 03cd cabd 4f01 80be
00000170: a0fe cd3c e7da 7abe f0b4 e23e 9373 4a3d
00000180: 4bda 8ebb 3dd9 03bc db6e 763b 157c e8bc
00000190: 7988 9c3d eaf8 123c d2bc 023c adbf af3d
000001a0: d295 8b3e 6e4f 183d 9c4e 2c3d 5470 8ebb
000001b0: 6b67 86bc 7fc2 9bbd 9c31 2ebf 4f4c a03e
000001c0: 4a09 923d 988c 2fbd 81b7 ed3c 5c7c cd3b
000001d0: 5662 8c3d e499 11be be5e c33c a4bb ffbc
000001e0: 7ea9 07bd 0849 f63e 256d 82bd 21da 593d
000001f0: f352 02bd c3f8 37bc 9882 ec3b 67d6 7e3d
00000200: a37f 4dbc 1445 9b3d b59f 20bd 2aeb d73d
00000210: e81f 603d 6a4c 853d 7e69 eb3b 0848 8abc
00000220: fe26 63bd bc19 293c 40d1 313c b678 753d
00000230: 9106 7a3d 0daa a5bc 3da9 98bd bf9a bdbc
00000240: b88a f83c 718c 7b3d 9f5e d73c da61 363d
00000250: a651 423c 390c 3cbd d5a1 993c e5dd 0bbc
00000260: 8210 c33c 1ec0 d83b b860 1bbe 01cb 3d3d
00000270: df19 9bba 1cdb 013e bf33 43bd 77f9 843c
00000280: ad2f 14bc aa07 723c f370 233d 4122 823b
00000290: fa1b a73c 7dbf df3b 83fa 993d b3f9 26bd
000002a0: dac5 2a3c 3fee 35bd a18b 10bc c689 923c
000002b0: 6e2c b13c 7ca2 a73c d923 f5bd 42ff b13c
000002c0: d95f 62bd 8f42 5ebd f7b7 013d cdb2 483c
000002d0: eeb2 1cbd 35b0 77bd ae5f 02bd b2ed 1b39
000002e0: 1cef 623d 6212 a03d 3321 0ebd 4435 20bd
000002f0: ba49 843d aed5 a83c 3e8d a63c f630 cb3d
00000300: 1d3e 1fbe 5b10 aebd 9843 2b3d cb57 2b3c
00000310: 11c0 ce3b 88e1 7f3d 94be 123c 1f74 743d
00000320: bc0a 0fbd 0293 49bc 09e5 9cbb 45d9 a53c
00000330: 262b aa3b 83cb 113d 7a22 5ebc a3dc e2bb
00000340: b60e fa3c 45ba 853c 5e19 a2bc 3d0a aebc
00000350: db94 ff3a e4d5 1bbc 73af b23d 4e1c efbc
00000360: 88ca 533c 9dfe 6dbd 9295 6e3b a5ae 193c
00000370: 1a45 f639 1936 b9bc f228 48bb 62b7 4bbd
00000380: d149 a7bc a9c7 a93c bb96 763c 43f6 ebbc
00000390: 705a 5b3d f9ed 71ba 6bba eb3b ec91 ec3c
000003a0: 9c10 ffbb 46c7 12bd dd9b 8bbd e63b 16be
000003b0: db90 92bc d2dc 813c 0571 0c3d cda8 6dbd
000003c0: 287e 2fbd 6f51 8cbd b528 d5bb f45f 31bd
000003d0: d0cd 9f3b b439 523d b850 e5bb 01b0 923a
000003e0: 4b79 31bd 6131 833c 4e0c 0fbd c096 10bd
000003f0: 0b44 853d 17dd 103d 4ebb eb39 ec4c 0b3d

encoder.layers.0.self_attn.in_proj_bias f4 [192]
-0.7329672 0.01128841 -0.018794755 -0.0035002274 -0.0046341615 -0.0076158703 -0.025485795 -0.006237782
0.01940903 0.693176 0.015994066 0.8543284 -0.0171981 0.16362238 -0.091749445 0.028882815
-3.2063847 -0.008086682 -0.05077388 0.020167043 -0.041466095 -0.031695154 0.01576895 -0.028869767
0.006485301 0.031109767 0.028836602 0.06954958 -0.03542032 -0.005607446 -0.029633231 0.04418304
-0.027689358 -0.011485623 -0.09500879 -7.532374e-05 -2.4290974 0.08319382 -0.12938629 -0.022621196
0.04832071 0.02762006 -0.017419763 0.03189956 -0.024081172 -0.123939365 -0.07141919 -0.04096259
-0.024025097 0.022520982 -0.007076953 0.022509303 0.029642815 0.038006242 0.18313551 -0.0087876795
-0.001955768 -0.0098803425 0.011104434 -0.01437859 0.0042920476 0.02574257 -3.2417824 0.03070135
-0.0035180543 0.0066125165 -0.0020627913 0.00036359788 -0.00032815576 -0.00046627768 0.0041479245 0.0009763994
-0.00040408724 -0.006638623 -0.0062477873 -0.017150871 0.0009695972 0.010417913 -0.0029119218 0.005386758
0.022948472 0.0007763218 0.0015823955 -0.001095422 -0.00028150584 -0.0026496653 -0.00048349696 0.0020530657
-6.679394e-05 -0.00032241532 0.00086874835 0.0025687104 -0.00079813984 -0.00062977575 -0.0010458388 0.00031816887
-0.00034644624 0.005313471 0.0023942871 -0.00026499448 -0.03558541 -0.0049241344 0.0052496986 6.660231e-05
-0.006031827 -0.0051952535 -0.0017100045 0.00080476963 -0.002406868 0.001194717 -0.0007407694 0.0009246933
0.0005865692 0.0011161624 -0.0020580664 0.0015464985 -0.0032686426 -0.0030359637 -0.009984278 0.00045410916
0.0039906697 0.0015127119 -0.0014528396 -0.0018855783 0.002228139 0.0026642564 -0.029885082 -0.002043253
0.015157292 0.0479539 -0.024995895 -0.0041770726 -0.011138772 0.07188187 -0.010337129 0.022923678
-0.025266573 0.007853466 0.008175241 0.006214204 -0.008913207 0.010079525 -0.0005506296 -0.008215103
-0.019693093 0.029264925 0.01478658 0.024491698 0.0033076531 0.0098824855 -0.055232376 0.005957098
-0.014030263 -0.0050367764 0.021319982 0.68312865 -0.003030357 -0.019390622 0.0075905854 -0.008119713
-0.0042544184 0.025889419 -0.017225893 -0.013058612 -0.02464374 -0.012710716 0.016217764 0.08091893
0.16747215 -0.029038621 -0.02196674 -0.012621471 0.0050022374 0.00609145 -0.018684737 0.10746763
0.033688042 -0.011674803 0.0841644 0.004247656 0.023326669 0.023034861 -0.009090341 -0.0033747489
-0.0037849413 -0.028045375 0.033159424 0.011024253 -0.49827284 0.23134223 -0.02211761 -0.46865675
00000000: bda3 3bbf 06f3 383c 75f7 99bc 1264 65bb
00000010: 2ada 97bb 8d8e f9bb 96c7 d0bc 4f66 ccbb
00000020: b0ff 9e3c fb73 313f fd05 833c 44b5 5a3f
00000030: 08e3 8cbc a08c 273e 22e7 bbbd a79b ec3c
00000040: 6835 4dc0 017e 04bc 46f8 4fbd 5b35 a53c
00000050: 5ad8 29bd c7d2 01bd e32d 813c 4a80 ecbc
00000060: a682 d43b e9d9 fe3c bd3a ec3c 0370 8e3d
00000070: e614 11bd abbe b7bb 64c1 f2bc 46f9 343d
00000080: cbd4 e2bc 322e 3cbc f893 c2bd 20f7 9db8
00000090: 5576 1bc0 8661 aa3d d77d 04be 1650 b9bc
000000a0: f0eb 453d 7743 e23c e4b3 8ebc 1da9 023d
000000b0: e145 c5bc ecd3 fdbd 3944 92bd 64c8 27bd
000000c0: 48d0 c4bc ec7d b83c c9e5 e7bb 6e65 b83c
000000d0: 7dd5 f23c 6fac 1b3d e087 3b3e 33fa 0fbc
000000e0: 582c 00bb 29e1 21bc 5fef 353c 2d94 6bbc
000000f0: 4ea4 8c3b 15e2 d23c 5d79 4fc0 6681 fb3c
00000100: 288f 66bb cfad d83b e52f 07bb 48a1 be39
00000110: 520c acb9 bb76 f4b9 50eb 873b 0ef5 7f3a
00000120: acdb d3b9 ce88 d9bb 3dba ccbb fc7f 8cbc
00000130: 912c 7e3a e5af 2a3c f1d5 3ebb 6783 b03b
00000140: 6ffe bb3c 1382 4b3a 6268 cf3a 4394 8fba
00000150: 1397 93b9 02a6 2dbb dd7d fdb9 ba8c 063b
00000160: b913 8cb8 da09 a9b9 b7bc 633a cf57 283b
00000170: 423a 51ba 8917 25ba 8714 89ba e7cf a639
00000180: 3aa3 b5b9 a01c ae3b 79e9 1c3b f5ee 8ab9
00000190: 02c2 11bd a25a a1bb aa05 ac3b d8ac 8b38
000001a0: a2a6 c5bb f23c aabb 3b22 e0ba 2df7 523a
000001b0: 8bbc 1dbb 0d98 9c3a 3130 42ba 1e67 723a
000001c0: fec3 193a 324c 923a a0e0 06bb e1b3 ca3a
000001d0: b936 56bb 05f7 46bb 1995 23bc 8015 ee39
000001e0: 2ac4 823b 3046 c63a 356d beba 8225 f7ba
000001f0: f805 123b ce9a 2e3b 8fd1 f4bc 19e8 05bb
00000200: 4a56 783c 4f6b 443d 31c4 ccbc d3df 88bb
00000210: 657f 36bc cd36 933d 105d 29bc 70ca bb3c
00000220: d8fb cebc d3ab 003c 72f1 053c 85a0 cb3b
00000230: b308 12bc 9824 253c 2058 10ba a498 06bc
00000240: 6953 a1bc ffbc ef3c 6943 723c d0a2 c83c
00000250: 36c5 583b 26ea 213c 583b 62bd c333 c33b
00000260: 30df 65bc 8b0b a5bb 3ea7 ae3c 85e1 2e3f
00000270: f498 46bb 15d9 9ebc 72ba f83b 8b08 05bc
00000280: a668 8bbb 0c16 d43c 511d 8dbc caf3 55bc
00000290: abe1 c9bc 9b40 50bc 1edb 843c d3b8 a53d
000002a0: d27d 2b3e 67e2 edbc 98f3 b3bc 49ca 4ebc
000002b0: cfe9 a33b c99a c73b bc10 99bc fd17 dc3d
000002c0: 79fc 093d ac47 3fbc 635e ac3d ec2f 8b3b
000002d0: 9217 bf3c 9bb3 bc3c a7ef 14bc e42a 5dbb
000002e0: c70c 78bb 6abf e5bc 2dd2 073d 129f 343c
000002f0: 9e1d ffbe fae4 6c3e fd2f b5bc c7f3 efbe

encoder.layers.0.self_attn.out_proj.weight f4 [64, 64]
-0.022818975 0.6197763 -0.091379434 -0.5165834 0.15598325 0.43828955 -0.0060661556 -0.008788457
-0.009819552 0.0114767635 -0.009138123 -0.029240107 -0.72228336 -0.026148671 -0.03470659 -0.030606307
-0.023620524 -0.022182364 0.6188811 0.019276204 0.110877044 -0.12954028 -0.6035873 0.031967424
-0.003855108 0.010726259 -0.14001228 -0.2731677 0.037922762 0.05702172 -0.10764619 -0.06487184
-0.07635133 -0.014681545 0.07409206 -0.023295805 0.012051964 0.12531804 -0.079535164 -1.0424259
0.19185723 -0.0058994456 0.032974623 -0.7311897 -0.16664658 0.045143086 -0.60853404 -0.44157735
0.0929357 -0.054453358 0.046627305 -0.03929992 -0.030940665 -0.030607922 -0.06349252 -0.68464446
-0.048514344 0.04330094 -0.0019104516 0.0072952914 0.7633072 -1.3708707 -0.007090173 -0.3758688
0.027411994 0.6551911 0.020002019 -0.04517672 -0.8773492 0.18957326 -0.0052721365 0.20692526
-0.011488131 -0.015495294 0.02535382 0.036084317 -0.5158603 -0.001993983 0.022369266 -0.021768335
-0.042577233 -0.018611403 -0.27663803 -0.04957114 0.030472152 0.6946754 -1.042074 0.03669656
-0.043608777 0.024785616 0.014971572 -0.32186916 -0.020101173 0.035337046 0.011953963 0.03362781
-0.03014007 0.011533471 0.00042199876 0.028705137 -0.009396434 -0.026447687 0.007945483 0.7780828
-0.1740738 -0.008314686 0.052866038 0.34888718 0.7734221 0.021878414 -0.31926826 0.35349578
0.55568916 -0.0011524115 0.9145342 0.06300424 0.032173768 -0.026519766 -0.06748155 0.0354051
0.024479702 -0.022766897 0.053519115 -0.01898883 -0.85203904 -1.1087581 -0.0076519363 0.5329874
-0.030313082 0.37677604 -0.00911549 0.34877813 0.27388576 -0.34334895 0.0060895826 0.034847666
0.0072883074 -0.012623689 -0.021208774 0.009300076 0.44867903 0.007856669 0.0012888972 0.014102993
-0.041782398 0.013937099 -0.025338778 -0.006950103 0.012006476 0.061681885 -0.08850082 -0.0056164665
0.015356908 0.03716492 0.0039590523 0.17202052 -0.004109356 0.015914021 -0.007846073 0.0010362793
0.00030106065 0.026441392 -0.01566759 -0.0018148074 0.01704305 -0.0035346977 0.009302743 0.1736705
0.57598555 0.010776338 -0.014442142 0.2078354 0.10430376 0.009833487 -0.08205747 0.19228008
-0.061424676 -0.046274208 0.19249651 0.004135374 0.011759466 0.000926529 -0.018076058 0.03685328
0.019282471 0.006680513 0.0035111483 0.01667627 0.57072246 -0.28636143 0.009501025 -0.22826596
0.015429649 -0.65165645 -0.0004959768 0.09925942 -0.030209972 -0.3418873 -0.0024785805 -0.35539705
-0.007010603 -0.008901574 0.028250333 -0.002010076 -0.24485657 0.011625059 0.01397931 0.010191342
-0.030685093 0.061224137 0.10186722 0.025532644 0.010889963 0.38987744 -0.12825197 -0.021158738
-0.006454069 -0.01818044 0.012614935 -0.1337248 -0.010594063 0.025317624 0.010257538 0.008621543
-0.0017980116 0.022304647 -0.008334428 0.01824697 -0.019697387 -0.00859017 0.005014009 -0.14530756
0.08452627 0.00045085928 -0.01162116 -0.28982112 0.21803081 0.0033271424 -0.031712387 -0.7259555
0.17403461 -0.027656388 -0.09768499 0.010275339 0.008954085 -0.013808747 -0.042757522 -0.19162759
0.009202358 -0.006723257 0.03422275 -0.01460581 0.03718548 0.5051829 -0.018917156 0.30586267
00000000: dcee babc a9a9 1e3f 2425 bbbd cf3e 04bf
00000010: 13ba 1f3e 7d67 e03e 9ac6 c6bb 76fd 0fbc
00000020: 30e2 20bc 0909 3c3c 11b8 15bc f388 efbc
00000030: 90e7 38bf bd35 d6bc 7f28 0ebd 14ba fabc
00000040: d47f c1bc cab7 b5bc fe6e 1e3f 21e9 9d3c
00000050: 8113 e33d 35a6 04be b384 1abf 46f0 023d
00000060: fba5 7cbb 31bd 2f3c 615f 0fbe a3dc 8bbe
00000070: e654 1b3d 9b8f 693d 9b75 dcbd 87db 84bd
00000080: 165e 9cbd dd8a 70bc 94bd 973d d8d6 bebc
00000090: 9a75 453c 5f53 003e 55e3 a2bd 366e 85bf
000000a0: 3976 443e 2350 c1bb 6610 073d 402f 3bbf
000000b0: 67a5 2abe f5e7 383d e3c8 1bbf 6d16 e2be
000000c0: 1355 be3d 7c0a 5fbd 46fc 3e3d f4f8 20bd
000000d0: 4777 fdbc 77bd fabc 5e08 82bd dc44 2fbf
000000e0: fab6 46bd 545c 313d 1e68 faba 570d ef3b
000000f0: 1a68 433f b178 afbf af54 e8bb e071 c0be
00000100: 1e8f e03c 9bba 273f 46db a33c 390b 39bd
00000110: f599 60bf 7e1f 423e e3c1 acbb 37e4 533e
00000120: b738 3cbc f9df 7dbc d0b2 cf3c 26cd 133d
00000130: 6c0f 04bf 7cad 02bb c03f b73c 8253 b2bc
00000140: 7765 2ebd f176 98bc 80a3 8dbe 1c0b 4bbd
00000150: bca0 f93c 3fd6 313f ae62 85bf 224f 163d
00000160: 1e9f 32bd 340b cb3c 534b 753c 09cc a4be
00000170: 37ab a4bc 94bd 103d 8eda 433c 51bd 093d
00000180: 4fe8 f6bc e2f6 3c3c b73f dd39 0927 eb3c
00000190: 80f3 19bc d2a8 d8bc c52d 023c 6f30 473f
000001a0: 6740 32be 523a 08bc 0f8a 583d 57a1 b23e
000001b0: fefe 453f 5c3a b33c 2177 a3be 66fd b43e
000001c0: a541 0e3f 830c 97ba ea1e 6a3f 5e08 813d
000001d0: a4c8 033d fb3f d9bc c433 8abd f004 113d
000001e0: a889 c83c a581 babc dc36 5b3d 768e 9bbc
000001f0: 3b1f 5abf c9eb 8dbf 18bd fabb dd71 083f
00000200: 2453 f8bc cae8 c03e 2359 15bc 0c93 b23e
00000210: c13a 8c3e 6fcb afbe 1f8b c73b 6dbc 0e3d
00000220: c1d2 ee3b 97d3 4ebc 06be adbc 595f 183c
00000230: 42b9 e53e 42b9 003c 37f0 a83a 3d10 673c
00000240: 0524 2bbd 6e58 643c 4593 cfbc b1bd e3bb
00000250: cfb6 443c 25a6 7c3d eb3f b5bd 560a b8bb
00000260: 8a9b 7b3c 3e3a 183d f0ba 813b 2626 303e
00000270: c7a7 86bb 1f5e 823c d18c 00bc c3d3 873a
00000280: add7 9d39 9e9b d83c 5159 80bc d5de edba
00000290: de9d 8b3c 63a6 67bb 886a 183c aed6 313e
000002a0: ca73 133f 3d8f 303c bc9e 6cbc ced2 543e
000002b0: 369d d53d a21c 213c bf0d a8bd 12e5 443e
000002c0: 7198 7bbd 068a 3dbd ce1d 453e 0882 873b
000002d0: c6aa 403c 4fe2 723a 3e14 94bc 77f3 163d
000002e0: 46f6 9d3c 34e8 da3b 4b1b 663b ac9c 883c
000002f0: de1a 123f f79d 92be 30aa 1b3c 8dbe 69be
00000300: a3cc 7c3c f5d2 26bf 7104 02ba 8648 cb3d
00000310: e77a f7bc da0b afbe ae6f 22bb 9af6 b5be
00000320: 33b9 e5bb e8d7 11bc 3e6d e73c 7bbb 03bb
00000330: aebb 7abe 0877 3e3c 7a09 653c 96f9 263c
00000340: 4e5f fbbc 29c6 7a3d c39f d03d d629 d13c
00000350: d16b 323c 049e c73e 7c54 03be 1755 adbc
00000360: a87c d3bb 25ef 94bc dfae 4e3c 27ef 08be
00000370: b992 2dbc e866 cf3c 3c0f 283c 5f41 0d3c
00000380: 42ab ebba 3cb8 b63c 208d 08bc ab7a 953c
00000390: 6a5c a1bc c9bd 0cbc 8e4c a43b 81cb 14be
000003a0: 1c1c ad3d 4f61 ec39 ae66 3ebc 6f63 94be
000003b0: 7843 5f3e 300c 5a3b d9e4 01bd 38d8 39bf
000003c0: 2136 323e a68f e2bc 110f c8bd e559 283c
000003d0: 28b4 123c 153e 62bc 8322 2fbd 063a 44be
000003e0: 7dc5 163c c44e dcbb 282d 0c3d 354d 6fbc
000003f0: cd4f 183d ab53 013f 27f8 9abc 089a 9c3e

encoder.layers.0.self_attn.out_proj.bias f4 [64]
-2.7473254 -0.3643176 -0.25913936 0.30677885 -0.08574626 2.559103 -0.23137738 0.07954794
-2.199702 0.3792718 -0.07790426 -0.15323292 2.6144645 1.3575604 0.13722304 -2.5859659
-0.057120867 -0.25945115 -0.6097912 -0.1180501 -0.50959915 -0.4044879 1.4900317 0.3207594
-0.60102624 -0.4376387 0.28082496 -0.10127885 -0.28560406 -0.34833652 -0.4487399 -1.3342216
0.1141584 0.6987926 -0.26493463 -1.0226622 -0.13212022 -0.42378506 0.8532236 0.06655115
-0.23564997 0.11105725 -3.340646 -0.046900805 0.37598437 -0.29860875 1.0390953 0.94003797
0.029263426 -1.1882787 -0.17404962 -2.4656827 0.6652433 -0.005163385 -0.365667 -2.1001654
-0.34417316 0.5260698 0.10279818 0.44941685 4.797221 0.7094194 -0.10426818 0.5769152
00000000: 2ed4 2fc0 d687 babe eaad 84be 1e12 9d3e
00000010: bc9b afbd 58c8 2340 31ee 6cbe 08ea a23d
00000020: ebc7 0cc0 ea2f c23e 458c 9fbd 17e9 1cbe
00000030: 6353 2740 8ac4 ad3f 3284 0c3e 7780 25c0
00000040: 92f7 69bd c8d6 84be 471b 1cbf 40c4 f1bd
00000050: 1775 02bf 0a19 cfbe 5cb9 be3f 933a a43e
00000060: dbdc 19bf 2e12 e0be 4ac8 8f3e 496b cfbd
00000070: b23a 92be 2a59 b2be 3cc1 e5be c6c7 aabf
00000080: e1cb e93d 12e4 323f 83a5 87be 98e6 82bf
00000090: 864a 07be 5bfa d8be dd6c 5a3f f84b 883d
000000a0: 3a4e 71be fc71 e33d 25cd 55c0 0f1b 40bd
000000b0: 0681 c03e 3fe3 98be 1301 853f 54a6 703f
000000c0: dab9 ef3c 8419 98bf 103a 32be bfcd 1dc0
000000d0: 634d 2a3f 9d31 a9bb b438 bbbe 1c69 06c0
000000e0: 7737 b0be 83ac 063f da87 d23d f719 e63e
000000f0: d682 9940 839c 353f 8e8a d5bd b7b0 133f

encoder.layers.0.ff.0.weight f4 [128, 64]
-1.5201113 -0.11635834 0.5609143 -0.97014624 -0.020447345 1.977274 0.840559 2.0041213
1.166881 -0.09485739 -0.09981472 0.073932305 -1.5668429 1.5208186 -0.41992706 1.0873818
-1.2034694 -0.04022238 -0.16120343 -0.9840176 0.0793868 0.56536424 1.9661485 1.2691969
0.09918958 -1.4889545 1.3151019 -0.48197097 -0.06799791 1.2188184 0.3138989 -0.32613984
0.010936636 0.23090039 0.11568606 -0.055481423 0.38259453 -0.062267926 0.39795783 -0.7435464
0.58327043 -0.80659276 -1.1830677 -0.6245196 -0.9999091 0.20501858 0.2676901 -0.20543797
-0.27142704 1.2571241 0.04492537 -0.24640743 0.6782279 -0.2743632 -0.4095098 0.07003742
-1.0264927 -1.1526529 0.18810652 1.1624165 1.8640463 -0.4783986 0.091264375 0.32399124
0.96971494 0.036515914 0.80108875 -1.0357357 -0.4819547 -0.6535842 -0.26545736 0.248224
2.8569438 -0.12494149 -0.029221904 0.30141765 -3.3915706 -0.644203 -0.6123793 2.3710146
1.0512425 -0.058939826 0.87930596 -0.43558353 -0.08260817 0.93094695 0.39541832 0.6444848
0.035345245 0.36491776 -0.55623114 -0.103696115 1.8732938 1.9770502 0.7090809 0.14206843
0.3317966 -0.08589446 0.118139796 -0.3112939 -0.26256338 0.05607896 -0.9691434 -0.42783433
1.3973988 -0.04092739 0.52653944 -1.2227858 -0.08732851 0.9466158 0.031774133 -0.86483264
-0.66908115 1.3655977 0.0050255232 -0.051098175 0.1482328 0.29846007 -0.37414238 0.13196297
-1.8704778 0.08376348 -0.21082008 -0.4275511 -0.5681767 -1.1359367 0.043465767 -0.47711113
0.4808447 0.4819683 1.2532359 0.13729961 -1.8246655 -0.49783683 0.17139201 0.43277687
-0.108897045 0.00341906 0.1024224 0.17199467 0.56257755 0.21411638 1.5801216 1.4797843
-0.49939135 0.053543247 0.2418791 0.14142072 0.034532353 -0.77130413 0.034053605 -0.8830602
-0.05487422 0.24982774 -0.35878986 -3.020708 -0.1870326 0.19535942 3.2254004 0.065687776
0.81547236 0.013714894 -0.015239651 0.57070595 1.5187393 -0.115159266 -0.047198776 -3.0666037
0.3139577 -0.36898077 0.25546584 0.14421338 -0.6461207 1.1396636 -1.0248828 -0.97543955
-0.41689467 0.625857 0.062046017 -0.0537488 -2.3441448 1.2853751 0.15390518 -0.11354376
0.4476952 -0.92236334 2.3105814 -0.81636333 -0.15285333 0.6217643 -0.03221312 -0.100385256
-2.4541013 0.7015856 1.6747614 -1.9064294 -0.029391 -0.27538624 1.054979 0.027363205
1.0580045 -0.051813588 -0.071001485 0.07477216 -1.1491776 0.5745599 1.0983928 -0.24672216
1.8222271 -0.010563429 -0.69867873 0.79738164 -0.11571776 1.5216522 0.1176942 0.7428538
-0.031517398 0.29653692 -0.52457595 1.37233 0.40047258 0.054048724 -0.41718066 -0.09455787
-0.05813222 0.0118288025 0.012830385 -0.6479004 -0.38716024 -0.0006537617 0.14549272 -1.3561639
-0.3130725 -1.1308942 0.002326206 0.40559003 -1.1293184 0.8158421 -1.352664 -0.00808426
-0.41857433 -0.55402154 -0.06797128 -0.18363908 0.94913095 -0.22404477 -0.49385363 0.08628209
1.1757871 0.23482417 0.17656049 1.4499651 0.14639953 -0.182966 0.09434903 0.41078526
00000000: 0293 c2bf 484d eebd 1498 0f3f 815b 78bf
00000010: 3181 a7bc 5017 fd3f e02e 573f 8643 0040
00000020: 5b5c 953f 9744 c2bd a96b ccbd d269 973d
00000030: 4f8e c8bf 2faa c23f ae00 d7be 542f 8b3f
00000040: 490b 9abf 39c0 24bd 8312 25be 94e8 7bbf
00000050: 8c95 a23d b6bb 103f c1aa fb3f 0b75 a23f
00000060: e823 cb3d 1096 bebf 4255 a83f e6c4 f6be
00000070: 7d42 8bbd 3e02 9c3f 5bb7 a03e cdfb a6be
00000080: 932f 333c 2771 6c3e d0ec ec3d 7d40 63bd
00000090: 6ee3 c33e a70c 7fbd 21c1 cb3e 0f59 3ebf
000000a0: 3651 153f dd7c 4ebf c36e 97bf 84e0 1fbf
000000b0: 0bfa 7fbf 64f0 513e ad0e 893e 555e 52be
000000c0: 7cf8 8abe 71e9 a03f aa03 383d 3b52 7cbe
000000d0: 58a0 2d3f 5579 8cbe 45ab d1be c76f 8f3d
000000e0: 1d64 83bf 218a 93bf ff9e 403e 10ca 943f
000000f0: 1299 ee3f a9f0 f4be d1e8 ba3d 2ee2 a53e
00000100: 3d3f 783f b691 153d 2714 4d3f fd92 84bf
00000110: c4c2 f6be 4b51 27bf 07ea 87be 6f2e 7e3e
00000120: 2bd8 3640 53e1 ffbd c662 efbc 6a53 9a3e
00000130: 7e0f 59c0 7dea 24bf e4c4 1cbf b4be 1740
00000140: 1d8f 863f e36a 71bd 321a 613f ce04 dfbe
00000150: 792e a9bd 8a52 6e3f 4574 ca3e f5fc 243f
00000160: 2dc6 103d 80d6 ba3e 2a65 0ebf a15e d4bd
00000170: 17c8 ef3f fb0f fd3f 5386 353f 637a 113e
00000180: 3ee1 a93e 6fe9 afbd 47f3 f13d ea61 9fbe
00000190: b56e 86be 0db3 653d c819 78bf 1a0d dbbe
000001a0: f7dd b23f 7ba3 27bd 4acb 063f 3f84 9cbf
000001b0: 4ad9 b2bd 6a55 723f 9825 023d ac65 5dbf
000001c0: e748 2bbf e8cb ae3f 25ad a43b 524c 51bd
000001d0: 57ca 173e c2cf 983e 978f bfbe 4d21 073e
000001e0: d16b efbf 308c ab3d 38e1 57be fae7 dabe
000001f0: 0774 11bf 6066 91bf 2909 323d e947 f4be
00000200: 4731 f63e 8dc4 f63e 096a a03f 4598 0c3e
00000210: a48e e9bf 78e4 febe 6381 2f3e ee94 dd3e
00000220: 6a05 dfbd 4f12 603b d6c2 d13d 5f1f 303e
00000230: 1505 103f 5341 5b3e 6d41 ca3f 9269 bd3f
00000240: 39b0 ffbe 2a50 5b3d 28af 773e 98d0 103e
00000250: cc71 0d3d 3074 45bf cb7b 0b3d 3c10 62bf
00000260: cac3 60bd d8d2 7f3e 4eb3 b7be 4853 41c0
00000270: 7985 3fbe 4d0c 483e f66c 4e40 5087 863d
00000280: ccc2 503f 6fb4 603c bbaf 79bc c919 123f
00000290: 0d66 c23f 9fd8 ebbd 8153 41bd 3c43 44c0
000002a0: 10bf a03e 0ceb bcbe 6bcc 823e acac 133e
000002b0: 2b68 25bf 7fe0 913f 5c2f 83bf 68b6 79bf
000002c0: 3873 d5be 2a38 203f f723 7e3d b427 5cbd
000002d0: 7806 16c0 2c87 a43f 5299 1d3e a189 e8bd
000002e0: 4e38 e53e 0120 6cbf 91e0 1340 30fd 50bf
000002f0: 9585 1cbe f22b 1f3f e8f1 03bd c996 cdbd
00000300: ff0f 1dc0 1d9b 333f 955e d63f e105 f4bf
00000310: 65c5 f0bc 6dff 8cbe 8d09 873f cd28 e03c
00000320: b16c 873f 7c3a 54bd 3a69 91bd 2522 993d
00000330: 4018 93bf 5c16 133f 2398 8c3f bca4 7cbe
00000340: bd3e e93f 3c12 2dbc 9cdc 32bf 3421 4c3f
00000350: 6ffd ecbd 80c5 c23f a809 f13d ab2b 3e3f
00000360: 6318 01bd b0d3 973e 9c4a 06bf 82a8 af3f
00000370: be0a cd3e 3262 5d3d b498 d5be 8ea7 c1bd
00000380: 0d1c 6ebd 98cd 413c 8936 523c cddc 25bf
00000390: de39 c6be 3461 2bba 0bfc 143e c796 adbf
000003a0: 0a4b a0be 24c1 90bf 4373 183b 7fa9 cf3e
000003b0: 818d 90bf 07db 503f 1824 adbf d873 04bc
000003c0: 604f d6be 5bd4 0dbf 8734 8bbd e20b 3cbe
000003d0: 3ffa 723f fe6b 65be 62da fcbe aab4 b03d
000003e0: 3180 963f bf75 703e 46cc 343e 7598 b93f
000003f0: c2e9 153e 705b 3bbe 103a c13d 7252 d23e

encoder.layers.0.ff.0.bias f4 [128]
-3.2982118 -1.5145655 -0.23811333 -1.4667305 -3.3006163 0.83684236 -0.1867894 -0.9601288
-1.8994676 -1.2409223 -0.93564516 -2.0662653 -0.7123161 -1.7271528 1.4927958 -1.4030269
0.35155708 -1.8086847 -1.1371922 0.0033056492 -0.0908529 -2.2705605 -2.2794201 -1.462985
-0.116948344 1.0094763 -0.8571231 -1.6929321 -1.6956205 -0.37600222 -2.5721056 -4.3561983
-0.60623777 -2.5768363 -0.87857836 -2.721529 -3.2104714 -0.17097595 -0.31645545 -0.7587081
-1.3511766 -1.3298324 -0.58280355 -0.61536306 -0.5687873 -2.227888 -0.87113154 -1.5141213
-2.3884342 -2.3402476 -0.85101503 -1.7679231 -1.0101918 -1.8382388 0.40193877 -0.2076332
-1.2215983 -2.0770519 -1.9817472 0.34426463 1.2077096 -0.35327622 -0.21987341 -3.3968282
-1.3958983 -1.7692655 -1.7507908 -1.6249578 -0.5914313 -0.10802839 -0.68553406 -0.8048904
-0.43452096 0.15162207 -2.4149592 -1.7576842 -1.3590564 -2.3155594 -0.3960826 -0.26490587
-0.9163526 -1.2293284 -2.609132 -1.4483595 -0.724077 -1.6262598 0.3087824 -0.39647353
-0.1963519 -1.5038608 0.01016118 -2.77001 -0.74846894 -0.21749978 -0.04055289 0.24902345
-2.883713 -0.24477449 -1.3192579 -0.043682065 -1.7562351 0.17421606 -0.90052325 -1.0427339
-0.23921224 -0.3127252 -0.04395432 0.039295267 -0.07883464 -0.5243879 -0.46113276 -1.6507468
-1.6370847 -0.19971083 -1.5947797 -1.3301048 -0.99685436 0.7436562 -1.4084007 0.18642819
-0.67048496 -1.1892915 -3.3618512 -1.2715019 -0.47477868 -2.4784122 -2.0178857 -1.573681
00000000: e715 53c0 48dd c1bf fbd3 73be d3bd bbbf
00000010: 4c3d 53c0 4d3b 563f b845 3fbe 00cb 75bf
00000020: c121 f3bf 8bd6 9ebf 7186 6fbf b13d 04c0
00000030: 595a 36bf 5813 ddbf ef13 bf3f 6396 b3bf
00000040: 4aff b33e fb82 e7bf 848f 91bf 97a3 583b
00000050: 1611 babd dd50 11c0 05e2 11c0 1843 bbbf
00000060: 9d82 efbd 8536 813f 6b6c 5bbf 00b2 d8bf
00000070: 180a d9bf 5d83 c0be 619d 24c0 fa65 8bc0
00000080: 6632 1bbf e3ea 24c0 83ea 60bf 882d 2ec0
00000090: 5d78 4dc0 5214 2fbe 7306 a2be b23a 42bf
000000a0: 5bf3 acbf f337 aabf 9d32 15bf 6f88 1dbf
000000b0: 0b9c 11bf b895 0ec0 7a02 5fbf bace c1bf
000000c0: 1bdc 18c0 9ec6 15c0 1fdc 59bf 4e4b e2bf
000000d0: f74d 81bf 694b ebbf ebca cd3e cc9d 54be
000000e0: 555d 9cbf 6bee 04c0 e4a9 fdbf 7443 b03e
000000f0: 3a96 9a3f 9fe0 b4be 7f26 61be a265 59c0
00000100: ccac b2bf 4b77 e2bf ea19 e0bf 9efe cfbf
00000110: 0b68 17bf fd3d ddbd 297f 2fbf 4c0d 4ebf
00000120: 8879 debe d142 1b3e b18e 1ac0 ccfb e0bf
00000130: 8ff5 adbf 2032 14c0 57cb cabe bea1 87be
00000140: 1696 6abf a25a 9dbf 05fc 26c0 d863 b9bf
00000150: 1c5d 39bf 4829 d0bf ba18 9e3e 94fe cabe
00000160: 7910 49be 837e c0bf 147b 263c d847 31c0
00000170: a99b 3fbf 43b8 5ebe ca1a 26bd 0100 7f3e
00000180: c18e 38c0 2aa6 7abe 71dd a8bf f7eb 32bd
00000190: 50cc e0bf b265 323e b188 66bf 4e78 85bf
000001a0: 0ef4 74be 841d a0be 7209 34bd 13f4 203d
000001b0: 0e74 a1bd 493e 06bf 9819 ecbe ac4b d3bf
000001c0: fe8b d1bf ff80 4cbe be21 ccbf e040 aabf
000001d0: d931 7fbf 4160 3e3f 7946 b4bf 08e7 3e3e
000001e0: e7a4 2bbf b43a 98bf 9228 57c0 93c0 a2bf
000001f0: 3116 f3be 4e9e 1ec0 0a25 01c0 616e c9bf

encoder.layers.0.ff.2.weight f4 [64, 128]
0.0066549443 0.5254891 0.23296627 1.8032391 -0.07878159 0.65455216 1.7684811 1.1749555
0.09971303 -0.35347316 -0.35927668 1.2522625 -0.108683616 -0.31969148 -0.7365815 -1.9626477
0.6390309 0.7489628 0.6352249 0.65160304 0.919448 -0.0063507725 0.44087175 -1.8065035
-0.13900965 0.18165205 0.8542111 1.9173253 0.29013395 0.835259 0.22371285 -1.4221712
-1.5980686 0.23792917 -0.10654773 -1.1134671 0.3234091 -1.1437211 -0.35221112 -0.9972586
1.611527 -0.019107928 0.11098589 1.2829112 -0.14458397 -0.35883796 -1.1338568 0.73345524
0.47777322 0.31294513 -0.09257657 0.6899933 0.21602836 0.041110445 -2.1026008 0.108431384
0.37464947 -0.83692414 -0.4661376 0.43761173 -0.7715211 1.236 0.16433552 0.47847125
0.51108235 0.80645907 -0.9362718 -0.0778431 -0.9352915 -0.055282813 1.305061 -1.0253812
-0.40274018 0.1864977 1.5903507 -0.11347592 -0.11901645 -1.0720217 -0.51568615 0.23585993
-0.11818857 1.3228353 0.38603073 -0.051707886 0.68102264 0.873705 0.63181233 1.0765797
0.041739423 2.6551046 -1.3021182 0.08488559 -0.4232765 -2.1252215 0.4649535 0.97874635
0.20300928 -0.09724616 -0.39612383 -1.5039098 -0.23499945 -0.13282046 0.053724825 0.33960095
0.63459754 1.1740676 0.64209527 0.22873786 -0.70835906 0.26795346 0.497452 0.21230797
-0.3596073 -1.42423 0.09900709 0.42684898 -0.6164946 0.016580936 -0.37322372 0.33669013
1.5612652 1.0327896 -1.672589 0.3636806 -1.5781476 0.06288188 0.0020733143 -0.26928967
-0.4520981 -0.49634224 0.5627715 1.7168531 -1.781903 -0.91061896 0.023202049 0.80962306
0.39671507 1.584858 0.923623 -0.63568753 -0.59374094 -0.5804876 0.2611429 0.093936056
0.7947604 0.24219501 0.41023687 -0.42318568 0.73988533 0.3593827 0.6358854 -1.1577685
0.32676214 -0.040327203 1.4529636 0.5886519 0.39484885 0.14121783 0.22345237 1.1178681
-1.4336982 -0.5576992 -0.3722677 -0.28585252 0.5401476 -0.3334684 -1.7206535 -0.3287545
1.2618771 -0.5952652 -0.040083386 0.3625397 0.5376567 0.31201407 -0.04530908 1.2794232
0.6229297 -0.40994158 -0.9030238 1.1626923 -1.2536297 -0.3348173 -1.5427345 -0.5677062
-0.4717002 0.40906492 0.4737978 -1.3508837 -0.74387556 -1.3434671 0.27284935 0.88492024
0.4057551 2.05585 -0.073185876 -0.99307215 1.842516 0.24632457 -1.4548659 -0.31594327
2.5330877 -1.0628399 0.9569598 -0.73401755 -0.31153315 -0.12504458 -0.21122473 -0.10437494
0.09091632 0.5725178 0.33950743 0.8001421 0.09992306 -0.8679205 0.21640687 1.339743
0.60159045 0.83768165 0.32947892 0.09570382 0.24276571 -1.2044973 -0.98397374 0.6009228
-0.58741313 0.14694 -0.19589733 1.2470397 1.2030916 2.1864777 1.1354011 3.0970411
0.63096946 -0.2972518 -2.0897944 0.4567332 0.40982756 0.4735075 -2.4266624 -0.64603084
-0.9059993 -0.5804106 -1.8997368 -0.6043545 0.59027374 0.11130689 0.7672447 1.2615471
0.36428553 -0.2114937 -1.3652873 1.9647293 -0.36179993 -1.368915 1.1450232 0.9159665
00000000: b811 da3b 7486 063f b68e 6e3e 8ad0 e63f
00000010: 3e58 a1bd bb90 273f 975d e23f f164 963f
00000020: 5836 cc3d 6ffa b4be 1df3 b7be 234a a03f
00000030: 8495 debd 9aae a3be 9b90 3cbf 0a38 fbbf
00000040: 8797 233f 07bc 3f3f 199e 223f 75cf 263f
00000050: f260 6b3f 241a d0bb f1b9 e13e 823b e7bf
00000060: 8c58 0ebe ff02 3a3e 94ad 5a3f ea6a f53f
00000070: 708c 943e 89d3 553f fb14 653e b509 b6bf
00000080: 838d ccbf b4a3 733e b235 dabd 1786 8ebf
00000090: e195 a53e 7465 92bf 0455 b4be 574c 7fbf
000000a0: 8446 ce3f 3b88 9cbc 924c e33d 6f36 a43f
000000b0: d20d 14be 9cb9 b7be 3822 91bf b9c3 3b3f
000000c0: b19e f43e 583a a03e c998 bdbd 67a3 303f
000000d0: 8a36 5d3e 6d63 283d 0391 06c0 4611 de3d
000000e0: 0ed2 bf3e a940 56bf 96a9 eebe a50e e03e
000000f0: 6882 45bf 3f35 9e3f 9247 283e 2ffa f43e
00000100: 4bd6 023f 1a74 4e3f 82af 6fbf 346c 9fbd
00000110: 446f 6fbf 3b70 62bd 3d0c a73f b13f 83bf
00000120: f633 cebe 41f9 3e3e 9d90 cb3f 1066 e8bd
00000130: e6be f3bd 0238 89bf 0204 04bf 4485 713e
00000140: d90c f2bd ab52 a93f d2a5 c53e a6cb 53bd
00000150: 8057 2e3f 22ab 5f3f 74be 213f 5dcd 893f
00000160: f5f6 2a3d 3ced 2940 cfab a6bf 7fd8 ad3d
00000170: b3b7 d8be a103 08c0 630e ee3e 1f8f 7a3f
00000180: aae1 4f3e ff28 c7bd bed0 cabe 1e80 c0bf
00000190: b2a3 70be 1602 08be 900e 5c3d 2de0 ad3e
000001a0: fc74 223f d947 963f 5b60 243f 423a 6a3e
000001b0: 0557 35bf 3231 893e 07b2 fe3e 4367 593e
000001c0: 731e b8be 2b4d b6bf 3bc4 ca3d f38b da3e
000001d0: 97d2 1dbf bed4 873c 2e17 bfbe a662 ac3e
000001e0: 8ad7 c73f 7332 843f 6517 d6bf 5834 ba3e
000001f0: be00 cabf 37c8 803d 71e0 073b 56e0 89be
00000200: 6779 e7be 9220 febe cb11 103f d8c1 db3f
00000210: 6615 e4bf 531e 69bf 3912 be3c 7543 4f3f
00000220: 3d1e cb3e a0dc ca3f 8f72 6c3f 6bbc 22bf
00000230: 68ff 17bf d69a 14bf 86b4 853e 8c61 c03d
00000240: 6b75 4b3f f801 783e 910a d23e cbab d8be
00000250: 2069 3d3f 0201 b83e 63c9 223f c231 94bf
00000260: 5e4d a73e 232e 25bd b6fa b93f e4b1 163f
00000270: a129 ca3e 689b 103e b3d0 643e 4d16 8f3f
00000280: 6c83 b7bf 60c5 0ebf df99 bebe 435b 92be
00000290: 1d47 0a3f 5fbc aabe 603e dcbf 8352 a8be
000002a0: 3085 a13f 4d63 18bf 7a2e 24bd ce9e b93e
000002b0: dfa3 093f 4fc0 9f3e 0496 39bd 24c4 a33f
000002c0: 5278 1f3f dde3 d1be 912c 67bf 1ad3 943f
000002d0: f076 a0bf 2c6d abbe 5378 c5bf 3255 11bf
000002e0: b082 f1be f570 d13e a095 f23e c2e9 acbf
000002f0: a16e 3ebf bbf6 abbf e9b2 8b3e 228a 623f
00000300: 22bf cf3e 0c93 0340 7ae2 95bd fa39 7ebf
00000310: 90d7 eb3f 823c 7c3e 0c39 babf 51c3 a1be
00000320: 1c1e 2240 230b 88bf 51fb 743f 93e8 3bbf
00000330: 4681 9fbe b00b 00be 4c4b 58be 87c2 d5bd
00000340: 5632 ba3d 8790 123f ebd3 ad3e 1dd6 4c3f
00000350: 76a4 cc3d 0a30 5ebf c399 5d3e b37c ab3f
00000360: d501 1a3f 4e72 563f 76b1 a83e 5d00 c43d
00000370: 9397 783e f82c 9abf b4e5 7bbf 14d6 193f
00000380: b560 16bf 7077 163e 4f99 48be ff9e 9f3f
00000390: e8fe 993f 40ef 0b40 d354 913f ec35 4640
000003a0: 3787 213f 6331 98be 31bf 05c0 efd8 e93e
000003b0: ebd4 d13e 936f f23e 704e 1bc0 4762 25bf
000003c0: 92ef 67bf ca95 14bf 932a f3bf fab6 1abf
000003d0: 2e1c 173f def4 e33d 266a 443f 607a a13f
000003e0: a283 ba3e ce91 58be bcc1 aebf 407c fb3f
000003f0: d73d b9be 9b38 afbf 1f90 923f c87c 6a3f

encoder.layers.0.ff.2.bias f4 [64]
-1.5043379 0.0805882 -3.1913657 5.1716504 -0.41298148 6.1727047 -3.272328 -2.3820891
-9.44567 -0.98855406 -0.5517106 -0.25634518 21.424604 1.5791698 -2.2099218 -14.839258
0.47465032 0.056489304 -1.5905612 6.284778 0.9125219 -1.4916911 2.3439147 1.1098257
-0.21851476 -3.4013834 -0.7092703 -2.1651027 -0.76489145 -7.020522 1.0344945 -4.814448
-0.42387816 2.243001 -1.3177807 -3.4264572 1.9513386 -2.1735575 2.6910415 -0.7756266
-0.3317801 -0.44896325 -6.5446954 -0.25300217 6.452125 -0.9215014 5.813029 3.1380937
4.9801435 -5.258337 0.42014456 -0.757535 0.27463603 1.370862 -2.1132581 0.26023525
0.04966605 2.6247122 3.4230175 4.629511 2.137156 3.2732034 2.9640017 0.3311004
00000000: 258e c0bf 6d0b a53d 563f 4cc0 297e a540
00000010: 4f72 d3be cc86 c540 d26d 51c0 2674 18c0
00000020: 7721 17c1 e111 7dbf e83c 0dbf ad3f 83be
00000030: 9765 ab41 3c22 ca3f 5c6f 0dc0 9a6d 6dc1
00000040: 5e05 f33e 5461 673d 8297 cbbf e71c c940
00000050: 099b 693f bcef bebf b302 1640 c50e 8e3f
00000060: 55c2 5fbe 44b0 59c0 bd92 35bf 0b91 0ac0
00000070: edcf 43bf 1ea8 e0c0 516a 843f f50f 9ac0
00000080: 8f06 d9be 548d 0f40 0aad a8bf 134b 5bc0
00000090: 77c5 f93f 911b 0bc0 063a 2c40 778f 46bf
000000a0: 15df a9be 83de e5be 256e d1c0 8089 81be
000000b0: cf77 ce40 84e7 6bbf 5504 ba40 87d6 4840
000000c0: 565d 9f40 4c44 a8c0 301d d73e d0ed 41bf
000000d0: 189d 8c3e 6878 af3f 9f3f 07c0 8e3d 853e
000000e0: a16e 4b3d 49fb 2740 b812 5b40 f424 9440
000000f0: 2ac7 0840 2a7c 5140 34b2 3d40 fe85 a93e
