checkpoints/epicon_pr/best_model.pt (torch, 594146 bytes, 54 tensors)

encoder.pos f4 [1, 15, 64]
0	0xbd92d804	-0.07170108
1	0xbf00a4be	-0.50251377
2	0xbf90c7ea	-1.1311009
3	0xbf412c9f	-0.7545871
4	0x3f194775	0.5987466
5	0xbd9bf155	-0.0761439
6	0xbec18116	-0.37793797
7	0xbedbb665	-0.42912593
8	0xbecb638a	-0.3972438
9	0xbeb27400	-0.34854126
10	0x3e8ff42d	0.2811598
11	0x3ed68b9a	0.41903383
12	0x3e141bf9	0.14463796
13	0x3d995916	0.07487695
14	0x3e290d9f	0.16509102
15	0xbd70a5f3	-0.05875201
16	0xbe8d5f91	-0.27611974
17	0xbe53a362	-0.20667794
18	0x3f21da68	0.63223886
19	0x3e801991	0.25019506
20	0xbe11f0b2	-0.14251974
21	0xbefcf1d2	-0.49403244
22	0x3dce89d5	0.10084883
23	0xbcda1a1f	-0.026623784
24	0x3e8a9c94	0.27072585
25	0xbcc8519a	-0.024452973
26	0x3e3e8414	0.18605071
27	0x3e049aea	0.1294972
28	0xbd8dcd96	-0.06923978
29	0x3df9eff0	0.122039676
30	0xbf222909	-0.63343865
31	0x3d6afa4e	0.057367615
32	0xbf6a94ba	-0.9163319
33	0x3d446955	0.047952015
34	0xbe2748fd	-0.16336437
35	0x3e58faba	0.21189395
36	0xbfb85949	-1.4402248
37	0xbe0ccb7f	-0.13749503
38	0xbe0bb7ca	-0.13644329
39	0x3ece862d	0.40336743
40	0x3ea79087	0.32727453
41	0xbe025153	-0.12726335
42	0xbe30bacc	-0.17258757
43	0xbebd6167	-0.36988375
44	0xbe1b34b1	-0.15156819
45	0xbe6520f9	-0.2237586
46	0x3e21ba90	0.15793824
47	0x3eaf9c22	0.34298807
48	0xbe83d06e	-0.25744957
49	0x3d4ad423	0.049518716
50	0xbe0ca1c6	-0.13733587
51	0x3d14cb87	0.03632691
52	0x3f77c980	0.9679184
53	0x3f1d5d09	0.61470085
54	0xbe3633e7	-0.17793237
55	0xbd8ab4db	-0.06772777
56	0x3e1138b3	0.14181785
57	0x3d8de039	0.06927533
58	0x3f8fdae3	1.1238674
59	0xbda828cf	-0.082109086
60	0x3ec94ad0	0.3931489
61	0xbe150b77	-0.14555155
62	0xbe002151	-0.12512709
63	0xbd4d1c6d	-0.050075937
64	0xbda40fd3	-0.08010831
65	0xbedfb249	-0.43690708
66	0xbedba29c	-0.428975
67	0xbe50b92c	-0.20383137
68	0x3ec5c0cd	0.38623658
69	0xbd65bf48	-0.056090623
70	0x3d8d3f54	0.068968445
71	0xbe956467	-0.29178163
72	0xbf191533	-0.5979797
73	0xbea83be2	-0.32858187
74	0x3ea231b4	0.31678545
75	0x3efc007a	0.49219114
76	0xbf72c5a8	-0.9483285
77	0x3dadff38	0.08495945
78	0x3d272ea8	0.04081598
79	0x3bd15c73	0.0063891946
80	0xbe823846	-0.25433558
81	0xbe43ffa9	-0.19140495
82	0xbfcf767b	-1.6208032
83	0x3e87ce35	0.2652451
84	0xbdf0f2a6	-0.117650315
85	0xbe98fee0	-0.29881954
86	0x3dfe493f	0.12416314
87	0x3c1a61f0	0.009422764
88	0x3e9833a3	0.29726896
89	0x3bfcfd3d	0.007720618
90	0x3e3178c1	0.1733122
91	0xbe5a2f92	-0.21307209
92	0xbcf7f469	-0.030267911
93	0xbf4fa216	-0.811067
94	0xbf3f91be	-0.7483176
95	0x3db7f379	0.089819856
96	0xbfaa831e	-1.3321264
97	0x3d84bd9c	0.064814776
98	0xbe10ced8	-0.14141405
99	0x3e1ea736	0.15493473
100	0xbe2bef8e	-0.16790602
101	0xbdf6b170	-0.12045562
102	0xbdda8e22	-0.10671641
103	0x3f884eb7	1.0649022
104	0x3e9c52e4	0.3053199
105	0x3c88e5e4	0.016711183
106	0xbe2e2afb	-0.17008583
107	0xbec28865	-0.37994686
108	0x3e93a5bc	0.28837383
109	0x3eb546c3	0.3540555
110	0x3e9ca1ad	0.305921
111	0x3eb623f0	0.35574293
112	0xbdb563e9	-0.08856947
113	0x3d428447	0.04748943
114	0xbdc0c1ee	-0.09411989
115	0x3d356f67	0.044295695
116	0xbf3860b9	-0.7202259
117	0x3dd81d3b	0.1055245
118	0xbe84ed5c	-0.2596234
119	0xbda9d12c	-0.082918495
120	0x3e1a5fa8	0.15075552
121	0x3f074031	0.52832323
122	0x3f91603b	1.1357492
123	0xbe3547ec	-0.17703217
124	0x3ec5c591	0.38627294
125	0xbe18c38d	-0.14918347
126	0xbdc645b0	-0.096812606
127	0xbc3ea9f3	-0.011637199
128	0xbde4e049	-0.111755915
129	0xbf027601	-0.5096131
130	0xbf7e4ead	-0.993388
131	0x3ef6f31f	0.48232362
132	0x3f2b6216	0.6694654
133	0xbdce0016	-0.1005861
134	0x3dfdb7af	0.123885505
135	0xbebff589	-0.37492016
136	0xbe7f5591	-0.24934985
137	0xbea3c5d8	-0.3198688
138	0x3e9d8ba8	0.30770612
139	0x3f350909	0.7071691
140	0xbee027c4	-0.4378034
141	0x3d62cd69	0.055371676
142	0x3ef2bbba	0.4740885
143	0xbd0104fa	-0.031498887
144	0xbe833036	-0.2562272
145	0xbe470d65	-0.19438703
146	0xbf4270ee	-0.7595357
147	0x3e8c17c1	0.27361873
148	0xbdfef4c4	-0.12449029
149	0xbe12c745	-0.14333828
150	0x3ddc1e32	0.10747947
151	0x3c66c81e	0.014085798
152	0x3e9c89d5	0.30573907
153	0xbd00d014	-0.03144844
154	0x3e39459c	0.1809296
155	0xbeeb19d7	-0.45918152
156	0x3c2f745f	0.010708897
157	0xbf0f3bad	-0.55950433
158	0x3f4f6a04	0.8102114
159	0x3d8b27e9	0.06794722
160	0xbf62eda7	-0.8864388
161	0x3d7541aa	0.059877075
162	0xbe1c7648	-0.15279496
163	0x3e1baa5d	0.15201707
164	0xbda714f2	-0.08158292
165	0xbde70d12	-0.1128179
166	0xbdeb722c	-0.11496386
167	0x3d6353e8	0.05549994
168	0xbee6b20a	-0.45057708
169	0x3e2c5dc2	0.16832641
170	0xbe421818	-0.18954504
171	0xbeb8e411	-0.361115
172	0x3ea02381	0.31277087
173	0x3f6eed3f	0.9333076
174	0xbd9cb3c0	-0.07651472
175	0xbdcc4398	-0.0997383
176	0x3e0b4527	0.13600598
177	0x3ddbd308	0.107336104
178	0xbddf94a5	-0.109170236
179	0x3d0a7ab0	0.03380841
180	0x3f901c8a	1.125871
181	0x3fc2ffc3	1.5234302
182	0xbd48b6ed	-0.049002577
183	0xbdb62e54	-0.08895555
184	0x3e0bbcdf	0.13646267
185	0x3e9adf19	0.30248335
186	0x3ce82dfc	0.02834224
187	0x3e12f49b	0.14351122
188	0x3ed7dcfd	0.42160788
189	0xbe3ab75a	-0.18234006
190	0xbde07193	-0.109591626
191	0xbd10973a	-0.03530047
192	0xbdf9f8bc	-0.122056454
193	0xbeff59a2	-0.49873072
194	0x3f83f884	1.0310216
195	0x3f2a402e	0.6650418
196	0xbf67ac31	-0.9049712
197	0xbd86fc71	-0.06591118
198	0x3ec741f2	0.389175
199	0xbedb0d45	-0.4278356
200	0xbf0671a6	-0.52517164
201	0xbe99535d	-0.29946414
202	0x3e98a1c3	0.29810914
203	0x3f0e36a3	0.5555212
204	0x3f0440d9	0.5166145
205	0x3dcdb6cd	0.10044632
206	0x3e8e958f	0.2784848
207	0xbdcf066e	-0.10108648
208	0xbe7a5292	-0.2444556
209	0xbe3f32d3	-0.18671732
210	0xbf273a72	-0.65323555
211	0x3e815fb6	0.25268334
212	0xbe0eb90d	-0.13937779
213	0x3dab3fd9	0.08361787
214	0x3dd3d4a3	0.103432916
215	0xbc8bc413	-0.017061269
216	0x3e97b3d8	0.29629397
217	0xbd0b92b6	-0.03407546
218	0x3e3fa502	0.18715289
219	0xbfd47969	-1.6599551
220	0xbd5172d8	-0.051134914
221	0x3d97d8a3	0.07414367
222	0x3f680e97	0.9064726
223	0x3db0f5f4	0.08640662
224	0xbfae4bdd	-1.3616902
225	0x3d893e1e	0.06701301
226	0xbe0e0278	-0.13868129
227	0x3e1219aa	0.14267603
228	0xbe14808f	-0.14502166
229	0xbde076de	-0.10960172
230	0xbde2b80b	-0.1107026
231	0x3e819399	0.2530792
232	0x3e7ac5bb	0.2448949
233	0xbe6ba6b7	-0.23012815
234	0xbe3e4563	-0.18581156
235	0xbeafbf8b	-0.34325823
236	0xbde3ffec	-0.111327976
237	0x3f410b96	0.75408304
238	0x3e5d0b83	0.21586423
239	0x3dbb7b29	0.0915435
240	0xbe8e44ac	-0.27786767
241	0x3d9f0174	0.07763949
242	0xbdd2bb09	-0.102895804
243	0x3ca97438	0.0206853
244	0x3e8cf3ec	0.27529848
245	0x3ec96849	0.39337376
246	0x3e5c79a2	0.21530774
247	0xbde9fabc	-0.11424777
248	0x3e35e5cd	0.17763443
249	0xbe391c1d	-0.1807713
250	0x3f534895	0.82532626
251	0xbf0c4760	-0.5479641
252	0x3eb62c6d	0.3558077
253	0xbe51ad40	-0.20476246
254	0xbdcfab36	-0.10140078
255	0xbd4fa090	-0.050690234

encoder.embed.weight f4 [64, 6]
0	0x3d11464e	0.03546744
1	0x3cbc76dd	0.023005897
2	0x3c9283b5	0.017885068
3	0x3beb0691	0.0071724136
4	0x3c3d8cce	0.011569215
5	0xbb959cf1	-0.004565828
6	0x3d180825	0.037117142
7	0x3bc70e6a	0.0060747163
8	0x3c347928	0.011015214
9	0x3c300433	0.010743189
10	0x3b8bb311	0.0042632897
11	0xbca7e89f	-0.020496665
12	0x3e05ee4d	0.13079186
13	0xbe1769dd	-0.14786477
14	0xbd1b5c0e	-0.037929587
15	0x3de0d3ba	0.10977884
16	0xbdfa9fb5	-0.12237493
17	0xbd149991	-0.036279265
18	0xbe7f71e3	-0.24945788
19	0x3efbb2d6	0.49159878
20	0x3f254f98	0.64574575
21	0xbdb691c1	-0.08914519
22	0x3d7efd23	0.06225313
23	0x3f1d2b2b	0.61393994
24	0x3ecd8e0f	0.40147445
25	0x3e32aee5	0.1744953
26	0x3ee7dd7a	0.4528616
27	0xbf450ce3	-0.7697279
28	0xbf2d4b2d	-0.67692834
29	0x3fb955d0	1.4479313
30	0xb86c0493	-5.6271045e-05
31	0xbb8456b2	-0.004038655
32	0xbb30d893	-0.0026984557
33	0x3ae2679b	0.0017273308
34	0xbcab6c8a	-0.020925779
35	0xbc400374	-0.011719573
36	0xbf1b4843	-0.6065714
37	0xbff27c2c	-1.8944144
38	0xc0366ac8	-2.8502674
39	0xbfae12e5	-1.3599516
40	0x3f87f795	1.0622431
41	0x3eb5b65c	0.35490692
42	0x3bc96adf	0.006146773
43	0x3aeda3e2	0.0018130506
44	0x3c473906	0.012159592
45	0x3c3ce814	0.011529941
46	0xbc7f39d8	-0.015577756
47	0xbc4d9c5a	-0.012549484
48	0xbd772078	-0.0603337
49	0x3c1970b1	0.009365247
50	0x3d8df4e3	0.06931474
51	0x3dfe9025	0.12429837
52	0xbc8e83b9	-0.017396795
53	0x3e0cd73e	0.13753983
54	0xbb831a90	-0.004000969
55	0x3afecbe8	0.0019439431
56	0x3a5c710a	0.0008409178
57	0xbc5ece2c	-0.01359896
58	0xbcd297c4	-0.025707133
59	0xbc6f8959	-0.014620149
60	0xbca00b39	-0.019536601
61	0x3b5bcff7	0.0033540705
62	0x3b39e64f	0.0028366034
63	0xbcbaeba6	-0.022817444
64	0xbceafac8	-0.028684035
65	0xbbd6352b	-0.0065371
66	0x3f13d00d	0.57739335
67	0x3e36c959	0.17850246
68	0x3f45581b	0.77087563
69	0xbf1949a9	-0.5987802
70	0x3face34e	1.3506868
71	0xc01c4d1e	-2.4422069
72	0x3e2dbf23	0.16967444
73	0x3d96388d	0.07335005
74	0x3d45bace	0.048273854
75	0xbe085cdc	-0.13316673
76	0xbc896f3d	-0.016776675
77	0x3e261017	0.16217075
78	0xbcc78865	-0.02435703
79	0x3c58dc71	0.013236151
80	0x3c22d21f	0.009937792
81	0xbce51c51	-0.027967604
82	0x3c187c5d	0.009306994
83	0xbca281f5	-0.019837359
84	0xbc69d4f9	-0.014271968
85	0xbcae6971	-0.021290513
86	0x3c429f7c	0.011878844
87	0x3ca25f3e	0.019820806
88	0x3bbde9c0	0.0057956874
89	0xbd10fde9	-0.035398398
90	0xbb7f5b46	-0.0038964315
91	0xbba01dce	-0.0048863655
92	0x3c38979f	0.011266618
93	0xbc110ff0	-0.008853897
94	0xbb570695	-0.003281032
95	0x3cc39d13	0.02387861
96	0xba45aee6	-0.00075410155
97	0x3bb8193c	0.0056182425
98	0xbc3263ec	-0.010888081
99	0xbb2d3bc6	-0.0026433333
100	0xbcc3ef82	-0.023917917
101	0xbc8614aa	-0.016367275
102	0xbc96121e	-0.018319186
103	0x3a84f9e3	0.0010145273
104	0x3b580018	0.003295904
105	0xbcd0da54	-0.025494732
106	0xbccfa2b5	-0.02534614
107	0xbb0e89ac	-0.002174954
108	0xbe56296d	-0.2091424
109	0x3de4c23c	0.1116986
110	0xbeca031c	-0.39455497
111	0x3e7f5eb7	0.24938475
112	0x3cb30e66	0.021857452
113	0xbeaedaa8	-0.34151196
114	0x3bd10596	0.0063788397
115	0x3bc6c19b	0.00606556
116	0xbc636679	-0.013879412
117	0x3b861fe4	0.004093157
118	0xbce22aa5	-0.027608225
119	0xbc66fd4d	-0.014098478
120	0xbcb5eb91	-0.022207053
121	0x3c34fe34	0.011046935
122	0x3c21cf33	0.00987606
123	0xbc89de34	-0.016829588
124	0xbcd438e8	-0.025906041
125	0xba06f6a8	-0.0005148449
126	0xbcd05b5b	-0.025434187
127	0xbd93b3ef	-0.07212054
128	0x3bf3725e	0.007429405
129	0x3e7826ea	0.24233595
130	0xbdb32fec	-0.08749375
131	0x3e025a9f	0.12729882
132	0xbc1b367d	-0.00947344
133	0x3ca380ba	0.019958843
134	0x389daa2b	7.51804e-05
135	0xbb92f2b7	-0.0044845003
136	0xbc5e0b2f	-0.013552471
137	0xbc523fee	-0.012832625
138	0x3c5dd32a	0.013539115
139	0x3c920ec4	0.017829306
140	0xbbb11080	-0.0054035783
141	0x3ca4fa9d	0.020139033
142	0xbc53df10	-0.0129316
143	0xbcd05b57	-0.02543418
144	0xbcc13281	-0.023583652
145	0x3bf637ce	0.0075139767
146	0x3bda10e3	0.006654845
147	0xbcbc054e	-0.022951748
148	0xbd096294	-0.033541277
149	0xbc13cb63	-0.009020659
150	0xbb12d45b	-0.0022404406
151	0x3b35c4b0	0.0027735643
152	0xbc742e95	-0.014903684
153	0xbc4428c2	-0.011972608
154	0x3b2753b0	0.002553206
155	0xbc50b072	-0.01273738
156	0x3be97e85	0.007125678
157	0xbb09c924	-0.002102443
158	0xbc24b354	-0.010052521
159	0xbb9305e1	-0.004486785
160	0xbb8302f1	-0.0039981534
161	0xbc6dd261	-0.01451549
162	0xbd534509	-0.05157951
163	0xbd0a576b	-0.033774775
164	0xbc0d43ac	-0.008622091
165	0x3d1e8f84	0.038711086
166	0xbc323197	-0.010876081
167	0xbd0743c4	-0.03302361
168	0xbc12b6e9	-0.008954742
169	0xbb69c402	-0.0035669808
170	0x3b5a01e4	0.0033265287
171	0xbbe6a484	-0.0070386548
172	0xbc80be59	-0.015715765
173	0xbc5bc8d5	-0.013414581
174	0x3d7c55e0	0.061605334
175	0x3bda9093	0.0066700666
176	0x3d194c3c	0.03742622
177	0x3a6c6eb2	0.00090191804
178	0xbc410478	-0.011780851
179	0x3d6accdb	0.05732427
180	0x3c713d18	0.014724039
181	0x3ca60d6a	0.020270068
182	0x3a6b5f45	0.0008978735
183	0x3c8bc582	0.017061953
184	0xbc26e560	-0.010186523
185	0xbd1a9986	-0.037744068
186	0xbb9fc442	-0.0048756907
187	0xbc03c218	-0.008041881
188	0xbb20b623	-0.0024522624
189	0xbc18e942	-0.009332957
190	0xbcc971ad	-0.024590338
191	0xbcf7933e	-0.030221578
192	0xbe0af2ef	-0.13569234
193	0x3d5dc172	0.054139562
194	0xbe88385c	-0.266055
195	0x3e58affc	0.21160883
196	0x3e0b24ed	0.13588305
197	0xbe94bec6	-0.290518
198	0xbbafbc62	-0.005363033
199	0x3b559b86	0.003259392
200	0xbb68dbfc	-0.0035531512
201	0xbb80ea62	-0.0039341906
202	0xbcc62411	-0.02418712
203	0xbbe470e4	-0.0069714654
204	0xbc83e2b2	-0.016099308
205	0x397c494c	0.00024059898
206	0xba1ba78c	-0.0005937747
207	0xbcc5edde	-0.024161275
208	0xbca85522	-0.020548407
209	0x3ab9e03c	0.0014181207
210	0x3b6e4d26	0.0036361902
211	0xbc1fe188	-0.009758361
212	0x3a3d785a	0.00072277116
213	0x3a110e61	0.00055334537
214	0x3d0893f3	0.03334422
215	0xbbbca2bc	-0.005756704
216	0xbd1e43a2	-0.03863872
217	0xbc4ece36	-0.012622407
218	0xbbfe942b	-0.007769128
219	0x3d9b8a46	0.07594733
220	0xbc9c0a08	-0.019047752
221	0x3c84907d	0.016182179
222	0xbc8c836c	-0.01715251
223	0x3be5b6fd	0.0070103393
224	0x3c2d2d17	0.010569832
225	0xbca0c5a3	-0.01962549
226	0xbcbe50f9	-0.02323197
227	0xbc1e35b7	-0.009656361
228	0x3c2ab907	0.0104200905
229	0x3c176432	0.009240197
230	0xbb3b3736	-0.0028566844
231	0x3bc51946	0.0060149757
232	0xbd0328ac	-0.03202121
233	0xbc9557e8	-0.018230394
234	0xbe66e359	-0.22547664
235	0x3ea0e480	0.31424332
236	0x3ece58d5	0.40302148
237	0xbdc936c5	-0.098248996
238	0x3ea2316a	0.31678325
239	0xbd22cb7e	-0.039744847
240	0x3c9a0ea7	0.018805815
241	0x3bf62dce	0.0075127846
242	0x3bca620d	0.0061762393
243	0x3c94dc95	0.018171588
244	0xbc83ccca	-0.016088862
245	0x3c77fdfa	0.015136236
246	0xbd96cb4f	-0.07362997
247	0x3fcc65be	1.5968549
248	0xbf024eae	-0.50901306
249	0x3cf0cfbb	0.029395929
250	0x402ec9fb	2.731078
251	0x3f266229	0.6499353
252	0xbaa5e172	-0.0012655689
253	0x3c0af8fb	0.008482213
254	0x3c07ea31	0.008295582
255	0xbc9e11c4	-0.01929558

encoder.embed.bias f4 [64]
0	0x3dbb2239	0.09137387
1	0x3f012f58	0.50462866
2	0xbe394d78	-0.18095958
3	0x3e15e786	0.146391
4	0x3e7a60a6	0.24450931
5	0x3e0616e9	0.13094677
6	0xbdb7e0d4	-0.089784294
7	0x3ecbb2f2	0.39784962
8	0x3e3065cc	0.17226332
9	0x3eb20d35	0.347757
10	0xbe9459ab	-0.2897466
11	0xbeb3b145	-0.35096183
12	0xbd563620	-0.05229771
13	0xbd7fa0a0	-0.062409043
14	0xbd4f7502	-0.050648697
15	0x3d4b2257	0.049593296
16	0x3e9d120d	0.30677834
17	0x3e545590	0.20735765
18	0x3e1b1033	0.15142898
19	0xbe77155c	-0.24129242
20	0x3e0014f7	0.12507997
21	0x3e5ebc87	0.21751605
22	0xbdaf58e1	-0.08561874
23	0x3cb37972	0.021908496
24	0xbe8a3bf1	-0.26998857
25	0x3d41dd43	0.047330152
26	0xbe249444	-0.16072184
27	0x3e9ae151	0.30250028
28	0x3d5c2f4f	0.053756054
29	0x3e90d149	0.28284672
30	0x3d1c3b70	0.03814262
31	0xbd482846	-0.048866533
32	0xbe8df4ea	-0.27725917
33	0xbd179c8a	-0.03701452
34	0x3e258c68	0.16166842
35	0xbe3231a6	-0.17401752
36	0x3e9fec84	0.31235135
37	0x3e0e1bab	0.13877742
38	0x3e23ab2b	0.15983264
39	0xbe53d8c6	-0.20688161
40	0xbde726a8	-0.1128667
41	0x3e9056e7	0.281913
42	0x3e373ea6	0.17894992
43	0x3ece0378	0.4023702
44	0xbdd9966c	-0.10624394
45	0x3dc6477e	0.09681605
46	0xbe159d07	-0.14610682
47	0xbe00ab7f	-0.1256542
48	0xbd7ba0fe	-0.06143283
49	0xbdc10ad7	-0.09425896
50	0x3e0c16cf	0.13680576
51	0xbcc97767	-0.024593068
52	0xbd00d9b8	-0.031457633
53	0xbe7bb804	-0.24581915
54	0xbe45ccab	-0.19316356
55	0x3d9894e5	0.074502744
56	0xbe02cfe3	-0.12774615
57	0xbdf845ee	-0.12122713
58	0x3cf7c47e	0.030245062
59	0x3c1d3c02	0.0095968265
60	0xbeb7b2c5	-0.35878578
61	0x3e1ffac0	0.15622997
62	0x3e006315	0.12537797
63	0x3d5df421	0.054187898

encoder.layers.0.self_attn.in_proj_weight f4 [192, 64]
0	0xbbae3481	-0.0053163175
1	0x3beb6c57	0.007184546
2	0x3ec1f186	0.3787958
3	0xbd503c53	-0.05083878
4	0x3e1151a4	0.141913
5	0xbc9e307e	-0.019310232
6	0x3c695d75	0.014243473
7	0xbcb10819	-0.021610307
8	0xbe5bb3ac	-0.21455258
9	0x3be75172	0.0070592696
10	0xbac82ac0	-0.001527153
11	0x3dcb5cd8	0.09929818
12	0xbe2a25c4	-0.16615969
13	0x3bf01112	0.0073262537
14	0xbd2e39c9	-0.042535577
15	0x3dc1b601	0.094585426
16	0xbcb2d648	-0.021830693
17	0x3c4f076d	0.012636048
18	0x3df21b8e	0.11821662
19	0xbca4cbab	-0.020116648
20	0x3b0f432c	0.0021860106
21	0x3e99970c	0.29998052
22	0xbd0e04f7	-0.034672704
23	0xbcbd8c15	-0.023138085
24	0x3c535171	0.012897835
25	0x3baca09f	0.005268171
26	0xbc369f03	-0.01114631
27	0xbe974d4a	-0.29551154
28	0xbcf65561	-0.030070009
29	0xbe27b185	-0.16376312
30	0xbdad74eb	-0.08469566
31	0x3c4620e5	0.012092804
32	0xbdabee3c	-0.08395049
33	0xbc6209ee	-0.013796313
34	0x3ba665e5	0.0050780647
35	0x3d48323f	0.048876043
36	0xbe74bfab	-0.2390124
37	0x3c4553fd	0.01204395
38	0xbcd1d844	-0.025615819
39	0x3e1d55b0	0.15364718
40	0x3de84961	0.11342121
41	0xbc38427e	-0.011246322
42	0x3d448530	0.04797858
43	0x3cb98000	0.022644043
44	0x3c952e6f	0.018210618
45	0xbd5605ff	-0.052251812
46	0xbd9f33de	-0.07773565
47	0x3d5d09d3	0.053964447
48	0xbd85cc9f	-0.06533169
49	0x3c8841fe	0.01663303
50	0xbb006d4b	-0.0019596394
51	0x3cea6c2f	0.02861604
52	0x3de33804	0.110946685
53	0xbe606f56	-0.21917471
54	0xbb4434ff	-0.0029938815
55	0x3cfd9cbf	0.030958531
56	0x3d037dcf	0.032102402
57	0x3cbd7443	0.023126727
58	0x3e8c98ed	0.27460423
59	0xbd878bf7	-0.06618493
60	0x3bc56b6a	0.0060247676
61	0x3bd4cba9	0.0064940047
62	0x3b495321	0.0030719715
63	0x3cbe489a	0.023227978
64	0x3c770e7e	0.015079139
65	0x3d5bf4bd	0.053700197
66	0xbdfcc002	-0.1234131
67	0xbe218dbb	-0.15776722
68	0xbc88b7d2	-0.016689215
69	0x3cfaddc7	0.03062333
70	0xbd642c30	-0.055706203
71	0x3c68da7c	0.014212247
72	0xbd508ecb	-0.050917428
73	0x3cc74cef	0.024328677
74	0xbd01559a	-0.031575777
75	0xbe14a822	-0.14517263
76	0xbd56a254	-0.052400902
77	0xbd8ca257	-0.06866901
78	0xbea8db4d	-0.32979813
79	0x3cef0513	0.029177224
80	0x3d97c395	0.07410351
81	0xbb1a9463	-0.002358698
82	0x3db6f897	0.089341335
83	0x3d2b1872	0.04177136
84	0xbd1d8a06	-0.038461708
85	0xbe541f3b	-0.20715038
86	0xbce5ffb1	-0.028076025
87	0x3c1db0d6	0.0096246805
88	0xbc5713e5	-0.013127302
89	0xbbe3bd91	-0.0069500883
90	0xbdada99e	-0.084796175
91	0xbe6f86d4	-0.23391277
92	0x3c6d021b	0.014465834
93	0xbe726df6	-0.2367476
94	0x3ed38109	0.41309384
95	0x3d3326bc	0.04373811
96	0xbc235b0a	-0.009970436
97	0xbcafe78e	-0.021472719
98	0xbc0901db	-0.008362259
99	0xbc954485	-0.01822115
100	0x3d97d473	0.07413568
101	0xbb6df0db	-0.003630689
102	0xbbf76bcf	-0.0075506936
103	0x3d9e9ba9	0.077445336
104	0x3e946ef0	0.2899089
105	0x3d39c21a	0.045351125
106	0x3d1a18e4	0.037621394
107	0xbb13a309	-0.0022527596
108	0xbc8afce8	-0.016966298
109	0xbdaeed56	-0.08541362
110	0xbf305df0	-0.6889334
111	0x3ea23f09	0.31688717
112	0x3d9843a0	0.074347734
113	0xbd4c5e82	-0.049894817
114	0x3c7577ec	0.014982205
115	0xbb34aabf	-0.0027567593
116	0x3dccb30b	0.09995087
117	0xbdff0893	-0.12452807
118	0x3c4042c4	0.011734668
119	0xbd1465d3	-0.03622992
120	0xbd61f928	-0.055169255
121	0x3ef196b1	0.4718528
122	0xbd808512	-0.06275381
123	0x3d50e6d0	0.05100137
124	0xbd399011	-0.045303408
125	0xbce0eee8	-0.02745767
126	0xbbad3dce	-0.0052869087
127	0x3d5819da	0.05275903
128	0xbc81ab13	-0.015828645
129	0x3d80bf98	0.062865436
130	0xbcf0e5b0	-0.029406399
131	0x3de3f4d8	0.111306846
132	0x3d721825	0.059105057
133	0x3d5498d3	0.051903557
134	0x3baea124	0.005329268
135	0xbc89766c	-0.0167801
136	0xbd008254	-0.03137429
137	0x3c45e965	0.012079571
138	0x3c3c6bfc	0.011500355
139	0x3d660828	0.056160122
140	0x3d7c32ef	0.06157201
141	0xbce7e677	-0.028308136
142	0xbdc6b91d	-0.09703276
143	0xbcdb015f	-0.026734052
144	0x3d074bce	0.033031277
145	0x3d6df3c7	0.058093812
146	0x3ce3f7e8	0.027828172
147	0x3d2ca093	0.042145323
148	0x3c40d526	0.011769569
149	0xbd2e515c	-0.04255806
150	0x3c9e9f1a	0.019362975
151	0x3a8973b1	0.0010486749
152	0x3cbcdcc9	0.023054497
153	0xbb826d35	-0.0039803036
154	0xbe1ae116	-0.15124926
155	0x3d69a60c	0.05704312
156	0x3b8ef728	0.0043629594
157	0x3df7b28e	0.120946035
158	0xbd5b6de7	-0.053571608
159	0x3c8553bb	0.016275277
160	0xbbcb58ca	-0.006205653
161	0x3c000210	0.007812992
162	0x3d04f899	0.032463644
163	0xbbc4aac7	-0.0060018036
164	0x3d091fa4	0.03347744
165	0x3b32a807	0.0027260797
166	0x3d8cc0ff	0.068727486
167	0xbd003780	-0.03130293
168	0x3aaaa642	0.0013019519
169	0xbd1ee9e5	-0.038797278
170	0xbc124818	-0.008928321
171	0x3c7ee39d	0.015557197
172	0x3d0909ab	0.033456486
173	0x3c7fb239	0.015606456
174	0xbdeaa95c	-0.11458084
175	0x3b1d05d6	0.0023959777
176	0xbd5bb999	-0.053643797
177	0xbd694da5	-0.056958813
178	0x3cf938ba	0.030422557
179	0x3c4dc8ed	0.0125601115
180	0xbd24fb60	-0.040278792
181	0xbd92abbf	-0.07161664
182	0xbce9cd57	-0.028540296
183	0xbbbe1246	-0.005800518
184	0x3d25e464	0.040501013
185	0x3da7b78b	0.08189305
186	0xbd690319	-0.05688772
187	0xbd4fe2fa	-0.05075357
188	0x3d4d7ae3	0.050166022
189	0x3cb7fd7b	0.022459736
190	0x3c9b886b	0.018985948
191	0x3d9bc13a	0.076052144
192	0xbe1fbb92	-0.15598896
193	0xbdae5ff2	-0.08514394
194	0x3d4f5aea	0.05062381
195	0x3ca6148d	0.020273471
196	0x3b030462	0.0019991626
197	0x3d62fd4f	0.055417355
198	0xbb56b3fc	-0.0032761088
199	0x3d92ad53	0.07161965
200	0xbc88d4b3	-0.016702985
201	0xbc22acea	-0.009928921
202	0xbc0c2096	-0.008552691
203	0x3ccc365d	0.024928266
204	0x3c587593	0.013211626
205	0x3ce62fec	0.028099023
206	0xbd237eb8	-0.03991577
207	0xbc255203	-0.010090354
208	0x3d0a40a6	0.03375306
209	0x3c2631d2	0.010143714
210	0xbc73c319	-0.014878058
211	0xbc6808e2	-0.014162274
212	0x39fe31ed	0.00048483853
213	0xbb277601	-0.0025552514
214	0x3db73005	0.08944706
215	0xbc1c0705	-0.009523158
216	0x3c132411	0.008980767
217	0xbd805e34	-0.06267968
218	0x3c39ccc7	0.011340327
219	0xbaf81038	-0.0018925732
220	0x3bf14034	0.00736239
221	0xbcbc8fdf	-0.023017822
222	0xbb178c78	-0.0023124497
223	0xbd4f39b1	-0.05059213
224	0xbc73c73e	-0.014879046
225	0x3cadefe4	0.021232553
226	0x3c41adbc	0.011821207
227	0xbd0c740d	-0.034290362
228	0x3d601d77	0.0547156
229	0xb9e5232c	-0.0004370449
230	0x3c3578df	0.011076181
231	0x3d42998e	0.047509722
232	0xbc359270	-0.011082277
233	0xbcc79a9d	-0.024365718
234	0xbd8f7441	-0.070045955
235	0xbe07276c	-0.13198632
236	0xbba82f8d	-0.0051326216
237	0x3c518e72	0.012790309
238	0x3cdfc19f	0.027314005
239	0xbda4b0d0	-0.08041537
240	0xbd471346	-0.048602365
241	0xbd99e3c4	-0.07514146
242	0xbbd14557	-0.00638644
243	0xbd418934	-0.047249988
244	0x3c2fa7e0	0.010721177
245	0x3d1eb076	0.038742505
246	0xbbe345a2	-0.006935791
247	0xbbbc54a8	-0.0057473965
248	0xbd1104f2	-0.035405107
249	0x3cb4ebb8	0.022085056
250	0xbd31aeb2	-0.043379493
251	0xbd556835	-0.052101333
252	0x3d851ec4	0.06500009
253	0x3cb5de60	0.022200763
254	0xbbb0821a	-0.005386603
255	0x3ce37d14	0.027769603

encoder.layers.0.self_attn.in_proj_bias f4 [192]
0	0xbf3fe6d1	-0.7496157
1	0x3999e618	0.00029353867
2	0xbc942b58	-0.018087074
3	0x3c286145	0.010277097
4	0x3cb14628	0.021639898
5	0x398b2bc9	0.00026544768
6	0xbc70514f	-0.014667823
7	0xbc50fc2a	-0.012755433
8	0x3c447983	0.011991861
9	0x3f31554c	0.6927078
10	0x3c79f6e6	0.015256619
11	0x3f5814b2	0.8440658
12	0xbc6ce47b	-0.014458771
13	0x3e2be6c6	0.16787252
14	0xbdd29c5d	-0.1028373
15	0x3c6ac14e	0.014328314
16	0xc04d166c	-3.2044935
17	0xbc232452	-0.00995739
18	0xbd4eb1a7	-0.05046239
19	0x3c15a86a	0.009134391
20	0xbd3edbcb	-0.04659633
21	0xbcee144f	-0.029062418
22	0x3cd37e8a	0.025817174
23	0xbb0def0e	-0.002165738
24	0xbc1146a6	-0.008866942
25	0x3cef43cb	0.02920713
26	0x3d124de8	0.03571883
27	0x3d9fdebe	0.078061566
28	0xbd378f9a	-0.044814683
29	0x3c7d721e	0.015469102
30	0xbd2c96fe	-0.042136185
31	0x3d1c0c5b	0.03809772
32	0xbd0ff8f2	-0.035149522
33	0xbb863686	-0.004095855
34	0xbd9da445	-0.076973476
35	0x3c56b257	0.013104043
36	0xc01af75e	-2.421348
37	0x3dc0374c	0.09385547
38	0xbe021295	-0.12702401
39	0xbc07f563	-0.008298251
40	0x3d6c64b8	0.05771324
41	0x3ccfef49	0.025382655
42	0x3b9e86be	0.00483784
43	0x3d1f5d56	0.03890737
44	0xbc8c695c	-0.017140083
45	0xbde6e375	-0.11273853
46	0xbd663ba6	-0.05620923
47	0xbd5fc367	-0.05462971
48	0xbc9ad344	-0.018899567
49	0x3cb2c109	0.021820562
50	0x3a99d1c9	0.0011735494
51	0x3cb61b7a	0.022229899
52	0x3d197210	0.037462294
53	0x3c61ccb0	0.013781711
54	0x3e30dca5	0.17271669
55	0x3ab336c6	0.001367294
56	0xbc9de397	-0.019273562
57	0x3c312d9d	0.010814098
58	0x3bf4c5e4	0.0074698795
59	0xbc0a4528	-0.00843934
60	0x3b9eca53	0.0048458963
61	0x3cd37be4	0.025815912
62	0xc04e0a84	-3.2193918
63	0x3bddcbbf	0.006768673
64	0xbb8accc6	-0.0042358367
65	0x3bdd426d	0.0067523033
66	0xbb072389	-0.0020620546
67	0x398932e7	0.00026168601
68	0xb99d10d5	-0.00029957914
69	0xba0da269	-0.0005402924
70	0x3b8818e9	0.00415336
71	0x3a88ea83	0.0010445867
72	0xb9cdf227	-0.00039281065
73	0xbbacb18e	-0.0052701896
74	0xbbd06648	-0.006359849
75	0xbc88e207	-0.01670934
76	0x3a887a53	0.0010412432
77	0x3c3279e8	0.0108933225
78	0xbb27c963	-0.0025602214
79	0x3b9a24ef	0.00470411
80	0x3cbbb86a	0.022915084
81	0x3a4bbf44	0.0007772336
82	0x3ad2b15b	0.0016074585
83	0xba816c65	-0.0009874223
84	0xb990e773	-0.00027638263
85	0xbb2822bc	-0.002565547
86	0xba0ef2ef	-0.000545307
87	0x3b0bb769	0.0021319038
88	0xb89bf14c	-7.435921e-05
89	0xb9e5f265	-0.00043858882
90	0x3a72e92f	0.00092663144
91	0x3b2bc9fe	0.0026212926
92	0xba3f2540	-0.00072916225
93	0xba1da4d9	-0.0006013639
94	0xba855686	-0.0010172881
95	0x3966eb49	0.0002202216
96	0xb9686dc1	-0.0002216613
97	0x3baebf6e	0.005332879
98	0x3b117659	0.0022195785
99	0xb99dbb01	-0.00030084702
100	0xbd103dfd	-0.035215367
101	0xbb9f87e5	-0.004868495
102	0x3ba73711	0.005103
103	0x3857e8d3	5.147683e-05
104	0xbbc49fde	-0.006000503
105	0xbbad6488	-0.0052915253
106	0xbae69246	-0.00175912
107	0x3a6b97e0	0.000898717
108	0xbb2131cb	-0.002459633
109	0x3aa8378b	0.0012833936
110	0xba28f343	-0.000644494
111	0x3a5eb1a8	0.0008495101
112	0x3a3aec8d	0.0007130586
113	0x3a92e19b	0.0011206152
114	0xbb0801df	-0.0020753068
115	0x3acd215e	0.0015650203
116	0xbb520706	-0.0032047643
117	0xbb4a870e	-0.0030903253
118	0xbc2369a3	-0.009973916
119	0x39e8cc0b	0.00044402512
120	0x3b827341	0.0039810245
121	0x3ac78bbc	0.0015224139
122	0xbabe9f80	-0.0014543384
123	0xbaefee5a	-0.0018305287
124	0x3b121d12	0.002229516
125	0x3b320701	0.002716482
126	0xbcf485d7	-0.029848976
127	0xbb00c5e0	-0.0019649193
128	0x3cf6f53e	0.030146237
129	0x3d7898a6	0.060692452
130	0xbca3ea7a	-0.020009268
131	0xbc74d9ac	-0.014944475
132	0xbca44627	-0.020052982
133	0x3db103a1	0.0864327
134	0xbc96b1da	-0.018395353
135	0x3d16acac	0.036785766
136	0xbce8a51c	-0.028399043
137	0x3bb47491	0.00550706
138	0x3b34d631	0.0027593488
139	0x3c6e00c5	0.014526551
140	0xbc775d98	-0.015097998
141	0x3c6b1858	0.014349066
142	0xbc12a60f	-0.008950724
143	0x3bc438a4	0.0059881974
144	0xbc7684d6	-0.015046319
145	0x3c563b38	0.013075642
146	0x3c316a09	0.010828503
147	0x3c6f1f56	0.014594873
148	0x3c9ab3c6	0.01888455
149	0x3c88d389	0.01670243
150	0xbd57a132	-0.052643962
151	0x3cc36c4b	0.023855349
152	0xbc8b517e	-0.017006632
153	0xbbad29de	-0.005284532
154	0x38b83cdb	8.785139e-05
155	0x3f30ca6c	0.6905887
156	0x3c16482d	0.0091724815
157	0xbbcc5a81	-0.006236375
158	0xbc026fd7	-0.007961235
159	0xbcb65da0	-0.02226144
160	0xbc859fe5	-0.016311595
161	0xbbd6ffd6	-0.0065612597
162	0x3bda0d9c	0.0066544544
163	0x3c8d67f3	0.01726148
164	0xbce03c58	-0.027372524
165	0xbcd244d5	-0.025667587
166	0x3b945ee6	0.0045279143
167	0x3da05ffb	0.07830807
168	0x3e2668cb	0.16250913
169	0xbc72aaaf	-0.014811202
170	0x3bdf42e8	0.006813396
171	0xbc894ec6	-0.016761195
172	0x3c236da0	0.009974867
173	0xbb77b0d6	-0.0037794611
174	0xbca5be7d	-0.020232433
175	0x3dddc29c	0.108281344
176	0x3cdf0fad	0.027229154
177	0x38cc07c4	9.7289245e-05
178	0x3dd77615	0.10520569
179	0x3c1718fe	0.009222267
180	0x3b9dbff0	0.0048141405
181	0xbb977ae5	-0.0046228045
182	0xbcd39b98	-0.025831029
183	0xbca9cbbd	-0.020727033
184	0x3a43cfec	0.00074696424
185	0xbc2ce34a	-0.010552237
186	0x3d124751	0.035712544
187	0xbcc70247	-0.024293078
188	0xbf053435	-0.52032787
189	0x3e6a386f	0.2287309
190	0xbcb6f957	-0.022335691
191	0xbefb0d03	-0.49033365

encoder.layers.0.self_attn.out_proj.weight f4 [64, 64]
0	0xbcb75c83	-0.02238298
1	0x3f1c1d46	0.6098217
2	0xbda939f6	-0.08263008
3	0xbf04f87d	-0.51941663
4	0x3e208837	0.15676962
5	0x3ee131ca	0.439833
6	0x3a7d756a	0.000966868
7	0xbbfdb7f8	-0.007742878
8	0xbb40d33f	-0.0029422787
9	0x3bb62b17	0.005559336
10	0xbc267f89	-0.010162243
11	0xbcfb1989	-0.030651825
12	0xbf3b8053	-0.7324268
13	0xbce3fd1f	-0.027830658
14	0xbce6f882	-0.02819467
15	0xbcb3c424	-0.021944113
16	0xbc6ef237	-0.014584116
17	0xbd023f47	-0.031798627
18	0x3f1f66c5	0.6226619
19	0x3c5459d1	0.012960867
20	0x3de53230	0.11191213
21	0xbe008781	-0.1255169
22	0xbf1bfe1c	-0.60934615
23	0x3cd4af54	0.02596251
24	0x3ae0d9bc	0.0017154734
25	0xbb4c5ca9	-0.003118316
26	0xbe1990a4	-0.14996582
27	0xbe8a4eb0	-0.2701316
28	0x3cf845c4	0.030306704
29	0x3d6eb0aa	0.05827395
30	0xbdd02db5	-0.10164968
31	0xbd76ae82	-0.060225017
32	0xbd99c8d3	-0.07509007
33	0xbc4ab13a	-0.012371356
34	0x3d9a6cbf	0.07540273
35	0xbcc6e702	-0.024280075
36	0x3c363300	0.011120558
37	0x3dfc5023	0.12319972
38	0xbda85544	-0.08219388
39	0xbf853312	-1.040621
40	0x3e47a1d8	0.19495332
41	0xbb812dcd	-0.0039422275
42	0x3d0cffb0	0.03442353
43	0xbf3c6ff9	-0.73608357
44	0xbe24da40	-0.16098881
45	0x3d2b2da2	0.041791566
46	0xbf193889	-0.5985189
47	0xbee4cc5f	-0.44687173
48	0x3dafcf04	0.08584407
49	0xbd6f18bf	-0.05837321
50	0x3d35f2bd	0.044420946
51	0xbd3ff28b	-0.046862166
52	0xbd178a19	-0.036996935
53	0xbd082ce5	-0.03324594
54	0xbd638a55	-0.055551846
55	0xbf2e85ab	-0.6817271
56	0xbd2c921c	-0.04213153
57	0x3d55ea7d	0.05222558
58	0xbc209346	-0.009800738
59	0x3bbf4e69	0.0058382046
60	0x3f3d2432	0.73883355
61	0xbfae08ef	-1.3596476
62	0x3b822992	0.0039722407
63	0xbec7390c	-0.3891071
64	0x3c9c081c	0.019046836
65	0x3f286dda	0.6579262
66	0xbb8c9318	-0.004289996
67	0xbccffc76	-0.025388937
68	0xbf5eae9f	-0.869852
69	0x3e43e327	0.1912962
70	0xbc3c07cb	-0.011476467
71	0x3e423c62	0.18968347
72	0xbcf953a0	-0.030435383
73	0x3ae8de71	0.0017766488
74	0x3cc746a6	0.02432568
75	0x3d1d9260	0.038469672
76	0xbf0602ea	-0.52348197
77	0xbaa1d432	-0.0012346564
78	0x3c283ac3	0.010267916
79	0xbcefea28	-0.02928646
80	0xbd684c3a	-0.05671332
81	0xbc4ad224	-0.012379203
82	0xbe8a7a67	-0.2704651
83	0xbd1db6c3	-0.038504373
84	0x3ce09aaa	0.0274175
85	0x3f2e75e0	0.6814861
86	0xbf855592	-1.0416739
87	0x3d4da3a7	0.0502049
88	0xbd3b0354	-0.04565747
89	0x3d2abc65	0.041683573
90	0x3caddccc	0.021223448
91	0xbe9e2a19	-0.30891493
92	0xbc6d09a6	-0.014467632
93	0x3cda7ba3	0.026670283
94	0x3bb57d35	0.0055386075
95	0x3cba4931	0.022739979
96	0xbca54092	-0.020172391
97	0x3c3a4977	0.011370054
98	0xbc3f2924	-0.0116675235
99	0x3cdb3cca	0.026762385
100	0xbbdbb176	-0.0067045046
101	0xbcdf5911	-0.02726415
102	0x3c654d11	0.013995425
103	0x3f489c2c	0.783633
104	0xbe32aba6	-0.17448291
105	0xbc526f25	-0.012843882
106	0x3d355c48	0.04427746
107	0x3eb940cc	0.3618225
108	0x3f443f0f	0.7665872
109	0x3ca3c68d	0.019992137
110	0xbea51507	-0.32242605
111	0x3ec2a76b	0.38018355
112	0x3f0fbadd	0.56144506
113	0x3c67e79f	0.014154344
114	0x3f66fad9	0.90226513
115	0x3d93e204	0.072208434
116	0x3d06538d	0.032794524
117	0xbc329cfd	-0.010901687
118	0xbd99861d	-0.07496283
119	0x3d3485bd	0.044072855
120	0x3c489a1d	0.012243775
121	0xbce5af78	-0.028037772
122	0x3d9074aa	0.07053502
123	0xbc5cd5a8	-0.013478674
124	0xbf52d716	-0.82359445
125	0xbf8ca3d8	-1.0987501
126	0xbcc9d5ad	-0.024638021
127	0x3f06db21	0.52678114
128	0xbd1e6115	-0.038666803
129	0x3ec60ccf	0.38681647
130	0x3c23d893	0.010000366
131	0x3eb93389	0.3617213
132	0x3e8813c1	0.2657757
133	0xbeb383af	-0.35061404
134	0x3cbc4fa8	0.022987202
135	0x3d48e5e4	0.049047366
136	0x3cd95079	0.02652763
137	0xbd0077b4	-0.031364158
138	0xbcb1000b	-0.021606466
139	0xbc7b0362	-0.015320631
140	0x3ee0c9c2	0.4390393
141	0xbbf09a89	-0.007342641
142	0x3ca49e95	0.020095149
143	0xbb15d319	-0.002286142
144	0xbc96faf3	-0.018430209
145	0xbc5b54df	-0.013386934
146	0xbd209360	-0.039203048
147	0xbd2c203e	-0.042022936
148	0x3ba65407	0.005075935
149	0x3d88da36	0.066822454
150	0xbdc3c304	-0.09558681
151	0xbc37e83b	-0.011224802
152	0x3d2a441c	0.04156886
153	0x3d340de6	0.043958567
154	0xbbffc4cc	-0.0078054424
155	0x3e302fec	0.1720578
156	0xbb5d5fd6	-0.0033779046
157	0x3c74405f	0.014907925
158	0x3c274edd	0.010211674
159	0x3a781711	0.00094638864
160	0x3d00fd2f	0.031491455
161	0x3d10b22c	0.035326168
162	0xbc19f524	-0.009396825
163	0xbc006104	-0.00783563
164	0x3d1126d1	0.03543741
165	0xba9b2db3	-0.0011839181
166	0x3be50c68	0.0069900043
167	0x3e2c69db	0.16837256
168	0x3f12ca88	0.5734029
169	0x3cd90267	0.026490403
170	0xbc118f45	-0.008884256
171	0x3e493eab	0.19652812
172	0x3dba801b	0.091064654
173	0x3c99c124	0.018768854
174	0xbd93b62b	-0.0721248
175	0x3e44ea29	0.1922995
176	0xbd83c9b0	-0.06434953
177	0xbd57610b	-0.05258278
178	0x3e50b02f	0.20379709
179	0xbb97eae0	-0.0046361536
180	0x3c3bd5ab	0.011464517
181	0x3c25babb	0.010115321
182	0xbc2afc84	-0.010436181
183	0x3d2ba8de	0.04190909
184	0x3bfd90bd	0.0077382014
185	0x3b48f92f	0.0030666103
186	0xbb9e2350	-0.004825987
187	0x3cc6dde4	0.024275728
188	0x3f141c18	0.5785537
189	0xbe8df1ec	-0.27723634
190	0x3c73fa9b	0.014891292
191	0xbe5fdff3	-0.21862774
192	0x3c054940	0.00813514
193	0xbf27690b	-0.6539466
194	0xbcd2ad3f	-0.025717376
195	0x3dc1ed2d	0.09469066
196	0xbcb35813	-0.021892583
197	0xbeb38f66	-0.35070342
198	0xbc24669e	-0.0100342315
199	0xbeb54467	-0.3540375
200	0xbcb755ac	-0.022379719
201	0x3c7f9ad1	0.015600876
202	0x3cb38b64	0.021917053
203	0x3bdd4e9e	0.0067537567
204	0xbe74ad1f	-0.23894165
205	0x3c0e45f6	0.008683672
206	0xbb051b35	-0.0020310406
207	0x3bd9ebda	0.00665043
208	0xbd0352d7	-0.032061424
209	0x3d85e1be	0.065371975
210	0x3d9d6679	0.07685561
211	0x3c9c0fa3	0.019050425
212	0x3b6942f7	0.0035592893
213	0x3ec9db46	0.39425105
214	0xbe05a297	-0.13050304
215	0xbc4307bf	-0.011903702
216	0xbc17eb43	-0.009272399
217	0xbc4bfb60	-0.012450069
218	0x3c9c28bb	0.01906239
219	0xbe180e88	-0.14849293
220	0x3b0c45ba	0.0021403865
221	0x3d004740	0.03131795
222	0x3bf81b12	0.0075715864
223	0x3b237622	0.0024942239
224	0xbbb04858	-0.005379718
225	0x3c84c492	0.016207013
226	0x3b1a2a22	0.0023523648
227	0x3ca33c01	0.019926073
228	0xbca53da1	-0.020170989
229	0xbc289690	-0.010289803
230	0x3bd4a473	0.0064893304
231	0xbe191c1b	-0.14952128
232	0x3dab103e	0.08352707
233	0xbb312b2f	-0.0027033796
234	0xbbde48d5	-0.0067835846
235	0xbe9696f5	-0.29412046
236	0x3e6a7233	0.22895126
237	0xbb3f67b5	-0.0029206101
238	0xbd57e772	-0.052710958
239	0xbf3c543b	-0.73566025
240	0x3e324898	0.17410505
241	0xbcf9a929	-0.03047617
242	0xbdbe908f	-0.09304916
243	0x3c1f95f2	0.00974034
244	0x3c16061a	0.009156728
245	0xbbcc8bc3	-0.006242247
246	0xbd321a7a	-0.04348228
247	0xbe3c74b3	-0.18403892
248	0xba94e48c	-0.0011359616
249	0xbc601c48	-0.013678618
250	0x3d2556a4	0.04036583
251	0xbc8631ec	-0.016381226
252	0x3d6a482d	0.05719774
253	0x3f02d31d	0.51103383
254	0xbce80665	-0.028323362
255	0x3ea1ba3f	0.31587407

encoder.layers.0.self_attn.out_proj.bias f4 [64]
0	0xc030211b	-2.7520206
1	0xbeadd213	-0.33949336
2	0xbe8e443f	-0.27786443
3	0x3e9c7340	0.3055668
4	0xbd9a1689	-0.075238295
5	0x40253b45	2.5817425
6	0xbe6a52f8	-0.22883213
7	0x3da33e5e	0.0797088
8	0xc00e6577	-2.224943
9	0x3ec535bf	0.38517568
10	0xbd925789	-0.07145602
11	0xbe265047	-0.16241561
12	0x40286e95	2.6317494
13	0x3faffd66	1.3749206
14	0x3e16ac27	0.14714108
15	0xc027ab89	-2.6198447
16	0xbd0bc578	-0.034123868
17	0xbe802279	-0.250263
18	0xbf232292	-0.63724625
19	0xbdfc0ede	-0.12307523
20	0xbf00b99e	-0.5028323
21	0xbedb99ab	-0.42890677
22	0x3fbe1998	1.485156
23	0x3eac0e20	0.33604527
24	0xbf18d0b7	-0.59693474
25	0xbedd638a	-0.43240005
26	0x3e9cb879	0.3060949
27	0xbdd2bbe6	-0.10289745
28	0xbe8e15d9	-0.27751043
29	0xbeb69db7	-0.35667202
30	0xbef3dbb4	-0.47628558
31	0xbfaac35e	-1.3340871
32	0x3ddd18e0	0.1079576
33	0x3f338e62	0.70139134
34	0xbe831643	-0.25602922
35	0xbf82b924	-1.021275
36	0xbdc79948	-0.09746033
37	0xbed36f1f	-0.41295716
38	0x3f5d7a9a	0.865152
39	0x3d89da27	0.067310624
40	0xbe704c88	-0.23466694
41	0x3dff4215	0.12463776
42	0xc054f5fc	-3.3275137
43	0xbd092297	-0.033480253
44	0x3ec635e3	0.38712987
45	0xbe9d5083	-0.30725488
46	0x3f864778	1.049056
47	0x3f740b77	0.95329994
48	0x3c9c07d2	0.019046698
49	0xbf9752c3	-1.1822132
50	0xbe2625ec	-0.16225404
51	0xc01d51cc	-2.4581175
52	0x3f2cbfb2	0.67480004
53	0x39b59170	0.0003463137
54	0xbeb68431	-0.3564773
55	0xc006271c	-2.096137
56	0xbeae7131	-0.34070733
57	0x3f0843cd	0.53228456
58	0x3dcfa3d9	0.10138673
59	0x3ee3fad4	0.44527304
60	0x4099e299	4.808911
61	0x3f337052	0.7009326
62	0xbdc46fd4	-0.09591642
63	0x3f10f3cd	0.5662201

encoder.layers.0.ff.0.weight f4 [128, 64]
0	0xbfc57991	-1.5427724
1	0xbd9f0196	-0.07763974
2	0x3f149a4a	0.58047926
3	0xbf77c719	-0.96788174
4	0xbb815b6f	-0.0039476673
5	0x40005b03	2.005555
6	0x3f5633a4	0.8367255
7	0x3ffd4f43	1.9789814
8	0x3f9680e5	1.1758085
9	0xbe0414d3	-0.12898569
10	0xbdbe6a24	-0.092975885
11	0x3d8652fb	0.06558796
12	0xbfcb2ff1	-1.5874006
13	0x3fc6b7b9	1.5524818
14	0xbec358a9	-0.3815358
15	0x3f8ba1ac	1.0908713
16	0xbf992971	-1.1965772
17	0xbcfe8add	-0.031072075
18	0xbe2917cc	-0.16512984
19	0xbf72e1a0	-0.94875526
20	0x3d93fd1a	0.0722601
21	0x3f0fe638	0.5621066
22	0x3ffd2356	1.9776409
23	0x3f9e889d	1.2385441
24	0x3d86366d	0.0655335
25	0xbfbeb2e6	-1.4898345
26	0x3fa43223	1.28278
27	0xbefeaf8d	-0.4974331
28	0xbd5c83a9	-0.0538365
29	0x3f9a639a	1.2061646
30	0x3e9c98e2	0.3058539
31	0xbeac56b2	-0.33659893
32	0x3a5ed9e3	0.00085010956
33	0x3e4190a3	0.18902831
34	0x3dff3dd9	0.124629684
35	0xbd3eb4ce	-0.046559148
36	0x3ebf3ad2	0.37349564
37	0xbd6a70c6	-0.057236455
38	0x3ed57d05	0.41696945
39	0xbf3d16a1	-0.73862654
40	0x3f10b286	0.56522405
41	0xbf47e4ab	-0.78083295
42	0xbf9bc688	-1.2169962
43	0xbf1e2c3c	-0.61786246
44	0xbf836a1b	-1.0266756
45	0x3e4b82fe	0.19874188
46	0x3e8185ea	0.2529748
47	0xbe3b58b9	-0.18295564
48	0xbe8b8254	-0.2724787
49	0x3f9fbc52	1.2479346
50	0x3c3d2d40	0.011546433
51	0xbe73a55f	-0.23793553
52	0x3f335341	0.7004891
53	0xbe87c665	-0.2651855
54	0xbed41614	-0.41423094
55	0x3d9e0820	0.077163935
56	0xbf81fbaa	-1.0154927
57	0xbf90a610	-1.1300678
58	0x3e4fb7f6	0.2028502
59	0x3f92c73d	1.1467053
60	0x3ff27e27	1.8944749
61	0xbeeb713c	-0.45984828
62	0x3da9e84e	0.08296262
63	0x3eabb601	0.33537295
64	0x3f78958f	0.9710321
65	0x3c9d5473	0.019205308
66	0x3f463b7c	0.77434516
67	0xbf83cbe5	-1.0296599
68	0xbefbe1cb	-0.49195704
69	0xbf24c1dd	-0.6435831
70	0xbe7badde	-0.24578044
71	0x3e750d92	0.23930958
72	0x403630dc	2.8467321
73	0xbde93582	-0.11387159
74	0xbd0299f9	-0.03188512
75	0x3ea156a8	0.31511426
76	0xc05a21da	-3.4083161
77	0xbf1db41f	-0.6160297
78	0xbf1bfc8c	-0.6093223
79	0x40182fcc	2.3779173
80	0x3f867195	1.0503412
81	0xbd7c65eb	-0.061620634
82	0x3f622bf1	0.883483
83	0xbee3b92b	-0.4447721
84	0xbdabec3c	-0.083946675
85	0x3f6cb04c	0.9245651
86	0x3ec6644a	0.3874839
87	0x3f21ed5a	0.63252795
88	0x3ce15f5d	0.027511293
89	0x3ec778a0	0.38959217
90	0xbf05ae42	-0.5221902
91	0xbddda5da	-0.10822649
92	0x3ff14fb1	1.8852445
93	0x3ffcc183	1.9746555
94	0x3f3886f3	0.72080916
95	0x3e0a57fa	0.13510123
96	0x3eb337cc	0.35003507
97	0xbda51cab	-0.080621086
98	0x3def058a	0.11670978
99	0xbea9750f	-0.3309712
100	0xbe807bc4	-0.25094426
101	0x3d683934	0.05669518
102	0xbf7eaae0	-0.99479485
103	0xbed5e6a9	-0.41777542
104	0x3fb4cef4	1.4125657
105	0xbd05cca9	-0.032665882
106	0x3f074157	0.52834076
107	0xbf9dea1d	-1.2337071
108	0xbdd207a3	-0.10255363
109	0x3f6c7a9b	0.9237458
110	0x3d41cb62	0.0473131
111	0xbf62132a	-0.8831049
112	0xbf2bcfa4	-0.6711371
113	0x3fb4613f	1.4092177
114	0x3c1125be	0.008859096
115	0xbd53541e	-0.051593892
116	0x3e318d9c	0.17339176
117	0x3e8f7b28	0.28023648
118	0xbec2b990	-0.38032198
119	0x3e087461	0.13325645
120	0xbff34cc0	-1.9007797
121	0x3dba6d3c	0.09102866
122	0xbe4e520a	-0.20148483
123	0xbed1057a	-0.4082449
124	0xbf147fda	-0.58007586
125	0xbf922d3a	-1.1420052
126	0x3d331a89	0.043726478
127	0xbf00d021	-0.5031758
128	0x3eea1ec2	0.4572659
129	0x3ef142d1	0.4712129
130	0x3f9f47eb	1.2443823
131	0x3de8b1e1	0.11362053
132	0xbfe96bd3	-1.823603
133	0xbef63949	-0.4809058
134	0x3e42092f	0.18948816
135	0x3ee57e41	0.44822887
136	0xbd96a765	-0.07356147
137	0xbc36f6d2	-0.011167245
138	0x3e152dca	0.14568248
139	0x3e419099	0.18902816
140	0x3f0960fa	0.536636
141	0x3e6aff46	0.22948942
142	0x3fc84a6a	1.5647709
143	0x3fc21037	1.5161198
144	0xbeff4bed	-0.49862614
145	0x3dbd6b49	0.09248979
146	0x3e67bcc9	0.2263061
147	0x3e0498a0	0.12948847
148	0xbb82272e	-0.0039719557
149	0xbf43afdb	-0.7644021
150	0x3d3988c6	0.045296453
151	0xbf5f92a8	-0.87333155
152	0xbd784894	-0.06061609
153	0x3e7bee4e	0.24602625
154	0xbeb07f49	-0.3447211
155	0xc041b095	-3.0264027
156	0xbe3f74c6	-0.1869689
157	0x3e5aa8b5	0.21353419
158	0x404ccf49	3.2001517
159	0x3d063bb5	0.032771785
160	0x3f4c82ec	0.7988727
161	0x3ad95096	0.0016579803
162	0x3ccb455e	0.02481335
163	0x3f0f3d58	0.5595298
164	0x3fc21016	1.5161159
165	0xbdb5fbaa	-0.08885892
166	0xbd38d900	-0.045128822
167	0xc042b011	-3.0419962
168	0x3ea41525	0.32047382
169	0xbeb9bf47	-0.36278746
170	0x3e728179	0.23682202
171	0x3e229f38	0.1588105
172	0xbf27e853	-0.65588874
173	0x3f8f3c1c	1.1190219
174	0xbf817f17	-1.011691
175	0xbf76af9e	-0.9636172
176	0xbecd9fac	-0.40160882
177	0x3f2655fa	0.6497494
178	0x3d5ac6be	0.05341219
179	0xbc4fc015	-0.012680073
180	0xc0152c78	-2.3308392
181	0x3fa554de	1.2916524
182	0x3e2ced5d	0.16887422
183	0xbd85d5af	-0.065348975
184	0x3eea3958	0.45746875
185	0xbf718180	-0.94338226
186	0x4013e25c	2.3106909
187	0xbf4f618b	-0.81008214
188	0xbe09ab81	-0.1344433
189	0x3f1d1e43	0.613743
190	0xbd9226e9	-0.07136328
191	0xbdca0dbe	-0.09865902
192	0xc01c3d23	-2.4412315
193	0x3f314e2e	0.6925992
194	0x3fd6a4e8	1.6769075
195	0xbff6e67b	-1.9289087
196	0xbd1c8c9d	-0.038220037
197	0xbe8db370	-0.27675962
198	0x3f877f5a	1.058574
199	0x3d175f32	0.03695602
200	0x3f86b017	1.0522488
201	0xbd3bef65	-0.0458826
202	0xbd9c159f	-0.076213114
203	0x3db8bcfe	0.090204224
204	0xbf90c3b3	-1.1309723
205	0x3f0deb9c	0.55437636
206	0x3f8a0990	1.0784168
207	0xbe757a71	-0.23972489
208	0x3fec9db8	1.8485632
209	0xbc47eb2f	-0.012202068
210	0xbf32519d	-0.6965578
211	0x3f48b0ff	0.78395075
212	0xbde877ff	-0.113510124
213	0x3fc1f4ae	1.5152795
214	0x3ddf96e4	0.10917452
215	0x3f40185e	0.7503718
216	0xbce0381f	-0.02737051
217	0x3e9f1d2f	0.31076953
218	0xbf0874ab	-0.5330302
219	0x3fb28210	1.3945942
220	0x3ecb5d80	0.39719772
221	0x3d570061	0.052490596
222	0xbecf4c1b	-0.4048775
223	0xbdba5d4c	-0.09099826
224	0xbd3430ca	-0.04399184
225	0x3c3b8ced	0.011447174
226	0x3c191fd9	0.009345972
227	0xbf2c3237	-0.6726412
228	0xbec7d694	-0.39030898
229	0xbb0cac29	-0.002146492
230	0x3ded91be	0.11600064
231	0xbfad7f17	-1.355441
232	0xbe9f90aa	-0.31165057
233	0xbf91d239	-1.139228
234	0x3c946875	0.018116215
235	0x3ed0172b	0.40642676
236	0xbf8f3615	-1.118838
237	0x3f51728b	0.81815404
238	0xbfabe013	-1.3427757
239	0xbc17713b	-0.009243305
240	0xbecffedc	-0.4062413
241	0xbf116bad	-0.56804925
242	0xbd61d169	-0.05513135
243	0xbe400ad7	-0.18754135
244	0x3f6f3f63	0.93456095
245	0xbe7e5387	-0.2483655
246	0xbef8f177	-0.48621723
247	0x3dadd4c8	0.084878504
248	0x3f931712	1.1491416
249	0x3e682cf4	0.22673398
250	0x3e14d0cd	0.14532776
251	0x3fbacc6e	1.4593637
252	0x3e0a104a	0.13482776
253	0xbe4ec63d	-0.2019281
254	0x3dc97c70	0.09838188
255	0x3ecd3f4b	0.4008735

encoder.layers.0.ff.0.bias f4 [128]
0	0xc0539b2f	-3.3063467
1	0xbfc1b112	-1.5132163
2	0xbe8c1a05	-0.273636
3	0xbfbb6b95	-1.4642206
4	0xc052a8b2	-3.2915463
5	0x3f4d8e0a	0.8029486
6	0xbe3ced9a	-0.18450013
7	0xbf75bb62	-0.9598905
8	0xbff2ec74	-1.897841
9	0xbf9d7a0b	-1.230287
10	0xbf65dd31	-0.89790636
11	0xc004d0cb	-2.0752437
12	0xbf37abc8	-0.7174649
13	0xbfdd0600	-1.7267456
14	0x3fbff24b	1.4995817
15	0xbfb21e24	-1.3915448
16	0x3e9e8a56	0.30964917
17	0xbfe85625	-1.8151289
18	0xbf927c59	-1.1444198
19	0x3b8cfbd6	0.004302482
20	0xbdc59267	-0.09647065
21	0xc010cc19	-2.2624571
22	0xc011d28c	-2.2784758
23	0xbfbcb403	-1.4742435
24	0xbdf74e1c	-0.12075445
25	0x3f8249a3	1.0178722
26	0xbf5e9cf5	-0.8695825
27	0xbfd86f5a	-1.6908982
28	0xbfd92899	-1.6965514
29	0xbec07199	-0.37586668
30	0xc02524fa	-2.5803819
31	0xc08b534d	-4.3539186
32	0xbf1b0fd4	-0.60571027
33	0xc023aebc	-2.55754
34	0xbf5c7938	-0.86122465
35	0xc02e3344	-2.721879
36	0xc04d23a3	-3.2053
37	0xbe210d62	-0.15727761
38	0xbea38e2a	-0.319444
39	0xbf49751c	-0.7869432
40	0xbfabd394	-1.3423944
41	0xbfaa686c	-1.3313117
42	0xbf15329d	-0.58280355
43	0xbf1c2cda	-0.6100594
44	0xbf114db0	-0.56759167
45	0xc00f351a	-2.237616
46	0xbf5d2542	-0.86384976
47	0xbfc1e357	-1.5147504
48	0xc0188253	-2.3829544
49	0xc01571ce	-2.335071
50	0xbf60b467	-0.8777527
51	0xbfe0deea	-1.7568028
52	0xbf81d4a7	-1.0143021
53	0xbfeb0f48	-1.8364038
54	0x3ece3407	0.4027407
55	0xbe4d7a95	-0.20066293
56	0xbf9c4a68	-1.2210207
57	0xc00534a6	-2.0813384
58	0xbffad400	-1.9595947
59	0x3ea257ee	0.3170771
60	0x3f9d4d07	1.2289132
61	0xbebe1a24	-0.3712932
62	0xbe64f332	-0.22358397
63	0xc058d3f1	-3.3879359
64	0xbfb41b6a	-1.4070866
65	0xbfe1a459	-1.762828
66	0xbfdfea30	-1.7493343
67	0xbfd262e7	-1.6436433
68	0xbf1822a6	-0.5942787
69	0xbdbe4b4d	-0.09291706
70	0xbf318bac	-0.6935375
71	0xbf52110e	-0.82057273
72	0xbeeea00c	-0.4660648
73	0x3e213b42	0.15745261
74	0xc01ab7a0	-2.4174576
75	0xbfe20538	-1.7657843
76	0xbfad8243	-1.3555378
77	0xc0145491	-2.3176615
78	0xbecccb84	-0.3999902
79	0xbe93de4f	-0.28880545
80	0xbf6d2b7d	-0.9264448
81	0xbf9dcf35	-1.232886
82	0xc026c3cd	-2.6057007
83	0xbfbba026	-1.4658248
84	0xbf37c3a8	-0.7178292
85	0xbfd2c6a5	-1.6466872
86	0x3ea529ad	0.3225836
87	0xbed860b8	-0.4226129
88	0xbe3bfca2	-0.1835809
89	0xbfc2281e	-1.5168493
90	0x3b6f9e52	0.0036562872
91	0xc0324def	-2.7860067
92	0xbf3ec412	-0.7451793
93	0xbe63b930	-0.22238612
94	0xbd1949b2	-0.037423797
95	0x3e7bdf7f	0.24596976
96	0xc037c860	-2.871605
97	0xbe75a762	-0.23989633
98	0xbfa939b0	-1.322073
99	0xbcf86613	-0.03032211
100	0xbfe376af	-1.7770594
101	0x3e229a67	0.15879212
102	0xbf66a811	-0.901002
103	0xbf84bf51	-1.0370885
104	0xbe7fd460	-0.24983358
105	0xbe94a8b6	-0.29034966
106	0xbd9ccb14	-0.076559216
107	0x3d52f5b5	0.051503856
108	0xbde8778b	-0.11350926
109	0xbf06ded4	-0.5268376
110	0xbef870ce	-0.48523563
111	0xbfd3684b	-1.6516203
112	0xbfd2aa11	-1.645815
113	0xbe52fc26	-0.20604
114	0xbfcba282	-1.5908968
115	0xbfaae506	-1.3351142
116	0xbf7e911f	-0.9944019
117	0x3f3c24be	0.73493564
118	0xbfb6e557	-1.4288739
119	0x3e39c4b6	0.18141446
120	0xbf292fc9	-0.6608854
121	0xbf9603ee	-1.1719949
122	0xc05732eb	-3.3624828
123	0xbfa3ee7f	-1.2807158
124	0xbef46ff1	-0.47741655
125	0xc01e716e	-2.4756732
126	0xc00106a6	-2.0160308
127	0xbfc9109e	-1.5708196
