checkpoints/pretrain/best_model.pt (torch, 630114 bytes, 59 tensors)

pos f4 [1, 15, 64]
-0.073795445 -0.49619845 -1.1517366 -0.76804614 0.605481 -0.0821439 -0.3789039 -0.4445954
-0.38119695 -0.34709358 0.2875362 0.4233768 0.13863471 0.078092195 0.17198871 -0.047063366
-0.2843671 -0.20499918 0.6479548 0.24761048 -0.1366105 -0.5054313 0.102648996 -0.030869544
0.26922864 -0.03736658 0.16936882 0.13849892 -0.05698653 0.12013273 -0.6499398 0.05549268
-0.9063605 0.048239443 -0.16152263 0.21998265 -1.4554708 -0.13647962 -0.13451324 0.40879712
0.33608744 -0.12188649 -0.18310517 -0.37487692 -0.15639377 -0.2435021 0.1670158 0.34233233
-0.253399 0.06857993 -0.13851327 0.032372467 0.9805273 0.6210087 -0.18354993 -0.07092423
0.13209568 0.051068917 1.1459812 -0.08072755 0.38294014 -0.1545518 -0.12431037 -0.04605551
-0.08044297 -0.43391338 -0.42734927 -0.2189142 0.37349826 -0.06351279 0.067099676 -0.29637438
-0.59518117 -0.34126768 0.30926022 0.5166672 -0.9534976 0.08621419 0.032606177 0.010515885
-0.2661738 -0.19808559 -1.6244639 0.25160214 -0.11550777 -0.29999 0.12017163 0.0025035636
0.29033524 -0.008184635 0.16981888 -0.21694973 -0.029122105 -0.8141752 -0.7532667 0.07471623
-1.3311347 0.049947236 -0.14779367 0.1459561 -0.17090055 -0.12276903 -0.12907721 1.0694677
0.29848397 0.018659774 -0.17182124 -0.38779625 0.27915245 0.35043004 0.30425343 0.3568837
-0.07305499 0.049202245 -0.10464291 0.047088575 -0.7238564 0.09287443 -0.26658088 -0.07045904
0.13116242 0.5291184 1.1338874 -0.16538124 0.3857009 -0.15465125 -0.10718455 -0.01748289
-0.11253524 -0.50941724 -0.989289 0.48135686 0.6717066 -0.11098234 0.12886776 -0.38481155
-0.24781518 -0.32722488 0.30592224 0.70557314 -0.4314318 0.054712083 0.46894324 -0.029940572
-0.27263802 -0.19956973 -0.76050544 0.2682704 -0.12366324 -0.13692252 0.09965055 0.0020736312
0.29445305 -0.03273841 0.176031 -0.45902157 0.0064519187 -0.5649257 0.807517 0.057487417
-0.88144886 0.05384141 -0.15672962 0.15966791 -0.08318756 -0.1203895 -0.12968346 0.05116998
-0.45064124 0.16833311 -0.1958689 -0.36330637 0.30173138 0.92887247 -0.07221184 -0.0926899
0.13892509 0.105114706 -0.118019424 0.030311892 1.1211551 1.5184343 -0.050017815 -0.08383315
0.13078901 0.2976121 0.023453543 0.14940962 0.41644147 -0.181188 -0.11315295 -0.046054907
-0.1186585 -0.5080446 1.0592767 0.6665462 -0.91462815 -0.09096071 0.39213204 -0.4254844
-0.5474828 -0.30692053 0.29282814 0.56125426 0.51906043 0.09184578 0.26642507 -0.09554142
-0.26438272 -0.20027271 -0.6650649 0.25093165 -0.14648315 0.08673396 0.09707887 -0.026819682
0.28190368 -0.02538482 0.17469814 -1.6760855 -0.06382832 0.09914459 0.9303289 0.087624386
-1.375506 0.05755557 -0.15154153 0.14614402 -0.14533953 -0.12406008 -0.12844616 0.24305834
0.23404565 -0.24279162 -0.18395756 -0.34786656 -0.11812869 0.7684732 0.18803117 0.07888139
-0.26693156 0.06919831 -0.11677925 0.013799013 0.2732486 0.38693088 0.21700612 -0.11590325
0.17376775 -0.19246767 0.82947457 -0.54119366 0.3505679 -0.18631214 -0.109790355 -0.04869214
00000000: 1122 97bd b90d febe 1b6c 93bf ac9e 44bf
00000010: ce00 1b3f 103b a8bd b1ff c1be 02a2 e3be
00000020: 3f2c c3be 40b6 b1be f237 933e d8c4 d83e
00000030: 42f6 0d3e cdee 9f3d cf1d 303e 84c5 40bd
00000040: 9198 91be 4eeb 51be 5ee0 253f 9a8d 7d3e
00000050: 9fe3 0bbe f263 01bf a339 d23d 20e2 fcbc
00000060: 56d8 893e b30d 19bd 056f 2d3e a9d2 0d3e
00000070: b56a 69bd 2608 f63d 7462 26bf 4b4c 633d
00000080: 3e07 68bf b996 453d 3066 25be 2243 613e
00000090: de4c babf 50c1 0bbe d7bd 09be db4d d13e
000000a0: a713 ac3e a09f f9bd ec7f 3bbe deef bfbe
000000b0: b025 20be 9d58 79be 3106 2b3e 2f46 af3e
000000c0: 84bd 81be a273 8c3d 6cd6 0dbe fe98 043d
000000d0: d603 7b3f 6dfa 1e3f 83f4 3bbe b940 91bd
000000e0: 1744 073e a42d 513d 83af 923f 7c54 a5bd
000000f0: bb10 c43e d442 1ebe 6f96 febd b4a4 3cbd
00000100: 49bf a4bd e529 debe 86cd dabe 0b2b 60be
00000110: 2a3b bf3e fe12 82bd 8e6b 893d 62be 97be
00000120: cb5d 18bf a3ba aebe 5b57 9e3e 4d44 043f
00000130: 6b18 74bf 1191 b03d 0e8e 053d d24a 2c3c
00000140: ef47 88be f3d6 4abe 6fee cfbf ffd1 803e
00000150: 568f ecbd 4a98 99be 8b1c f63d d412 243b
00000160: d2a6 943e d918 06bc 00e5 2d3e 1228 5ebe
00000170: 7b91 eebc c96d 50bf 16d6 40bf d304 993d
00000180: 9f62 aabf 7995 4c3d 3957 17be 8475 153e
00000190: 8e00 2fbe 546e fbbd d12c 04be 51e4 883f
000001a0: e4d2 983e 62dc 983c e8f1 2fbe 3b8d c6be
000001b0: 12ed 8e3e 916b b33e 1bc7 9b3e 76b9 b63e
000001c0: db9d 95bd 4b88 493d 064f d6bd f3df 403d
000001d0: a74e 39bf f334 be3d 4a7d 88be d44c 90bd
000001e0: 714f 063e 4e74 073f 3923 913f b359 29be
000001f0: 977a c53e e65c 1ebe 9383 dbbd 4738 8fbc
00000200: e078 e6bd 2b69 02bf 0b42 7dbf 6874 f63e
00000210: f7f4 2b3f b64a e3bd e9f5 033e 0506 c5be
00000220: 43c3 7dbe 058a a7be d7a1 9c3e 71a0 343f
00000230: a1e4 dcbe c719 603d 5419 f03e ee45 f5bc
00000240: 3697 8bbe 025c 4cbe 7cb0 42bf bd5a 893e
00000250: 2743 fdbd 6b35 0cbe 9615 cc3d c2e5 073b
00000260: 8dc2 963e b618 06bd 7841 343e e004 ebbe
00000270: 9e6a d33b f89e 10bf 6fb9 4e3f ed77 6b3d
00000280: a2a6 61bf cf88 5c3d bb7d 20be fc7f 233e
00000290: 3d5e aabd c58e f6bd becb 04be 9d97 513d
000002a0: 73ba e6be 845f 2c3e db91 48be 4b03 babe
000002b0: 897c 9a3e 96ca 6d3f cde3 93bd 34d4 bdbd
000002c0: 6142 0e3e 6146 d73d 2bb4 f1bd a550 f83c
000002d0: 0382 8f3f 0e5c c23f 7bdf 4cbd b7b0 abbd
000002e0: 8eed 053e 9d60 983e a521 c03c d6fe 183e
000002f0: d137 d53e 5989 39be bcbc e7bd 12a4 3cbd
00000300: 3a03 f3bd 360f 02bf 6196 873f c6a2 2a3f
00000310: 1225 6abf 9c49 babd 88c5 c83e 17d9 d9be
00000320: d527 0cbf b024 9dbe 92ed 953e 5cae 0f3f
00000330: 25e1 043f a419 bc3d de68 883e 38ab c3bd
00000340: 2c5d 87be 4a14 4dbe b141 2abf 1d7a 803e
00000350: aeff 15be 93a1 b13d 49d1 c63d f3b4 dbbc
00000360: ae55 903e d3f3 cfbc 12e4 323e f889 d6bf
00000370: 6cb8 82bd 520c cb3d 092a 6e3f 6a74 b33d
00000380: 9510 b0bf 64bf 6b3d b42d 1bbe c7a6 153e
00000390: e3d3 14be 3613 febd 6487 03be 49e4 783e
000003a0: aaa9 6f3e 5e9e 78be 5f5f 3cbe 911b b2be
000003b0: 74ed f1bd a9ba 443f 3e8b 403e 918c a13d
000003c0: 41ab 88be d8b7 8d3d f629 efbd 4115 623c
000003d0: 3ee7 8b3e ce1b c63e da36 5e3e af5e edbd
000003e0: 2cf0 313e 3f16 45be 7258 543f ab8b 0abf
000003f0: a37d b33e 9cc8 3ebe c4d9 e0bd 6971 47bd

embed.weight f4 [64, 6]
0.008933102 0.010803819 0.015270206 -0.0036213484 -0.007814366 -0.0008198788 0.02514876 -0.0023194675
0.0030503687 0.012927459 -0.006191163 -0.022506347 0.13548124 -0.14344507 -0.049964096 0.113323785
-0.12459101 -0.039014816 -0.2544392 0.49036622 0.65390795 -0.086957954 0.06322355 0.6089511
0.39603925 0.18588728 0.45245022 -0.7712504 -0.67128664 1.4598426 -0.0024037967 -0.008021259
0.007397411 -0.0012496186 -0.0100120185 -0.0075230524 -0.6087952 -1.8823361 -2.8572934 -1.3586717
1.0382278 0.3573209 -0.008040135 0.007137099 0.01075283 -0.0022820013 -0.016363753 -0.0040984275
-0.055487145 0.017833749 0.06304917 0.12861316 -0.016159756 0.13386711 0.00032408704 0.0041230116
0.0003100814 -0.012242825 -0.0121050775 -0.0022979993 -0.01031336 -0.0002455407 0.0027387592 -0.013131405
-0.00744289 -0.00017276504 0.5813667 0.17217591 0.77196676 -0.594776 1.3550287 -2.4541836
0.15393683 0.06528727 0.059623424 -0.14123172 -0.017432256 0.16698807 -0.0072066197 0.0017765852
0.003447269 -0.015326663 0.005987874 -0.010165178 -0.011288867 -0.024151932 -0.0016534706 0.02518748
-0.0029883205 -0.026587598 0.00031641594 -0.001974431 0.006485606 0.0051869648 -0.00435762 0.015012661
-0.004705826 0.0024490023 -0.0016596444 -0.0026574014 -0.011889546 -0.012601013 -0.0026617385 -0.0023824985
0.0012300202 -0.010290462 -0.0063077854 -0.002979085 -0.195191 0.11763599 -0.39254543 0.24849504
0.029060638 -0.33407903 0.003141743 -0.0011916482 -0.0027830522 0.007927342 -0.008427934 -0.007515053
-0.012699388 0.0007558162 0.0060897963 -0.0056527 -0.005232265 0.00018776668 -0.026375255 -0.07157356
0.00055449776 0.24092665 -0.095621966 0.12733312 -0.013724724 0.002083841 0.0026413733 -0.008278661
-0.009844764 -0.0009288707 -0.0025281964 0.009345136 -6.2962965e-05 -0.0025092133 -0.003107148 -0.011531181
-0.010333214 -0.00077089254 0.0006663336 -0.010828801 -0.008442123 -0.0028533274 -0.006110898 -0.0053838296
0.0011333344 -0.0068872687 0.00030047787 -0.0095417155 0.005715389 0.0028046533 -0.0025373516 -0.0084323315
0.0026804146 -0.0045365705 -0.051547546 -0.053614065 -0.014697862 0.01962448 0.00067774963 -0.030058578
0.00024530827 -0.0020812796 -0.0026112557 -0.0016609972 -0.0049496936 -0.00040522846 0.057438046 0.019408755
0.016612602 0.009477434 -0.021151204 0.05513681 0.00062983646 0.023945766 -0.0036079679 0.012528067
-0.017047621 -0.041753963 -0.0037794854 -0.0014635155 -0.0056544226 -0.01205354 -0.0060121203 -0.007583518
-0.13031082 0.048101276 -0.27355874 0.20800756 0.13193999 -0.28089303 -0.003711847 0.0011974906
0.0019959628 -0.0025886102 -0.008598604 -0.0020843123 -0.0027147194 -0.0009791607 0.0011275007 -0.00860398
-0.004002351 0.00040240167 0.0021494436 -0.0063258805 -0.0012140258 -0.005605532 0.0074413246 0.0027885332
-0.037048012 -0.020780105 -0.0035880317 0.07627215 -0.021135433 0.014191317 -0.0070500267 0.0017408371
0.0038479231 -0.008599952 -0.0072017033 0.0013237665 0.00090233795 0.00028244432 0.0051320074 -0.0028713343
-0.0075326846 -0.0013800793 -0.22728935 0.31838176 0.40947288 -0.095390595 0.32288164 -0.0471908
0.014588902 0.0027156244 0.004715989 0.014342292 -0.016071582 0.01491734 -0.067297615 1.5861174
-0.5053926 0.040877715 2.7239978 0.6439576 -0.0013019968 0.003829311 0.0052608405 -0.012326463
00000000: 255c 123c 8002 313c e32f 7a3c 2554 6dbb
00000010: d407 00bc 23ed 56ba c604 ce3c 3502 18bb
00000020: b2e8 473b b1cd 533c 3ddf cabb 3b5f b8bc
00000030: 98bb 0a3e 44e3 12be 27a7 4cbd 4d16 e83d
00000040: 9229 ffbd 00ce 1fbd db45 82be 4811 fb3e
00000050: 8366 273f 0317 b2bd 597b 813d 38e4 1b3f
00000060: a8c5 ca3e 3c59 3e3e 8ea7 e73e ab70 45bf
00000070: 71d9 2bbf 1fdc ba3f 0489 1dbb 996b 03bc
00000080: fb65 f23b 3eca a3ba 7309 24bc f083 f6bb
00000090: 01da 1bbf 64f0 f0bf e5dd 36c0 f4e8 adbf
000000a0: a6e4 843f c4f2 b63e c5ba 03bc 53de e93b
000000b0: a32c 303c a18d 15bb 470d 86bc 1a4c 86bb
000000c0: 7d46 63bd 1518 923c ec1f 813d 2bb3 033e
000000d0: 7761 84bc 7614 093e 3aea a939 541a 873b
000000e0: 6c92 a239 2196 48bc 6054 46bc 089a 16bb
000000f0: 5ef9 28bc eabb 80b9 c17c 333b 1b25 57bc
00000100: 7de3 f3bb 4328 35b9 73d4 143f e24e 303e
00000110: 9d9f 453f 3d43 18bf 9571 ad3f 5811 1dc0
00000120: 9ea1 1d3e 55b5 853d b137 743d 0c9f 10be
00000130: 17ce 8ebc ecfe 2a3e 8225 ecbb 4fdc e83a
00000140: 94eb 613b af1c 7bbc ee35 c43b d98b 26bc
00000150: f1f4 38bc 46da c5bc 44b9 d8ba f955 ce3c
00000160: b3d7 43bb 3cce d9bc a1e4 a539 7565 01bb
00000170: 3585 d43b 6af7 a93b 5eca 8ebb aaf7 753c
00000180: 5433 9abb 717f 203b 6d88 d9ba cc27 2ebb
00000190: 5fcc 42bc 7b74 4ebc 9070 2ebb b123 1cbb
000001a0: a138 a13a 5399 28bc 8ab1 cebb c13c 43bb
000001b0: 26e0 47be 23eb f03d b7fb c8be 7c75 7e3e
000001c0: 9310 ee3c 680c abbe b3e5 4d3b 1431 9cba
000001d0: de63 36bb afe1 013c 5115 0abc d540 f6bb
000001e0: 1811 50bc f721 463a ea8c c73b 493a b9bb
000001f0: 6c73 abbb 3ce3 4439 eb10 d8bc 2995 92bd
00000200: b75b 113a 7ab5 763e 73d5 c3bd 9d63 023e
00000210: aadd 60bc 0d91 083b e41a 2d3b 39a3 07bc
00000220: ef4b 21bc 757f 73ba 19b0 25bb 571c 193c
00000230: fc0a 84b8 9d71 24bb 4ba1 4bbb 47ed 3cbc
00000240: a44c 29bc b915 4aba e4ac 2e3a 496b 31bc
00000250: d550 0abc e4fe 3abb ee3d c8bb d66a b0bb
00000260: 648c 943a 99ae e1bb 7589 9d39 db54 1cbc
00000270: 2848 bb3b 46ce 373b b249 26bb c327 0abc
00000280: e5a9 2f3b 83a7 94bb 8523 53bd 6c9a 5bbd
00000290: 4dcf 70bc 84c3 a03c 02ab 313a 683d f6bc
000002a0: b89c 8039 1466 08bb 9a21 2bbb d1b5 d9ba
000002b0: 0a31 a2bb d874 d4b9 2844 6b3d 1cff 9e3c
000002c0: 2717 883c 3d47 1b3c 4a45 adbc 23d7 613d
000002d0: 9c1b 253a e929 c43c a873 6cbb 8642 4d3c
000002e0: 74a7 8bbc 3406 2bbd 3eb1 77bb 6ed3 bfba
000002f0: bc48 b9bb 367c 45bc 5201 c5bb 297f f8bb
00000300: 3370 05be d805 453d e40f 8cbe efff 543e
00000310: 471b 073e 36d1 8fbe 7542 73bb 1ef5 9c3a
00000320: b3ce 023b aca5 29bb 29e1 0cbc f598 08bb
00000330: 6fe9 31bb 2e57 80ba a5c8 933a b5f7 0cbc
00000340: 2726 83bb 70f9 d239 aedd 0c3b 5549 cfbb
00000350: f21f 9fba 9cae b7bb 5bd6 f33b d3bf 363b
00000360: a8bf 17bd 0a3b aabc 2f25 6bbb 9334 9c3d
00000370: 3724 adbc b382 683c e903 e7bb cd2c e43a
00000380: 702d 7c3b d0e6 0cbc 44fc ebbb 3c82 ad3a
00000390: e08a 6c3a 0915 9439 662a a83b ff2c 3cbb
000003a0: bdd4 f6bb c7e3 b4ba 8abe 68be ef02 a33e
000003b0: 6ea6 d13e 255c c3bd be50 a53e 244b 41bd
000003c0: 4a06 6f3c 9ef8 313b 9588 9a3b effb 6a3c
000003d0: 8da8 83bc dc67 743c 55d3 89bd e505 cb3f
000003e0: 6961 01bf 646f 273d fb55 2e40 68da 243f
000003f0: c3a7 aaba 2ef5 7a3b 2163 ac3b eff4 49bc

embed.bias f4 [64]
0.09491848 0.4865658 -0.17015435 0.13970631 0.24493587 0.09882009 -0.079737194 0.3847497
0.17145285 0.33205885 -0.30432785 -0.34986758 -0.053761907 -0.073740155 -0.060459185 0.05763161
0.2759942 0.19605783 0.15647037 -0.26242626 0.12391992 0.21884495 -0.10041877 0.003103177
-0.2838912 0.031372964 -0.17890628 0.29796985 0.042284515 0.2909876 0.04969409 -0.06603318
-0.27796087 -0.05518309 0.14935143 -0.16964029 0.30198434 0.12424523 0.12418153 -0.20858106
-0.12510878 0.27429977 0.17949153 0.37687644 -0.11123298 0.09126063 -0.15884057 -0.14276992
-0.034499362 -0.08453594 0.11745227 -0.029746782 -0.028678218 -0.25897187 -0.19709101 0.08382856
-0.13922235 -0.13140357 0.02856447 0.009726387 -0.37758633 0.15323952 0.109920554 0.040146977
00000000: 9f64 c23d 271f f93e f13c 2ebe 2c0f 0f3e
00000010: 78d0 7a3e 3062 ca3d 414d a3bd eafd c43e
00000020: 5691 2f3e 9e03 aa3e dcd0 9bbe d821 b3be
00000030: 7235 5cbd 1405 97bd 0da4 77bd 200f 6c3d
00000040: 1d4f 8d3e 62c3 483e c539 203e bc5c 86be
00000050: bac9 fd3d e418 603e 5ba8 cdbd ac5e 4b3b
00000060: 305a 91be f080 003d 3533 37be 818f 983e
00000070: 8732 2d3d 54fc 943e 088c 4b3d 673c 87bd
00000080: e350 8ebe aa07 62bd 95ef 183e 2fb6 2dbe
00000090: b19d 9a3e 4874 fe3d e352 fe3d 4696 55be
000000a0: 841c 00be 0571 8c3e a1cc 373e f3f5 c03e
000000b0: 1ece e3bd dae6 ba3d 1aa7 22be 4732 12be
000000c0: 344f 0dbd 2e21 adbd d18a f03d 86af f3bc
000000d0: 95ee eabc f697 84be 3ad2 49be 4fae ab3d
000000e0: 4e90 0ebe a88e 06be 0900 ea3c 6d5b 1f3c
000000f0: ff52 c1be d2ea 1c3e 071e e13d 2871 243d

layers.0.self_attn.in_proj_weight f4 [192, 64]
0.01065226 0.024336893 0.41016993 -0.042994317 0.14363518 -0.0057807877 -0.0078813415 -0.014802025
-0.20903774 0.007404201 -0.010650833 0.103117645 -0.15400063 -0.012196572 -0.064475074 0.10437265
-0.020923493 0.00045040494 0.113819264 -0.012411997 -0.005991879 0.33318746 -0.032940246 -0.0034573416
0.0033823708 0.0023633307 -0.008216442 -0.33548138 -0.033432655 -0.16512258 -0.06794528 0.009319204
-0.09963915 -0.012474099 -0.0069193486 0.044920143 -0.2461452 0.00487001 -0.009773214 0.17135124
0.12550564 -0.009866823 0.03739634 0.037415963 0.013028485 -0.045150205 -0.07951149 0.03561212
-0.071816556 0.015703263 -0.008064677 0.012951962 0.115735285 -0.23828444 -0.020828469 0.0109673245
0.03283331 0.019675933 0.27912006 -0.066889025 -0.0014907095 -0.013940647 -0.008681998 0.014269678
0.010023753 0.045108467 -0.121182956 -0.14645031 -0.008062725 0.03808603 -0.052762765 0.005666786
-0.049612638 0.0329724 -0.02369423 -0.14928585 -0.051479686 -0.049160793 -0.32300243 0.017802685
0.07675443 0.0057391757 0.08915742 0.04369865 -0.032743666 -0.20116831 -0.017351488 0.0051741386
-0.0063752066 -0.003936431 -0.088198796 -0.2448196 0.020676615 -0.24295273 0.43403402 0.048296053
-0.0070530483 -0.0137051195 0.0010633824 -0.021570524 0.07785737 0.006241657 0.00045248636 0.08987226
0.2719947 0.04548473 0.036718644 0.00050813326 -0.019967444 -0.08015905 -0.6852997 0.30997366
0.06693323 -0.041642617 0.026756378 0.002724611 0.07904901 -0.14119755 0.020766234 -0.034424253
-0.034371283 0.48189935 -0.06451091 0.05050865 -0.033200096 -0.016542263 0.0043658908 0.06264007
-0.02175461 0.0630086 -0.040591016 0.10093176 0.05122997 0.05964896 0.017985076 -0.026630312
-0.052007113 0.00830976 0.010440154 0.0645727 0.052984077 -0.011711692 -0.074936524 -0.029624613
0.03021024 0.059091914 0.032133255 0.03281283 0.007841933 -0.05834321 0.016128117 -0.0077609983
0.02297907 0.0064624506 -0.15316595 0.056074284 0.0042748577 0.11422774 -0.04903403 0.0195316
-0.009365489 0.002461126 0.033146694 0.0023019123 0.026626103 0.001533247 0.060677905 -0.03679496
-0.0027383424 -0.03984714 -0.004239123 0.012250441 0.026659453 0.01292945 -0.108924374 0.010092283
-0.053036194 -0.04952921 0.02965904 0.014283158 -0.042680323 -0.06920081 -0.027031722 -0.00070779317
0.04864415 0.085183606 -0.040297188 -0.039660513 0.055678543 0.029588472 0.02108205 0.093781136
-0.16450006 -0.08841262 0.04127332 0.0076184617 -0.0022434508 0.053777885 0.014971534 0.05773154
-0.03407119 -0.013202418 -0.009381696 0.026898779 0.0027389084 0.034516767 -0.017326023 -0.009890019
0.03022728 0.01186678 -0.010085317 -0.019444976 -0.0025889387 -0.017472694 0.08205606 -0.026112024
0.008072557 -0.057724148 0.008206387 0.013116624 0.0077338875 -0.026976878 -0.0061884806 -0.05091219
-0.010321807 0.016887367 0.013837997 -0.02902956 0.054844417 -0.0027035717 0.002515477 0.03193093
-0.011560952 -0.026811069 -0.07231089 -0.14106818 -0.011099799 0.011993791 0.039723817 -0.068611436
-0.043964606 -0.067749195 -0.006913544 -0.047670018 0.0075437827 0.048404038 -0.00805303 -0.004343588
-0.03816873 0.014260122 -0.040215313 -0.03821793 0.066767 0.031946544 -0.0027265174 0.034279425
00000000: d186 2e3c 2a5e c73c cb01 d23e cf1a 30bd
00000010: 1a15 133e c36c bdbb be20 01bc 3184 72bc
00000020: fd0d 56be f19e f23b d580 2ebc 582f d33d
00000030: 57b2 1dbe 21d4 47bc 820b 84bd 54c1 d53d
00000040: bf67 abbc 5424 ec39 131a e93d b05b 4bbc
00000050: 8657 c4bb 8c97 aa3e 5aec 06bd 9194 62bb
00000060: c4aa 5d3b 1ce2 1a3b 419e 06bc 37c4 abbe
00000070: aef0 08bd e515 29be e526 8bbd 93af 183c
00000080: 9c0f ccbd 2a60 4cbc b4bb e2bb 2ffe 373d
00000090: 7d0d 7cbe 9b94 9f3b d51f 20bc b376 2f3e
000000a0: 8d84 003e 75a8 21bc e82c 193d 7b41 193d
000000b0: 6d75 553c 6cef 38bd ecd6 a2bd 04de 113d
000000c0: 8f14 93bd 21a4 803c b521 04bc 7734 543c
000000d0: 9f06 ed3d d600 74be 77a0 aabc 4bb0 333c
000000e0: 397c 063d 6c2f a13c d3e8 8e3e 1dfd 88bd
000000f0: e963 c3ba 5067 64bc f03e 0ebc 5ecb 693c
00000100: ab3a 243c a8c3 383d c52e f8bd 12f7 15be
00000110: 8519 04bc 1900 1c3d c51d 58bd 72b0 b93b
00000120: 9f36 4bbd 110e 073d 671a c2bc 64de 18be
00000130: 5ddc 52bd d45c 49bd 9360 a5be f0d6 913c
00000140: 6d31 9d3d b20f bc3b 2a98 b63d 5bfd 323d
00000150: 391e 06bd 11ff 4dbe b524 8ebc d28b a93b
00000160: 1ce7 d0bb 2dfd 80bb 92a1 b4bd fdb1 7abe
00000170: 0162 a93c 9ac8 78be b539 de3e 15d2 453d
00000180: 421d e7bb 708b 60bc 3161 8b3a abb4 b0bc
00000190: af73 9f3d d086 cc3b b13b ed39 f30e b83d
000001a0: e442 8b3e 324e 3a3d 4a66 163d 3f34 053a
000001b0: c492 a3bc 6e2a a4bd cd6f 2fbf deb4 9e3e
000001c0: 4a14 893d 7391 2abd 3130 db3c 638f 323b
000001d0: 73e4 a13d 1796 10be f31d aa3c 7200 0dbd
000001e0: e7c8 0cbd 83bb f63e 4c1e 84bd 28e2 4e3d
000001f0: d3fc 07bd a483 87bc bf0f 8f3b 7049 803d
00000200: b936 b2bc a70a 813d c442 26bd 50b5 ce3d
00000210: 84d6 513d 7852 743d 7055 933c d027 dabc
00000220: 6905 55bd a925 083c 2e0d 2b3c b13e 843d
00000230: d505 593d 66e2 3fbc 5278 99bd 51af f2bc
00000240: 777b f73c 5d0a 723d 299e 033d bf66 063d
00000250: 737b 003c 4af9 6ebd 1d1f 843c f94f febb
00000260: 9a3e bc3c f7c2 d33b 89d7 1cbe 26ae 653d
00000270: 1b14 8c3b 3cf0 e93d e8d7 48bd bc00 a03c
00000280: b571 19bc d84a 213b d4c4 073d aedb 163b
00000290: fc1e da3c 3bf7 c83a 6589 783d 50b6 16bd
000002a0: c375 33bb c136 23bd 57e8 8abb 13b6 483c
000002b0: ed64 da3c 0bd6 533c be13 dfbd 1a5a 253c
000002c0: 7b3c 59bd 24df 4abd 84f7 f23c e803 6a3c
000002d0: 90d1 2ebd 27b9 8dbd a171 ddbc 328b 39ba
000002e0: 173f 473d be74 ae3d aa0e 25bd 1073 22bd
000002f0: 2f0f 643d 8663 f23c 43b4 ac3c 5310 c03d
00000300: b472 28be ad11 b5bd 360e 293d 4aa4 f93b
00000310: dc06 13bb 3346 5c3d 2a4b 753c e877 6c3d
00000320: 3b8e 0bbd f44e 58bc afb5 19bc d45a dc3c
00000330: 427f 333b 7461 0d3d 4eef 8dbc bf09 22bc
00000340: 339f f73c e26c 423c e33c 25bc 124b 9fbc
00000350: 2fab 29bb e522 8fbc 020d a83d e2e8 d5bc
00000360: c242 043c 2870 6cbd 1574 063c 1ce7 563c
00000370: 8d6c fd3b 9dfe dcbc bdc8 cabb 4d89 50bd
00000380: cc1c 29bc 6057 8a3c c4b8 623c 66cf edbc
00000390: 8aa4 603d 682e 31bb b3da 243b 02ca 023d
000003a0: 266a 3dbc e3a2 dbbc bb17 94bd 2d74 10be
000003b0: eedb 35bc 9b81 443c 71b5 223d 2784 8cbd
000003c0: 3b14 34bd 17c0 8abd 038b e2bb a341 43bd
000003d0: d631 f73b 5043 463d dbf0 03bc a854 8ebb
000003e0: d056 1cbd 49a3 693c d0b8 24bd 678a 1cbd
000003f0: 23bd 883d 61da 023d 5faf 32bb 9568 0c3d

layers.0.self_attn.in_proj_bias f4 [192]
-0.73842484 0.011230564 -0.018584996 0.0030398876 0.0033961372 -0.0060200235 -0.02512988 -0.007455283
0.020503806 0.68780744 0.016340887 0.85495174 -0.010157601 0.16807906 -0.09282666 0.021870008
-3.2073393 -0.007995281 -0.04212964 0.011825219 -0.045125656 -0.024522655 0.015670286 -0.015328062
-0.006068427 0.01961692 0.027215341 0.07037453 -0.037413694 0.002131025 -0.032912593 0.0370929
-0.0380377 -0.0061017997 -0.09113003 0.012885283 -2.4165936 0.09211198 -0.12615801 -0.024689117
0.051924773 0.035155483 -0.005314976 0.029634597 -0.015479443 -0.11546317 -0.069249935 -0.04112204
-0.013602961 0.020837735 -0.01359167 0.0150186345 0.035958346 0.0331498 0.18557756 -0.017217282
0.0015852086 0.00017488546 0.018629735 -0.014423147 0.004313493 0.032352936 -3.2322416 0.029705176
-0.0042011244 0.006803231 -0.0020563358 0.00028364212 -0.00028603297 -0.000497402 0.0041799964 0.0010074029
-0.0004852339 -0.0051841196 -0.0063952054 -0.016731929 0.0010086901 0.010625207 -0.0027277553 0.0050530615
0.023528345 0.0008747965 0.0016121899 -0.0010680608 -0.00022264785 -0.0026022894 -0.0005198696 0.002050481
-1.8485887e-05 -0.00040975751 0.00087360194 0.0025913261 -0.00070215086 -0.0006268938 -0.0010197769 0.0002728023
-0.00024203345 0.0053803264 0.0023251816 -0.00028415903 -0.03554601 -0.0048907 0.005093392 8.708659e-05
-0.005934093 -0.005219268 -0.0016661376 0.0008316294 -0.0024717348 0.0012228277 -0.00064983754 0.00090732647
0.00068858016 0.0011333545 -0.0020745932 0.0015655695 -0.0032611992 -0.0030922235 -0.01005821 0.00047624827
0.0039798575 0.0015052732 -0.0014316418 -0.0018587952 0.0022065777 0.002689968 -0.03007285 -0.0019791347
0.01320435 0.061791684 -0.0043283133 -0.0069158967 -0.01582484 0.08240748 0.0076190312 0.041098796
-0.0038052166 -0.008249357 -0.002447905 -8.418231e-05 -0.0036084098 -0.0012696303 0.0045770886 -0.004741691
-0.016304312 0.011202299 0.016903248 0.007529937 0.0029714506 0.017451562 -0.058239702 0.019403394
-0.0023107487 0.0005070053 0.0029185037 0.68719566 0.0016978363 -0.014555756 0.0069076475 -0.015741542
-0.0032493032 0.008556826 0.001980639 8.188373e-05 -0.008026493 -0.0062257363 -0.0004513055 0.086553395
0.17920353 -0.005296124 0.001632315 -0.025639717 -0.0042262515 -0.002184541 -0.019847576 0.11178169
0.021123756 -0.007414983 0.09324864 -0.0017809704 0.0075185355 -0.001654284 -0.007742683 -0.01630638
-0.0006464764 -0.010800567 0.018981684 -0.0045401165 -0.5038204 0.23405221 -0.0053045773 -0.47822717
00000000: 6909 3dbf 6600 383c 903f 98bc da38 473b
00000010: ba91 5e3b 9e43 c5bb 2edd cdbc 724b f4bb
00000020: 99f7 a73c 2614 303f 53dd 853c 1ede 5a3f
00000030: 116c 26bc eb1c 2c3e e71b bebd bb28 b33c
00000040: 0c45 4dc0 a4fe 02bc 2190 2cbd 90be 413c
00000050: aed5 38bd bce3 c8bc f95e 803c 8d22 7bbc
00000060: a8d9 c6bb aab3 a03c b5f2 de3c 8620 903d
00000070: 1a3f 19bd aba8 0b3b 5bcf 06bd baee 173d
00000080: 6bcd 1bbd 9bf1 c7bb 62a2 babd cb1c 533c
00000090: 78a9 1ac0 35a5 bc3d 912f 01be d540 cabc
000000a0: 12af 543d 32ff 0f3d 4029 aebb 41c4 f23c
000000b0: 7d9d 7dbc f477 ecbd e9d2 8dbd 966f 28bd
000000c0: f4de 5ebc e6b3 aa3c 99af 5ebc b810 763c
000000d0: 0f49 133d 16c8 073d 0b08 3e3e 420b 8dbc
000000e0: c6c6 cf3a 7561 3739 639d 983c 104f 6cbc
000000f0: 3458 8d3b 8384 043d 0cdd 4ec0 4558 f33c
00000100: 96a9 89bb a3ed de3b 97c3 06bb cdb5 9439
00000110: b2f6 95b9 1564 02ba 5af8 883b d50a 843a
00000120: fe66 feb9 8cdf a9bb df8e d1bb 6611 89bc
00000130: 0636 843a 5915 2e3c 24c4 32bb 2794 a53b
00000140: 84be c03c 9952 653a 1e50 d33a 2cfe 8bba
00000150: 9476 69b9 2c8b 2abb dc47 08ba 5d61 063b
00000160: 2412 9bb7 b9d4 d6b9 6f02 653a 3dd3 293b
00000170: 8c10 38ba 2156 24ba 09aa 85ba e806 8f39
00000180: 5cca 7db9 734d b03b 1362 183b 2efb 94b9
00000190: b198 11bd 2a42 a0bb 78e6 a63b 42a2 b638
000001a0: c872 c2bb 6506 abbb 4d62 daba b401 5a3a
000001b0: d4fc 21bb 4a47 a03a dc59 2aba a6d9 6d3a
000001c0: d581 343a 118d 943a e6f5 07bb cc33 cd3a
000001d0: d8b9 55bb e7a6 4abb 31cb 24bc f6b0 f939
000001e0: 7769 823b 964c c53a eda5 bbba d1a2 f3ba
000001f0: 3b9c 103b 2d4a 303b 565b f6bc 5fb4 01bb
00000200: 0f57 583c 4719 7d3d 86d4 8dbb bf9e e2bb
00000210: 18a3 81bc 41c5 a83d 11a9 f93b 3657 283d
00000220: f160 79bb 5028 07bc 086d 20bb 098b b0b8
00000230: 127b 6cbb b969 a6ba 67fb 953b 3060 9bbb
00000240: 9f90 85bc d989 373c ae78 8a3c b1bd f63b
00000250: abbc 423b 94f6 8e3c c18c 6ebd def3 9e3c
00000260: ee6f 17bb 8de8 043a 5e44 3f3b 0eec 2f3f
00000270: ef89 de3a 447b 6ebc 8c59 e23b 68f4 80bc
00000280: 43f2 54bb ee31 0c3c 9ccd 013b feb8 ab38
00000290: 8d81 03bc 4301 ccbb 339d ecb9 e842 b13d
000002a0: 2181 373e 1c8b adbb 67f3 d53a 620a d2bc
000002b0: 5e7c 8abb 842a 0fbb 6297 a2bc cced e43d
000002c0: ba0b ad3c 63f9 f2bb 25f9 be3d 736f e9ba
000002d0: 0c5e f63b 8fd4 d8ba 55b6 fdbb f594 85bc
000002e0: 4c78 29ba ddf4 30bc 7a7f 9b3c 42c5 94bb
000002f0: 60fa 00bf 62ab 6f3e 05d2 adbb 31da f4be

layers.0.self_attn.out_proj.weight f4 [64, 64]
-0.021357315 0.6208414 -0.08203873 -0.5147323 0.15134436 0.4393466 -0.0010234248 -0.0049312618
-0.0005567758 0.0009993649 -0.007406054 -0.03409861 -0.7193317 -0.028960027 -0.027706949 -0.029050253
-0.011322314 -0.03375356 0.62380385 0.010048169 0.107105374 -0.12460326 -0.6020092 0.026535077
0.007225407 0.0059672683 -0.14734884 -0.2765711 0.032026157 0.05053177 -0.09890734 -0.06349268
-0.06611343 -0.019396193 0.08177371 -0.023868311 0.008226302 0.11701549 -0.076983765 -1.0476924
0.19365717 -0.0106767295 0.02669013 -0.73345125 -0.16585042 0.036557984 -0.6004865 -0.44483557
0.092266545 -0.046715114 0.04191472 -0.03642364 -0.035922203 -0.03717827 -0.066400416 -0.6898279
-0.049127996 0.043243866 -0.00092431175 0.0029077574 0.7648171 -1.3729508 -0.004128647 -0.3709694
0.025765335 0.6485552 0.008960824 -0.044590384 -0.88126045 0.194738 -0.0074441507 0.19551998
-0.018643843 -0.0049186572 0.024389545 0.040851958 -0.5191108 0.0010726947 0.017357517 -0.019007858
-0.05322823 -0.009700285 -0.26700985 -0.04336467 0.032128457 0.68834364 -1.0434589 0.039699804
-0.05094114 0.02301344 0.0169862 -0.3162054 -0.025548954 0.038934387 0.0061035585 0.0353733
-0.023739202 0.009209013 -0.01181658 0.026234759 -0.0059159715 -0.019634925 0.011041041 0.78659815
-0.1744633 -0.01010767 0.048975278 0.3550028 0.7746248 0.022993056 -0.32543457 0.36021057
0.5574475 0.00486402 0.91620785 0.05927921 0.03144915 -0.016047115 -0.059538357 0.041788593
0.014518947 -0.018510006 0.050106175 -0.0116523085 -0.8396558 -1.0917926 -0.008888612 0.52740395
-0.031428117 0.38884273 -0.0019087248 0.35274327 0.26496932 -0.34755698 0.0077568907 0.039047625
0.008864542 -0.020984026 -0.017482538 -0.00066176814 0.44502246 0.0052290945 0.010492769 0.004765427
-0.034175728 0.004886466 -0.032919157 -0.014095343 0.007638617 0.06378529 -0.09224862 -0.0067312885
0.019340878 0.031379938 -0.0049558333 0.15979321 -0.0017898572 0.0155391935 -0.0042438847 -0.004737438
0.0021321778 0.021935495 -0.010430227 0.0021426799 0.012684797 -0.011964583 0.014008744 0.16861482
0.5805737 0.0067064688 -0.019637674 0.20561995 0.1131275 -0.0016203548 -0.07823265 0.19025366
-0.05495065 -0.052494787 0.19037764 0.0012489058 0.020874634 0.002043488 -0.022204667 0.043213297
0.013988733 8.07111e-05 0.009214298 0.013574527 0.58282083 -0.2870812 0.0010604038 -0.2153297
0.0027095145 -0.65607 -0.018878225 0.0972964 -0.029260026 -0.35808885 -0.008463284 -0.35634717
-0.020236732 0.013642353 0.015490929 -0.0001099601 -0.23277001 0.0024120752 -0.0023139408 0.0063500293
-0.028488101 0.056146253 0.09244985 0.014294559 0.0079414435 0.39349693 -0.13157378 -0.019480968
-0.003093237 -0.019182034 0.007996633 -0.14987884 -0.01020024 0.028089821 0.011386347 0.008677438
0.003261791 0.010802242 0.000496919 0.020505065 -0.015545135 -0.010903963 0.0056703747 -0.14806421
0.08634134 0.002338664 -0.009412189 -0.2956542 0.2254515 -0.0033678317 -0.037566885 -0.73101205
0.17848913 -0.036488507 -0.0921991 0.0028429464 0.01825296 -0.015109202 -0.041269246 -0.18185954
0.003797686 -0.009827059 0.033420365 -0.01799883 0.05567971 0.51701397 -0.02536025 0.31270635
00000000: 89f5 aebc 76ef 1e3f ec03 a8bd 7fc5 03bf
00000010: 04fa 1a3e 0af2 e03e 7024 86ba 6c96 a1bb
00000020: 97f4 11ba 1ffd 823a 7cae f2bb fcaa 0bbd
00000030: 1f26 38bf 943d edbc aff9 e2bc ccfa edbc
00000040: 3a81 39bc 2c41 0abd 9cb1 1f3f 13a1 243c
00000050: 105a db3d fe2f ffbd 461d 1abf 1760 d93c
00000060: 1bc3 ec3b 1389 c33b 9de2 16be ba9a 8dbe
00000070: dc2d 033d 67fa 4e3d ee8f cabd 7308 82bd
00000080: 7a66 87bd c4e4 9ebc fa78 a73d 7a87 c3bc
00000090: 9dc7 063c d1a5 ef3d aaa9 9dbd c91a 86bf
000000a0: 114e 463e 73ed 2ebc 42a5 da3c 76c3 3bbf
000000b0: b1d4 29be d3bd 153d 7cb9 19bf 7dc1 e3be
000000c0: 3ef6 bc3d 5958 3fbd c5ae 2b3d f430 15bd
000000d0: 2923 13bd 3e48 18bd f1fc 87bd 9098 30bf
000000e0: 703a 49bd 7b20 313d 834d 72ba 1390 3e3b
000000f0: 0ecb 433f dabc afbf 9a49 87bb b4ef bdbe
00000100: d311 d33c b707 263f 6cd0 123c 68a4 36bd
00000110: 499a 61bf 6669 473e 10ee f3bb 6436 483e
00000120: f9ba 98bc b02c a1bb 95cc c73c 6254 273d
00000130: 72e4 04bf a999 8c3a 5a31 8e3c 5eb6 9bbc
00000140: d805 5abd f2ed 1ebc 84b5 88be 279f 31bd
00000150: 2199 033d 4a37 303f 1090 85bf 439c 223d
00000160: a8a7 50bd af86 bc3c a526 8b3c ade5 a1be
00000170: 0a4c d1bc aa79 1f3d 5c00 c83b 98e3 103d
00000180: b778 c2bc 66e1 163c 549a 41bc 47ea d63c
00000190: c4da c1bb 6cd9 a0bc 7ce5 343c 7f5e 493f
000001a0: 82a6 32be a49a 25bc 4d9a 483d edc2 b53e
000001b0: d04d 463f ef5b bc3c 5c9f a6be 856d b83e
000001c0: e1b4 0e3f 5b62 9f3b 998c 6a3f c2ce 723d
000001d0: d3d0 003d 3d75 83bc 7ede 73bd 842a 2b3d
000001e0: e1e0 6d3c 4ca2 97bc 223c 4d3d 53e9 3ebc
000001f0: aff3 56bf dcbf 8bbf 8aa1 11bc f203 073f
00000200: c5ba 00bd 6516 c73e 2d2e faba c49a b43e
00000210: 0faa 873e fdf2 b1be 842d fe3b 67f0 1f3d
00000220: 953c 113c b1e6 abbc 8a37 8fbc 827a 2dba
00000230: fcd9 e33e d358 ab3b dde9 2b3c 4d27 9c3b
00000240: d9fb 0bbd a61e a03b 3dd6 06bd 27f0 66bc
00000250: 5d4d fa3b dda1 823d d8ec bcbd 2492 dcbb
00000260: c370 9e3c 4088 003d 8b64 a2bb d5a0 233e
00000270: a499 eaba 1a98 7e3c 4910 8bbb 833c 9bbb
00000280: 02bc 0b3b 11b2 b33c 8be3 2abc 346c 0c3b
00000290: e5d3 4f3c 1907 44bc ee84 653c 5da9 2c3e
000002a0: 7aa0 143f f0c1 db3b 30df a0bc 098e 523e
000002b0: 64af e73d 1662 d4ba 7138 a0bd dbd1 423e
000002c0: ef13 61bd c604 57bd 5bf2 423e 53b2 a33a
000002d0: 4801 ab3c 0aec 053b 90e6 b5bc 6d00 313d
000002e0: 0031 653c 7143 a938 91f7 163c b167 5e3c
000002f0: bf33 153f 4ffc 92be 3ffd 8a3a 647f 5cbe
00000300: 1c92 313b 34f4 27bf 82a6 9abc 5643 c73d
00000310: b9b2 efbc 6c57 b7be 96a9 0abc 2373 b6be
00000320: 81c7 a5bc 2d84 5f3c aacd 7d3c 619a e6b8
00000330: 435b 6ebe e813 1e3b 7ca5 17bb e813 d03b
00000340: e15f e9bc 9df9 653d 5956 bd3d ba33 6a3c
00000350: d41c 023c 6e78 c93e 47bb 06be 8d96 9fbc
00000360: e8b7 4abb a423 9dbc 4f04 033c d779 19be
00000370: e81e 27bc a01c e63c cd8d 3a3c d02b 0e3c
00000380: c6c3 553b e3fb 303c ab43 023a 3dfa a73c
00000390: 06b1 7ebc 89a6 32bc 8dce b93b 259e 17be
000003a0: bad3 b03d 4544 193b 9535 1abc fd5f 97be
000003b0: c2dc 663e d7b6 5cbb bcdf 19bd 9b23 3bbf
000003c0: dbc5 363e f974 15bd e2d2 bcbd ba50 3a3b
000003d0: 3b87 953c 968c 77bc f109 29bd 6339 3abe
000003e0: 99e2 783b ac01 21bc cbe3 083d 4872 93bc
000003f0: 6810 643d 075b 043f 4dc0 cfbc 0c1b a03e

layers.0.self_attn.out_proj.bias f4 [64]
-2.7532218 -0.3594726 -0.26151514 0.29938334 -0.08040945 2.5556056 -0.22432148 0.07764442
-2.2251863 0.38983962 -0.07501116 -0.15777466 2.6273692 1.3666775 0.14005429 -2.6144674
-0.050643317 -0.25374305 -0.6241594 -0.1203 -0.5092529 -0.42695653 1.4845489 0.31649914
-0.6007275 -0.42955592 0.2867054 -0.10184416 -0.27743363 -0.35225382 -0.46372786 -1.328394
0.114975244 0.70665765 -0.25911993 -1.01605 -0.10875231 -0.41857994 0.8606538 0.06312915
-0.24524978 0.11772895 -3.3331804 -0.03988228 0.38562694 -0.31264794 1.0390552 0.9483628
0.04062843 -1.1828476 -0.16832457 -2.471402 0.67142683 -0.00494197 -0.36370185 -2.1055784
-0.3342061 0.52384627 0.099888414 0.44845915 4.7915874 0.7098584 -0.098538525 0.57785803
00000000: c934 30c0 cb0c b8be 50e5 85be c648 993e
00000010: b6ad a4bd 0b8f 2340 88b4 65be 0a04 9f3d
00000020: 7469 0ec0 0f99 c73e 739f 99bd ae8f 21be
00000030: d126 2840 4aef ae3f 646a 0f3e 6f53 27c0
00000040: 5e6f 4fbd 9cea 81be e9c8 1fbf d95f f6bd
00000050: 665e 02bf 0c9a dabe b305 be3f 2d0c a23e
00000060: 47c9 19bf c1ee dbbe 0dcb 923e ac93 d0bd
00000070: c80b 8ebe 9d5a b4be bd6d edbe d108 aabf
00000080: 2478 eb3d 84e7 343f 5eab 84be ed0d 82bf
00000090: 88b9 debd 1c50 d6be cf53 5c3f db49 813d
000000a0: c222 7bbe e01b f13d d452 55c0 9a5b 23bd
000000b0: e570 c53e 6413 a0be c3ff 843f e8c7 723f
000000c0: ff69 263d 8d67 97bf 475d 2cbe 732b 1ec0
000000d0: a1e2 2b3f 40f0 a1bb 2137 babe ccc1 06c0
000000e0: 101d abbe ca1a 063f 4c92 cc3d 709c e53e
000000f0: af54 9940 48b9 353f 91ce c9bd 81ee 133f

layers.0.ff.0.weight f4 [128, 64]
-1.5405151 -0.10562055 0.57909375 -0.986634 -0.014920082 1.9714408 0.8238228 1.9853688
1.1887678 -0.12572981 -0.07305182 0.08696182 -1.593743 1.5280151 -0.39760998 1.1133868
-1.181297 -0.012587301 -0.16905826 -0.9692081 0.05428022 0.574957 1.9557426 1.275937
0.074614435 -1.4740125 1.2880906 -0.47478697 -0.057128284 1.217204 0.30905426 -0.34641376
0.009755782 0.20285831 0.14353018 -0.06292774 0.35857162 -0.035414997 0.38508427 -0.754373
0.5528288 -0.7800527 -1.1775801 -0.61346346 -1.0048692 0.21658315 0.2529336 -0.17479388
-0.28473282 1.24376 0.026136935 -0.21831845 0.68020135 -0.26448604 -0.39959183 0.09641525
-1.0124365 -1.1360781 0.18328059 1.1370603 1.8802468 -0.46066839 0.06392964 0.32123426
0.9713341 0.031202834 0.7994951 -1.0351721 -0.48464528 -0.6568382 -0.2601456 0.24511956
2.8516653 -0.12360578 -0.028855981 0.3064464 -3.397054 -0.6312679 -0.61441004 2.3746967
1.0522135 -0.059950072 0.875971 -0.4382172 -0.082557105 0.923398 0.39343286 0.6343479
0.03530774 0.37566963 -0.55101067 -0.10777965 1.8810966 1.9775486 0.71290416 0.14731187
0.33190432 -0.08663798 0.11674819 -0.31432015 -0.26477808 0.05417652 -0.977596 -0.422003
1.3975688 -0.034713686 0.5272152 -1.2253706 -0.08917312 0.93885523 0.037252326 -0.8690471
-0.6766807 1.3778343 0.009381746 -0.050091863 0.15064442 0.29742756 -0.37317002 0.13354659
-1.8758463 0.086090595 -0.21060938 -0.42426986 -0.5742036 -1.1400949 0.043968383 -0.4853276
0.4649246 0.47913027 1.2546737 0.11654912 -1.8273894 -0.48435163 0.1840376 0.44067356
-0.08742646 -0.013357402 0.13078941 0.18173894 0.5394983 0.23358098 1.5748419 1.5022956
-0.49753073 0.08241885 0.22606143 0.1305597 0.004495505 -0.76540667 0.042110585 -0.8810512
-0.0801001 0.2538571 -0.35042527 -3.0275126 -0.18883535 0.20557305 3.2110527 0.043973073
0.78683406 -0.012873489 0.014808034 0.5604872 1.5173129 -0.091299176 -0.046189506 -3.0533142
0.32139787 -0.36975944 0.24716513 0.15515989 -0.6449998 1.1189117 -1.0203563 -0.9719976
-0.4126993 0.645888 0.045957424 -0.02238964 -2.3244255 1.2832717 0.16728601 -0.07689081
0.45795044 -0.9311306 2.31154 -0.8189601 -0.14169283 0.6179247 -0.059428837 -0.10490955
-2.454646 0.70999384 1.6871661 -1.9052615 -0.03224242 -0.27328682 1.0639845 0.013745381
1.0578953 -0.04250622 -0.075899415 0.07553089 -1.1494942 0.5739612 1.1035926 -0.24757476
1.8346703 -0.014982308 -0.692881 0.80311227 -0.11113919 1.5186232 0.12535512 0.7281674
-0.024958603 0.29032612 -0.545774 1.3768384 0.4114676 0.050130628 -0.42356893 -0.09413101
-0.058442216 0.017183047 0.007979314 -0.6473131 -0.39004648 -0.010920573 0.14150788 -1.3525616
-0.3148035 -1.1307925 -0.0025086794 0.39857143 -1.136184 0.8182863 -1.3516291 -0.011123799
-0.41085383 -0.56692237 -0.0521786 -0.18864545 0.94768 -0.22392817 -0.48899534 0.08316511
1.1651565 0.24790967 0.16949642 1.4536059 0.1471214 -0.1867699 0.09934021 0.41586784
00000000: 992f c5bf 964f d8bd 7d3f 143f 0c94 7cbf
00000010: 5c73 74bc 2c58 fc3f 0de6 523f 9120 fe3f
00000020: 8b29 983f 51bf 00be 319c 95bd 0a19 b23d
00000030: c5ff cbbf 0096 c33f 8993 cbbe 7583 8e3f
00000040: bd34 97bf f83a 4ebc 9c1d 2dbe 061e 78bf
00000050: f054 5e3d 6230 133f c655 fa3f e751 a33f
00000060: 74cf 983d 71ac bcbf 27e0 a43f 4717 f3be
00000070: 59ff 69bd 57cd 9b3f 5c3c 9e3e 255d b1be
00000080: b7d6 1f3c 17ba 4f3e 93f9 123e 42e0 80bd
00000090: b396 b73e 510f 11bd c429 c53e 971e 41bf
000000a0: 3086 0d3f 89b1 47bf f2ba 96bf f10b 1dbf
000000b0: 8e9f 80bf f9c7 5d3e 8380 813e 2bfd 32be
000000c0: 80c8 91be 8733 9f3f 201d d63c df8e 5fbe
000000d0: ad21 2e3f b76a 87be 4d97 ccbe 5c75 c53d
000000e0: 8597 81bf 026b 91bf e8ad 3b3e 318b 913f
000000f0: edab f03f badc ebbe 8bed 823d d178 a43e
00000100: 5aa9 783f 169d ff3c b6ab 4c3f 8580 84bf
00000110: 6d23 f8be 8c26 28bf ce31 85be 9f00 7b3e
00000120: af81 3640 0725 fdbd 6163 ecbc 8be6 9c3e
00000130: 5569 59c0 c69a 21bf fa49 1dbf 08fb 1740
00000140: efae 863f 358e 75bd a33f 603f 015e e0be
00000150: b313 a9bd d063 6c3f 0870 c93e a064 223f
00000160: d99e 103d c557 c03e 090f 0dbf 94bb dcbd
00000170: c6c7 f03f 5020 fd3f e380 363f ecd8 163e
00000180: 5def a93e 416f b1bd ad19 ef3d 92ee a0be
00000190: fe90 87be 33e8 5d3d bb43 7abf c710 d8be
000001a0: 89e3 b23f f02f 0ebd 93f7 063f f2d8 9cbf
000001b0: 66a0 b6bd d158 703f e595 183d df79 5ebf
000001c0: f23a 2dbf e05c b03f e5b5 193c 202d 4dbd
000001d0: 8842 1a3e 6d48 983e 2410 bfbe 70c0 083e
000001e0: bb1b f0bf 4450 b03d fca9 57be e639 d9be
000001f0: 02ff 12bf a1ee 91bf 3118 343d dc7c f8be
00000200: 990a ee3e 9050 f53e 2699 a03f 4eb1 ee3d
00000210: e5e7 e9bf f0fc f7be 5a74 3c3e f79f e13e
00000220: a50c b3bd 01d9 5abc a9ed 053e c619 3a3e
00000230: 901c 0a3f da2f 6f3e 6b94 c93f 394b c03f
00000240: 59bc febe 37cb a83d a67c 673e 71b1 053e
00000250: 074f 933b b1f1 43bf 267c 2c3d 928c 61bf
00000260: 850b a4bd 8ff9 813e f16a b3be c4c2 41c0
00000270: 0e5e 41be be81 523e e381 4d40 1c1d 343d
00000280: f56d 493f 54eb 52bc 659d 723c 177c 0f3f
00000290: 4f37 c23f 10fb babd 3531 3dbd 8069 43c0
000002a0: 438e a43e 1c51 bdbe db18 7d3e 3ce2 1e3e
000002b0: b51e 25bf 8038 8f3f 099b 82bf d6d4 78bf
000002c0: 534d d3be ea58 253f da3d 3c3d 7a6a b7bc
000002d0: 63c3 14c0 3f42 a43f 064d 2b3e ee78 9dbd
000002e0: 7b78 ea3e 935e 6ebf 45f0 1340 5ea7 51bf
000002f0: ed17 11be 5030 1e3f a76b 73bd d1da d6bd
00000300: ec18 1dc0 28c2 353f 0ff5 d73f 9cdf f3bf
00000310: a110 04bd 40ec 8bbe a530 883f 4e34 613c
00000320: 1d69 873f 011b 2ebd 2771 9bbd f0af 9a3d
00000330: a022 93bf 1fef 123f 8642 8d3f 3d84 7dbe
00000340: 7ad6 ea3f 5b78 75bc a660 31bf c498 4d3f
00000350: f29c e3bd 3f62 c23f 185d 003e 2e69 3a3f
00000360: fc75 ccbc a0a5 943e d8b7 0bbf 3e3c b03f
00000370: e2ab d23e c655 4d3d 07de d8be c2c7 c0bd
00000380: 1b61 6fbd 76c3 8c3c abbb 023c 50b6 25bf
00000390: 2cb4 c7be 34ec 32bc 71e7 103e bd20 adbf
000003a0: ed2d a1be cfbd 90bf a868 24bb 8e11 cc3e
000003b0: 7a6e 91bf 367b 513f 2f02 adbf 9840 36bc
000003c0: 6f5b d2be d321 11bf 3ab9 55bd 462c 41be
000003d0: 289b 723f 6d4d 65be 995d fabe 7852 aa3d
000003e0: d923 953f 08dc 7d3e 7890 2d3e c20f ba3f
000003f0: fea6 163e 9c40 3fbe e172 cb3d a1ec d43e

layers.0.ff.0.bias f4 [128]
-3.324901 -1.5140907 -0.26327005 -1.4621049 -3.3055077 0.81033325 -0.19009045 -0.9631045
-1.9072118 -1.2460349 -0.9182507 -2.080893 -0.7036654 -1.7393936 1.4937242 -1.3936152
0.31765568 -1.8085153 -1.1432561 0.014532912 -0.09763341 -2.2692742 -2.2729933 -1.4744809
-0.11535491 1.0140578 -0.8768622 -1.6860144 -1.702865 -0.39248753 -2.5772188 -4.3572617
-0.59986323 -2.5712612 -0.8860793 -2.7286718 -3.2188098 -0.16194375 -0.31692493 -0.7828626
-1.3410772 -1.3259507 -0.58280355 -0.60987145 -0.5760611 -2.2346246 -0.8556971 -1.5127611
-2.357694 -2.3575194 -0.8616191 -1.7618029 -1.0105654 -1.8349174 0.39754245 -0.21339753
-1.2233326 -2.0708742 -1.9732877 0.33680156 1.2125597 -0.3610671 -0.22440922 -3.3938463
-1.398573 -1.7588499 -1.7478331 -1.6422118 -0.5918111 -0.10611278 -0.70215845 -0.82318026
-0.4603721 0.16495885 -2.419936 -1.7796315 -1.3599365 -2.3142216 -0.38802472 -0.28451085
-0.9298446 -1.2397543 -2.60304 -1.4608865 -0.7121678 -1.6216221 0.31283662 -0.4061729
-0.19893031 -1.5156331 -0.007157368 -2.787632 -0.75794345 -0.21948057 -0.042858224 0.25515133
-2.888337 -0.24593318 -1.3189522 -0.03177183 -1.7679011 0.1589507 -0.8862226 -1.0377954
-0.241507 -0.2887372 -0.06027478 0.041246444 -0.09420058 -0.5247406 -0.4692086 -1.6534489
-1.6465265 -0.20179921 -1.5842545 -1.337714 -0.99747187 0.7418812 -1.4138439 0.19322903
-0.65956706 -1.1842729 -3.3586538 -1.2859915 -0.46878412 -2.4814544 -2.021091 -1.5690708
00000000: 2ecb 54c0 b9cd c1bf 55cb 86be 4126 bbbf
00000010: 708d 53c0 0072 4f3f 12a7 42be 048e 76bf
00000020: 841f f4bf 127e 9fbf 7a12 6bbf 5a2d 05c0
00000030: 6a23 34bf 73a4 debf 5b32 bf3f fc61 b2bf
00000040: c4a3 a23e 6e7d e7bf 3756 92bf 731b 6e3c
00000050: 06f4 c7bd ca3b 11c0 b978 11c0 cabb bcbf
00000060: 323f ecbd a5cc 813f 0b7a 60bf 52cf d7bf
00000070: 7bf7 d9bf 20f4 c8be 27f1 24c0 b06e 8bc0
00000080: a390 19bf 8b8f 24c0 18d6 62bf 8fa2 2ec0
00000090: fb00 4ec0 95d4 25be fc43 a2be af69 48bf
000000a0: 6ba8 abbf c1b8 a9bf 9d32 15bf 8920 1cbf
000000b0: be78 13bf 1704 0fc0 f70e 5bbf 28a2 c1bf
000000c0: 75e4 16c0 99e1 16c0 1293 5cbf c282 e1bf
000000d0: 355a 81bf 93de eabf af8a cb3e e284 5abe
000000e0: 2a96 9cbf 3489 04c0 b194 fcbf 4171 ac3e
000000f0: 2835 9b3f c9dd b8be 88cb 65be c734 59c0
00000100: 7104 b3bf fe21 e1bf ffb8 dfbf ff33 d2bf
00000110: ef80 17bf a851 d9bd a8c0 33bf f1bb 52bf
00000120: e4b5 ebbe f9ea 283e 3be0 1ac0 f7ca e3bf
00000130: 6612 aebf 351c 14c0 2dab c6be 68ab 91be
00000140: 4c0a 6ebf 45b0 9ebf 3598 26c0 54fe babf
00000150: a150 36bf 5091 cfbf 1f2c a03e e5f5 cfbe
00000160: 63b4 4bbe 4400 c2bf 5b88 eabb 9068 32c0
00000170: 9508 42bf 84bf 60be 1b8c 2fbd 32a3 823e
00000180: 83da 38c0 e8d5 7bbe 6dd3 a8bf 2e23 02bd
00000190: 954a e2bf f9c3 223e 7cdf 62bf 7bd6 84bf
000001a0: 9c4d 77be 5dd5 93be b0e2 76bd 08f2 283d
000001b0: 3cec c0bd 6655 06bf 1c3c f0be 37a4 d3bf
000001c0: 61c1 d2bf 74a4 4ebe dac8 cabf 363a abbf
000001d0: 515a 7fbf edeb 3d3f d6f8 b4bf d5dd 453e
000001e0: 63d9 28bf 4196 97bf 2ff4 56c0 5f9b a4bf
000001f0: 7904 f0be 26d0 1ec0 8e59 01c0 50d7 c8bf

layers.0.ff.2.weight f4 [64, 128]
-0.0022886626 0.53826004 0.24539684 1.8164934 -0.0578619 0.66050273 1.7669843 1.1827654
0.09107593 -0.35196397 -0.35226542 1.2578247 -0.10973896 -0.31795418 -0.7305667 -1.9630336
0.649387 0.7551727 0.64036375 0.6582269 0.9242535 -0.007917339 0.43215767 -1.7906308
-0.13338605 0.18730016 0.85030156 1.9266378 0.288699 0.8404134 0.22549911 -1.4251618
-1.5972131 0.25376457 -0.09903616 -1.1125791 0.3340041 -1.1376635 -0.35572383 -0.9906262
1.6165243 -0.02085212 0.11098589 1.2825017 -0.14277756 -0.34326538 -1.1368641 0.74353814
0.4692839 0.3246638 -0.08288106 0.69410664 0.21499333 0.036327932 -2.0946672 0.113072336
0.38226357 -0.8222824 -0.46172664 0.43762696 -0.7765894 1.245647 0.1776519 0.4802062
0.5065668 0.8145818 -0.93044853 -0.09615062 -0.92523694 -0.056674097 1.3030502 -1.0284215
-0.3916203 0.1839248 1.5892522 -0.11732589 -0.11225784 -1.0715392 -0.5070026 0.23963399
-0.10393456 1.3134322 0.39402416 -0.04400453 0.69090706 0.8646687 0.64719677 1.0885354
0.050302487 2.654692 -1.2928334 0.096824214 -0.42548904 -2.1255968 0.4672553 0.99286675
0.19958992 -0.092400126 -0.40089425 -1.505456 -0.23728426 -0.119857155 0.056199297 0.34018117
0.65064514 1.1790247 0.64462066 0.22790961 -0.6986442 0.2706915 0.51299286 0.22289318
-0.35800335 -1.4184456 0.09618028 0.43214798 -0.6227332 0.01701599 -0.38104042 0.34683377
1.576379 1.0328796 -1.6691252 0.3603337 -1.5787019 0.07175949 0.0044278223 -0.2656612
-0.44832495 -0.50476146 0.54995966 1.7312249 -1.7806807 -0.9075367 0.01872981 0.81561136
0.3966292 1.5957239 0.9178564 -0.65020466 -0.597754 -0.57924986 0.2469364 0.09889803
0.7789398 0.22938989 0.41257247 -0.44830844 0.73035294 0.3502277 0.6410098 -1.1681565
0.31888384 -0.047864236 1.4571685 0.59562314 0.4035566 0.14930496 0.22334653 1.114892
-1.4286691 -0.5775368 -0.3723752 -0.27498922 0.5302726 -0.35017622 -1.7164118 -0.32124013
1.255237 -0.5853317 -0.040083386 0.36705068 0.5275265 0.3006347 -0.04566006 1.2843938
0.6328391 -0.43064874 -0.9072003 1.1632655 -1.2479343 -0.33469298 -1.5391424 -0.55171573
-0.4874478 0.40242982 0.46648 -1.3427106 -0.7419686 -1.3416805 0.29361162 0.87966233
0.408672 2.043953 -0.07697692 -0.9852854 1.816637 0.2316756 -1.4568536 -0.31774852
2.5019228 -1.065391 0.96341604 -0.7293485 -0.31815234 -0.110498 -0.22381343 -0.10568399
0.08451086 0.5798301 0.32405564 0.7877723 0.10367414 -0.8578504 0.20436119 1.334674
0.59793705 0.84075373 0.33044013 0.09319424 0.24540035 -1.2015792 -0.9781042 0.62253994
-0.5852711 0.14373517 -0.18912588 1.2436671 1.2072284 2.169715 1.1406265 3.1066077
0.6131534 -0.3086339 -2.0840728 0.44881162 0.39921346 0.4688049 -2.4405906 -0.66002023
-0.9019028 -0.58666295 -1.9053148 -0.6104374 0.5917324 0.11617903 0.7813405 1.2462118
0.35114494 -0.19628902 -1.3602475 1.963117 -0.3580255 -1.363258 1.1274298 0.89901185
00000000: 63fd 15bb 69cb 093f 4f49 7b3e db82 e83f
00000010: 9a00 6dbd b516 293f 8b2c e23f db64 973f
00000020: 0486 ba3d 9f34 b4be 225c b4be 6600 a13f
00000030: d2be e0bd e4ca a2be 6b06 3bbf af44 fbbf
00000040: 3a3e 263f 0053 413f e1ee 233f 8f81 283f
00000050: e19b 6c3f bab7 01bc c543 dd3e 6433 e5bf
00000060: 5a96 08be 9dcb 3f3e 5dad 593f 119c f63f
00000070: 5bd0 933e 5525 573f 3de9 663e b46b b6bf
00000080: 7b71 ccbf 6eed 813e 78d3 cabd fe68 8ebf
00000090: 9602 ab3e f59e 91bf 6f21 b6be ae99 7dbf
000000a0: 45ea ce3f 11d2 aabc 924c e33d 0429 a43f
000000b0: 4834 12be 7bc0 afbe c384 91bf 8458 3e3f
000000c0: fb45 f03e 553a a63e 8cbd a9bd f9b0 313f
000000d0: 3627 5c3e 99cc 143d 070f 06c0 7892 e73d
000000e0: 0db8 c33e 1981 52bf 6f67 ecbe a410 e03e
000000f0: 90ce 46bf 5c71 9f3f 61ea 353e 96dd f53e
00000100: 5dae 013f 6f88 503f e031 6ebf 9eea c4bd
00000110: 54dc 6cbf 1923 68bd 59ca a63f 51a3 83bf
00000120: 7582 c8be c856 3c3e 9e6c cb3f 8e48 f0bd
00000130: 70e7 e5bd 3228 89bf ecca 01bf 9d62 753e
00000140: a5db d4bd 8c1e a83f 89bd c93e 183e 34bd
00000150: 49df 303f ee5a 5d3f b0ae 253f 2155 8b3f
00000160: fb09 4e3d 79e6 2940 917b a5bf c64b c63d
00000170: b3d9 d9be c709 08c0 163c ef3e 842c 7e3f
00000180: 4d61 4c3e 473c bdbd 0342 cdbe c8b2 c0bf
00000190: a5fa 72be ab77 f5bd 3c31 663d 3a2c ae3e
000001a0: ae90 263f 48ea 963f dc05 253f 2361 693e
000001b0: 59da 32bf 1498 8a3e 8053 033f 1c3e 643e
000001c0: 374c b7be a08f b5bf 2bfa c43d 8042 dd3e
000001d0: 716b 1fbf 1e65 8b3c bb17 c3be 3294 b13e
000001e0: c9c6 c93f 6635 843f e5a5 d5bf a97d b83e
000001f0: e712 cabf a4f6 923d 4417 913b bf04 88be
00000200: d98a e5be 0c38 01bf 28ca 0c3f c798 dd3f
00000210: 58ed e3bf 5354 68bf 426f 993c e8cb 503f
00000220: fc12 cb3e ae40 cc3f a3f8 6a3f d073 26bf
00000230: 6806 19bf b849 14bf e5dc 7c3e 0d8b ca3d
00000240: 9968 473f 2fe5 6a3e b33c d33e af88 e5be
00000250: 69f8 3a3f 0c51 b33e 3819 243f 2786 95bf
00000260: be44 a33e 4a0d 44bd 7f84 ba3f c27a 183f
00000270: f89e ce3e 66e3 183e f4b4 643e c8b4 8e3f
00000280: a1de b6bf 74d9 13bf f6a7 bebe 63cb 8cbe
00000290: f2bf 073f 4c4a b3be 62b3 dbbf 9679 a4be
000002a0: 9bab a03f 4cd8 15bf 7a2e 24bd 11ee bb3e
000002b0: fa0b 073f cbec 993e 0b06 3bbd 0467 a43f
000002c0: be01 223f fe7d dcbe 473e 68bf e2e5 943f
000002d0: 50bc 9fbf e15c abbe 9e02 c5bf 3e3d 0dbf
000002e0: c292 f9be 480b ce3e 77d6 ee3e f1dd abbf
000002f0: a7f1 3dbf 30bc abbf 4354 963e 8d31 613f
00000300: 753d d13e 20d0 0240 13a6 9dbd aa3b 7cbf
00000310: 9087 e83f 5e3c 6d3e 2e7a babf efaf a2be
00000320: 811f 2040 bb5e 88bf 6fa2 763f 95b6 3abf
00000330: dde4 a2be c74c e2bd 592f 65be d970 d8bd
00000340: 0814 ad3d bf6f 143f 9fea a53e 72ab 493f
00000350: 1c53 d43d 159c 5bbf 0f44 513e 99d6 aa3f
00000360: 6712 193f a33b 573f 732f a93e 9fdc be3d
00000370: 3b4a 7b3e 59cd 99bf 0965 7abf c75e 1f3f
00000380: 54d4 15bf 502f 133e 37aa 41be 7c30 9f3f
00000390: 7686 9a3f 9cdc 0a40 0d00 923f a9d2 4640
000003a0: 9ff7 1c3f 4305 9ebe 7361 05c0 a3ca e53e
000003b0: b565 cc3e 3207 f03e a332 1cc0 16f7 28bf
000003c0: 1ae3 66bf 8b2f 16bf 5be1 f3bf a045 1cbf
000003d0: c67b 173f 45ef ed3d ee05 483f de83 9f3f
000003e0: 45c9 b33e fdff 48be 971c aebf 6b47 fb3f
000003f0: 1e4f b7be 3d7f aebf 9f4f 903f a425 663f

layers.0.ff.2.bias f4 [64]
-1.4977125 0.076757155 -3.2044475 5.1712523 -0.41002485 6.1836696 -3.2670078 -2.3743565
-9.445078 -0.9794841 -0.5433964 -0.2558191 21.415707 1.584576 -2.2168403 -14.839895
0.4629402 0.06261773 -1.6114615 6.2955146 0.90973014 -1.5103303 2.350899 1.097238
-0.24523021 -3.3928413 -0.7032043 -2.1692164 -0.764935 -7.029146 1.0330251 -4.8065996
-0.4185394 2.2604663 -1.3236638 -3.4296768 1.9592712 -2.1794806 2.687163 -0.76941913
-0.33929172 -0.43262246 -6.5419474 -0.2530642 6.4598823 -0.925187 5.81518 3.1363444
4.980265 -5.2575893 0.42862538 -0.74720806 0.2671315 1.3738711 -2.129679 0.26137507
0.048894767 2.6337225 3.4181485 4.623614 2.1296027 3.2843318 2.9595332 0.32900932
00000000: 0bb5 bfbf db32 9d3d ab15 4dc0 e67a a540
00000010: c7ee d1be 9fe0 c540 a816 51c0 75f5 17c0
00000020: 0a1f 17c1 78bf 7abf 071c 0bbf b9fa 82be
00000030: 5e53 ab41 63d3 ca3f b6e0 0dc0 3670 6dc1
00000040: 7f06 ed3e b93d 803d 5f44 cebf db74 c940
00000050: 13e4 683f 8152 c1bf 2175 1640 4b72 8c3f
00000060: a11d 7bbe 5024 59c0 3205 34bf 71d4 0ac0
00000070: c8d2 43bf c4ee e0c0 2b3a 843f aacf 99c0
00000080: cc4a d6be 7bab 1040 d16d a9bf d37f 5bc0
00000090: 66c9 fa3f 9c7c 0bc0 7bfa 2b40 a7f8 44bf
000000a0: a5b7 adbe b180 ddbe a257 d1c0 a191 81be
000000b0: 5bb7 ce40 0ed9 6cbf f415 ba40 deb9 4840
000000c0: 555e 9f40 2c3e a8c0 c974 db3e 0749 3fbf
000000d0: 76c5 883e 02db af3f a94c 08c0 f4d2 853e
000000e0: e145 483d e98e 2840 f2c2 5a40 a5f4 9340
000000f0: 694b 0840 7e32 5240 fe68 3d40 e973 a83e
